layer {
  name: "data"
  type: "HDF5Data"
  top: "data"
  top: "label"
  top: "clip"
  include
  {
     phase: TRAIN
  }
  hdf5_data_param {
    source: "data/train.txt"
    batch_size: 3
  }
}
layer {
  name: "data"
  type: "HDF5Data"
  top: "data"
  top: "label"
  top: "clip"
  include
  {
     phase: TEST
  }
  hdf5_data_param {
    source: "data/test.txt"
    batch_size: 3
  }
}


layer 
{
  name: "plated"
  type: "Reshape"
  bottom: "data"
  top: "platedFC7"
  reshape_param
  {
    shape
    {
      dim: 0
      dim: 0
      dim: 6006
      dim: 1
    }
  }
}

layer 
{
  name: "vectorized"
  type: "Slice"
  bottom: "platedFC7"
#VEC
  top: "vec0"
  top: "vec1"
  top: "vec2"
  top: "vec3"
  top: "vec4"
  top: "vec5"
  top: "vec6"
  top: "vec7"
  top: "vec8"
  top: "vec9"
  top: "vec10"
  top: "vec11"
  top: "vec12"
  top: "vec13"
  top: "vec14"
  top: "vec15"
  top: "vec16"
  top: "vec17"
  top: "vec18"
  top: "vec19"
  top: "vec20"
  top: "vec21"
  top: "vec22"
  top: "vec23"
  top: "vec24"
  top: "vec25"
  top: "vec26"
  top: "vec27"
  top: "vec28"
  top: "vec29"
  top: "vec30"
  top: "vec31"
  top: "vec32"
  top: "vec33"
  top: "vec34"
  top: "vec35"
  top: "vec36"
  top: "vec37"
  top: "vec38"
  top: "vec39"
  top: "vec40"
  top: "vec41"
  top: "vec42"
  top: "vec43"
  top: "vec44"
  top: "vec45"
  top: "vec46"
  top: "vec47"
  top: "vec48"
  top: "vec49"
  top: "vec50"
  top: "vec51"
  top: "vec52"
  top: "vec53"
  top: "vec54"
  top: "vec55"
  top: "vec56"
  top: "vec57"
  top: "vec58"
  top: "vec59"
  top: "vec60"
  top: "vec61"
  top: "vec62"
  top: "vec63"
  top: "vec64"
  top: "vec65"
  top: "vec66"
  top: "vec67"
  top: "vec68"
  top: "vec69"
  top: "vec70"
  top: "vec71"
  top: "vec72"
  top: "vec73"
  top: "vec74"
  top: "vec75"
  top: "vec76"
  top: "vec77"
  top: "vec78"
  top: "vec79"
  top: "vec80"
  top: "vec81"
  top: "vec82"
  top: "vec83"
  top: "vec84"
  top: "vec85"
  top: "vec86"
  top: "vec87"
  top: "vec88"
  top: "vec89"
  top: "vec90"
  top: "vec91"
  top: "vec92"
  top: "vec93"
  top: "vec94"
  top: "vec95"
  top: "vec96"
  top: "vec97"
  top: "vec98"
  top: "vec99"
  top: "vec100"
  top: "vec101"
  top: "vec102"
  top: "vec103"
  top: "vec104"
  top: "vec105"
  top: "vec106"
  top: "vec107"
  top: "vec108"
  top: "vec109"
  top: "vec110"
  top: "vec111"
  top: "vec112"
  top: "vec113"
  top: "vec114"
  top: "vec115"
  top: "vec116"
  top: "vec117"
  top: "vec118"
  top: "vec119"
  top: "vec120"
  top: "vec121"
  top: "vec122"
  top: "vec123"
  top: "vec124"
  top: "vec125"
  top: "vec126"
  top: "vec127"
  top: "vec128"
  top: "vec129"
  top: "vec130"
  top: "vec131"
  top: "vec132"
  top: "vec133"
  top: "vec134"
  top: "vec135"
  top: "vec136"
  top: "vec137"
  top: "vec138"
  top: "vec139"
  top: "vec140"
  top: "vec141"
  top: "vec142"
  top: "vec143"
  top: "vec144"
  top: "vec145"
  top: "vec146"
  top: "vec147"
  top: "vec148"
  top: "vec149"
  top: "vec150"
  top: "vec151"
  top: "vec152"
  top: "vec153"
  top: "vec154"
  top: "vec155"
  top: "vec156"
  top: "vec157"
  top: "vec158"
  top: "vec159"
  top: "vec160"
  top: "vec161"
  top: "vec162"
  top: "vec163"
  top: "vec164"
  top: "vec165"
  top: "vec166"
  top: "vec167"
  top: "vec168"
  top: "vec169"
  top: "vec170"
  top: "vec171"
  top: "vec172"
  top: "vec173"
  top: "vec174"
  top: "vec175"
  top: "vec176"
  top: "vec177"
  top: "vec178"
  top: "vec179"
  top: "vec180"
  top: "vec181"
  top: "vec182"
  top: "vec183"
  top: "vec184"
  top: "vec185"
  top: "vec186"
  top: "vec187"
  top: "vec188"
  top: "vec189"
  top: "vec190"
  top: "vec191"
  top: "vec192"
  top: "vec193"
  top: "vec194"
  top: "vec195"
  top: "vec196"
  top: "vec197"
  top: "vec198"
  top: "vec199"
  top: "vec200"
  top: "vec201"
  top: "vec202"
  top: "vec203"
  top: "vec204"
  top: "vec205"
  top: "vec206"
  top: "vec207"
  top: "vec208"
  top: "vec209"
  top: "vec210"
  top: "vec211"
  top: "vec212"
  top: "vec213"
  top: "vec214"
  top: "vec215"
  top: "vec216"
  top: "vec217"
  top: "vec218"
  top: "vec219"
  top: "vec220"
  top: "vec221"
  top: "vec222"
  top: "vec223"
  top: "vec224"
  top: "vec225"
  top: "vec226"
  top: "vec227"
  top: "vec228"
  top: "vec229"
  top: "vec230"
  top: "vec231"
  top: "vec232"
  top: "vec233"
  top: "vec234"
  top: "vec235"
  top: "vec236"
  top: "vec237"
  top: "vec238"
  top: "vec239"
  top: "vec240"
  top: "vec241"
  top: "vec242"
  top: "vec243"
  top: "vec244"
  top: "vec245"
  top: "vec246"
  top: "vec247"
  top: "vec248"
  top: "vec249"
  top: "vec250"
  top: "vec251"
  top: "vec252"
  top: "vec253"
  top: "vec254"
  top: "vec255"
  top: "vec256"
  top: "vec257"
  top: "vec258"
  top: "vec259"
  top: "vec260"
  top: "vec261"
  top: "vec262"
  top: "vec263"
  top: "vec264"
  top: "vec265"
  top: "vec266"
  top: "vec267"
  top: "vec268"
  top: "vec269"
  top: "vec270"
  top: "vec271"
  top: "vec272"
  top: "vec273"
  top: "vec274"
  top: "vec275"
  top: "vec276"
  top: "vec277"
  top: "vec278"
  top: "vec279"
  top: "vec280"
  top: "vec281"
  top: "vec282"
  top: "vec283"
  top: "vec284"
  top: "vec285"
  top: "vec286"
  top: "vec287"
  top: "vec288"
  top: "vec289"
  top: "vec290"
  top: "vec291"
  top: "vec292"
  top: "vec293"
  top: "vec294"
  top: "vec295"
  top: "vec296"
  top: "vec297"
  top: "vec298"
  top: "vec299"
  top: "vec300"
  top: "vec301"
  top: "vec302"
  top: "vec303"
  top: "vec304"
  top: "vec305"
  top: "vec306"
  top: "vec307"
  top: "vec308"
  top: "vec309"
  top: "vec310"
  top: "vec311"
  top: "vec312"
  top: "vec313"
  top: "vec314"
  top: "vec315"
  top: "vec316"
  top: "vec317"
  top: "vec318"
  top: "vec319"
  top: "vec320"
  top: "vec321"
  top: "vec322"
  top: "vec323"
  top: "vec324"
  top: "vec325"
  top: "vec326"
  top: "vec327"
  top: "vec328"
  top: "vec329"
  top: "vec330"
  top: "vec331"
  top: "vec332"
  top: "vec333"
  top: "vec334"
  top: "vec335"
  top: "vec336"
  top: "vec337"
  top: "vec338"
  top: "vec339"
  top: "vec340"
  top: "vec341"
  top: "vec342"
  top: "vec343"
  top: "vec344"
  top: "vec345"
  top: "vec346"
  top: "vec347"
  top: "vec348"
  top: "vec349"
  top: "vec350"
  top: "vec351"
  top: "vec352"
  top: "vec353"
  top: "vec354"
  top: "vec355"
  top: "vec356"
  top: "vec357"
  top: "vec358"
  top: "vec359"
  top: "vec360"
  top: "vec361"
  top: "vec362"
  top: "vec363"
  top: "vec364"
  top: "vec365"
  top: "vec366"
  top: "vec367"
  top: "vec368"
  top: "vec369"
  top: "vec370"
  top: "vec371"
  top: "vec372"
  top: "vec373"
  top: "vec374"
  top: "vec375"
  top: "vec376"
  top: "vec377"
  top: "vec378"
  top: "vec379"
  top: "vec380"
  top: "vec381"
  top: "vec382"
  top: "vec383"
  top: "vec384"
  top: "vec385"
  top: "vec386"
  top: "vec387"
  top: "vec388"
  top: "vec389"
  top: "vec390"
  top: "vec391"
  top: "vec392"
  top: "vec393"
  top: "vec394"
  top: "vec395"
  top: "vec396"
  top: "vec397"
  top: "vec398"
  top: "vec399"
  top: "vec400"
  top: "vec401"
  top: "vec402"
  top: "vec403"
  top: "vec404"
  top: "vec405"
  top: "vec406"
  top: "vec407"
  top: "vec408"
  top: "vec409"
  top: "vec410"
  top: "vec411"
  top: "vec412"
  top: "vec413"
  top: "vec414"
  top: "vec415"
  top: "vec416"
  top: "vec417"
  top: "vec418"
  top: "vec419"
  top: "vec420"
  top: "vec421"
  top: "vec422"
  top: "vec423"
  top: "vec424"
  top: "vec425"
  top: "vec426"
  top: "vec427"
  top: "vec428"
  top: "vec429"
  top: "vec430"
  top: "vec431"
  top: "vec432"
  top: "vec433"
  top: "vec434"
  top: "vec435"
  top: "vec436"
  top: "vec437"
  top: "vec438"
  top: "vec439"
  top: "vec440"
  top: "vec441"
  top: "vec442"
  top: "vec443"
  top: "vec444"
  top: "vec445"
  top: "vec446"
  top: "vec447"
  top: "vec448"
  top: "vec449"
  top: "vec450"
  top: "vec451"
  top: "vec452"
  top: "vec453"
  top: "vec454"
  top: "vec455"
  top: "vec456"
  top: "vec457"
  top: "vec458"
  top: "vec459"
  top: "vec460"
  top: "vec461"
  top: "vec462"
  top: "vec463"
  top: "vec464"
  top: "vec465"
  top: "vec466"
  top: "vec467"
  top: "vec468"
  top: "vec469"
  top: "vec470"
  top: "vec471"
  top: "vec472"
  top: "vec473"
  top: "vec474"
  top: "vec475"
  top: "vec476"
  top: "vec477"
  top: "vec478"
  top: "vec479"
  top: "vec480"
  top: "vec481"
  top: "vec482"
  top: "vec483"
  top: "vec484"
  top: "vec485"
  top: "vec486"
  top: "vec487"
  top: "vec488"
  top: "vec489"
  top: "vec490"
  top: "vec491"
  top: "vec492"
  top: "vec493"
  top: "vec494"
  top: "vec495"
  top: "vec496"
  top: "vec497"
  top: "vec498"
  top: "vec499"
  top: "vec500"
  top: "vec501"
  top: "vec502"
  top: "vec503"
  top: "vec504"
  top: "vec505"
  top: "vec506"
  top: "vec507"
  top: "vec508"
  top: "vec509"
  top: "vec510"
  top: "vec511"
  top: "vec512"
  top: "vec513"
  top: "vec514"
  top: "vec515"
  top: "vec516"
  top: "vec517"
  top: "vec518"
  top: "vec519"
  top: "vec520"
  top: "vec521"
  top: "vec522"
  top: "vec523"
  top: "vec524"
  top: "vec525"
  top: "vec526"
  top: "vec527"
  top: "vec528"
  top: "vec529"
  top: "vec530"
  top: "vec531"
  top: "vec532"
  top: "vec533"
  top: "vec534"
  top: "vec535"
  top: "vec536"
  top: "vec537"
  top: "vec538"
  top: "vec539"
  top: "vec540"
  top: "vec541"
  top: "vec542"
  top: "vec543"
  top: "vec544"
  top: "vec545"
  top: "vec546"
  top: "vec547"
  top: "vec548"
  top: "vec549"
  top: "vec550"
  top: "vec551"
  top: "vec552"
  top: "vec553"
  top: "vec554"
  top: "vec555"
  top: "vec556"
  top: "vec557"
  top: "vec558"
  top: "vec559"
  top: "vec560"
  top: "vec561"
  top: "vec562"
  top: "vec563"
  top: "vec564"
  top: "vec565"
  top: "vec566"
  top: "vec567"
  top: "vec568"
  top: "vec569"
  top: "vec570"
  top: "vec571"
  top: "vec572"
  top: "vec573"
  top: "vec574"
  top: "vec575"
  top: "vec576"
  top: "vec577"
  top: "vec578"
  top: "vec579"
  top: "vec580"
  top: "vec581"
  top: "vec582"
  top: "vec583"
  top: "vec584"
  top: "vec585"
  top: "vec586"
  top: "vec587"
  top: "vec588"
  top: "vec589"
  top: "vec590"
  top: "vec591"
  top: "vec592"
  top: "vec593"
  top: "vec594"
  top: "vec595"
  top: "vec596"
  top: "vec597"
  top: "vec598"
  top: "vec599"
  top: "vec600"
  top: "vec601"
  top: "vec602"
  top: "vec603"
  top: "vec604"
  top: "vec605"
  top: "vec606"
  top: "vec607"
  top: "vec608"
  top: "vec609"
  top: "vec610"
  top: "vec611"
  top: "vec612"
  top: "vec613"
  top: "vec614"
  top: "vec615"
  top: "vec616"
  top: "vec617"
  top: "vec618"
  top: "vec619"
  top: "vec620"
  top: "vec621"
  top: "vec622"
  top: "vec623"
  top: "vec624"
  top: "vec625"
  top: "vec626"
  top: "vec627"
  top: "vec628"
  top: "vec629"
  top: "vec630"
  top: "vec631"
  top: "vec632"
  top: "vec633"
  top: "vec634"
  top: "vec635"
  top: "vec636"
  top: "vec637"
  top: "vec638"
  top: "vec639"
  top: "vec640"
  top: "vec641"
  top: "vec642"
  top: "vec643"
  top: "vec644"
  top: "vec645"
  top: "vec646"
  top: "vec647"
  top: "vec648"
  top: "vec649"
  top: "vec650"
  top: "vec651"
  top: "vec652"
  top: "vec653"
  top: "vec654"
  top: "vec655"
  top: "vec656"
  top: "vec657"
  top: "vec658"
  top: "vec659"
  top: "vec660"
  top: "vec661"
  top: "vec662"
  top: "vec663"
  top: "vec664"
  top: "vec665"
  top: "vec666"
  top: "vec667"
  top: "vec668"
  top: "vec669"
  top: "vec670"
  top: "vec671"
  top: "vec672"
  top: "vec673"
  top: "vec674"
  top: "vec675"
  top: "vec676"
  top: "vec677"
  top: "vec678"
  top: "vec679"
  top: "vec680"
  top: "vec681"
  top: "vec682"
  top: "vec683"
  top: "vec684"
  top: "vec685"
  top: "vec686"
  top: "vec687"
  top: "vec688"
  top: "vec689"
  top: "vec690"
  top: "vec691"
  top: "vec692"
  top: "vec693"
  top: "vec694"
  top: "vec695"
  top: "vec696"
  top: "vec697"
  top: "vec698"
  top: "vec699"
  top: "vec700"
  top: "vec701"
  top: "vec702"
  top: "vec703"
  top: "vec704"
  top: "vec705"
  top: "vec706"
  top: "vec707"
  top: "vec708"
  top: "vec709"
  top: "vec710"
  top: "vec711"
  top: "vec712"
  top: "vec713"
  top: "vec714"
  top: "vec715"
  top: "vec716"
  top: "vec717"
  top: "vec718"
  top: "vec719"
  top: "vec720"
  top: "vec721"
  top: "vec722"
  top: "vec723"
  top: "vec724"
  top: "vec725"
  top: "vec726"
  top: "vec727"
  top: "vec728"
  top: "vec729"
  top: "vec730"
  top: "vec731"
  top: "vec732"
  top: "vec733"
  top: "vec734"
  top: "vec735"
  top: "vec736"
  top: "vec737"
  top: "vec738"
  top: "vec739"
  top: "vec740"
  top: "vec741"
  top: "vec742"
  top: "vec743"
  top: "vec744"
  top: "vec745"
  top: "vec746"
  top: "vec747"
  top: "vec748"
  top: "vec749"
  top: "vec750"
  top: "vec751"
  top: "vec752"
  top: "vec753"
  top: "vec754"
  top: "vec755"
  top: "vec756"
  top: "vec757"
  top: "vec758"
  top: "vec759"
  top: "vec760"
  top: "vec761"
  top: "vec762"
  top: "vec763"
  top: "vec764"
  top: "vec765"
  top: "vec766"
  top: "vec767"
  top: "vec768"
  top: "vec769"
  top: "vec770"
  top: "vec771"
  top: "vec772"
  top: "vec773"
  top: "vec774"
  top: "vec775"
  top: "vec776"
  top: "vec777"
  top: "vec778"
  top: "vec779"
  top: "vec780"
  top: "vec781"
  top: "vec782"
  top: "vec783"
  top: "vec784"
  top: "vec785"
  top: "vec786"
  top: "vec787"
  top: "vec788"
  top: "vec789"
  top: "vec790"
  top: "vec791"
  top: "vec792"
  top: "vec793"
  top: "vec794"
  top: "vec795"
  top: "vec796"
  top: "vec797"
  top: "vec798"
  top: "vec799"
  top: "vec800"
  top: "vec801"
  top: "vec802"
  top: "vec803"
  top: "vec804"
  top: "vec805"
  top: "vec806"
  top: "vec807"
  top: "vec808"
  top: "vec809"
  top: "vec810"
  top: "vec811"
  top: "vec812"
  top: "vec813"
  top: "vec814"
  top: "vec815"
  top: "vec816"
  top: "vec817"
  top: "vec818"
  top: "vec819"
  top: "vec820"
  top: "vec821"
  top: "vec822"
  top: "vec823"
  top: "vec824"
  top: "vec825"
  top: "vec826"
  top: "vec827"
  top: "vec828"
  top: "vec829"
  top: "vec830"
  top: "vec831"
  top: "vec832"
  top: "vec833"
  top: "vec834"
  top: "vec835"
  top: "vec836"
  top: "vec837"
  top: "vec838"
  top: "vec839"
  top: "vec840"
  top: "vec841"
  top: "vec842"
  top: "vec843"
  top: "vec844"
  top: "vec845"
  top: "vec846"
  top: "vec847"
  top: "vec848"
  top: "vec849"
  top: "vec850"
  top: "vec851"
  top: "vec852"
  top: "vec853"
  top: "vec854"
  top: "vec855"
  top: "vec856"
  top: "vec857"
  top: "vec858"
  top: "vec859"
  top: "vec860"
  top: "vec861"
  top: "vec862"
  top: "vec863"
  top: "vec864"
  top: "vec865"
  top: "vec866"
  top: "vec867"
  top: "vec868"
  top: "vec869"
  top: "vec870"
  top: "vec871"
  top: "vec872"
  top: "vec873"
  top: "vec874"
  top: "vec875"
  top: "vec876"
  top: "vec877"
  top: "vec878"
  top: "vec879"
  top: "vec880"
  top: "vec881"
  top: "vec882"
  top: "vec883"
  top: "vec884"
  top: "vec885"
  top: "vec886"
  top: "vec887"
  top: "vec888"
  top: "vec889"
  top: "vec890"
  top: "vec891"
  top: "vec892"
  top: "vec893"
  top: "vec894"
  top: "vec895"
  top: "vec896"
  top: "vec897"
  top: "vec898"
  top: "vec899"
  top: "vec900"
  top: "vec901"
  top: "vec902"
  top: "vec903"
  top: "vec904"
  top: "vec905"
  top: "vec906"
  top: "vec907"
  top: "vec908"
  top: "vec909"
  top: "vec910"
  top: "vec911"
  top: "vec912"
  top: "vec913"
  top: "vec914"
  top: "vec915"
  top: "vec916"
  top: "vec917"
  top: "vec918"
  top: "vec919"
  top: "vec920"
  top: "vec921"
  top: "vec922"
  top: "vec923"
  top: "vec924"
  top: "vec925"
  top: "vec926"
  top: "vec927"
  top: "vec928"
  top: "vec929"
  top: "vec930"
  top: "vec931"
  top: "vec932"
  top: "vec933"
  top: "vec934"
  top: "vec935"
  top: "vec936"
  top: "vec937"
  top: "vec938"
  top: "vec939"
  top: "vec940"
  top: "vec941"
  top: "vec942"
  top: "vec943"
  top: "vec944"
  top: "vec945"
  top: "vec946"
  top: "vec947"
  top: "vec948"
  top: "vec949"
  top: "vec950"
  top: "vec951"
  top: "vec952"
  top: "vec953"
  top: "vec954"
  top: "vec955"
  top: "vec956"
  top: "vec957"
  top: "vec958"
  top: "vec959"
  top: "vec960"
  top: "vec961"
  top: "vec962"
  top: "vec963"
  top: "vec964"
  top: "vec965"
  top: "vec966"
  top: "vec967"
  top: "vec968"
  top: "vec969"
  top: "vec970"
  top: "vec971"
  top: "vec972"
  top: "vec973"
  top: "vec974"
  top: "vec975"
  top: "vec976"
  top: "vec977"
  top: "vec978"
  top: "vec979"
  top: "vec980"
  top: "vec981"
  top: "vec982"
  top: "vec983"
  top: "vec984"
  top: "vec985"
  top: "vec986"
  top: "vec987"
  top: "vec988"
  top: "vec989"
  top: "vec990"
  top: "vec991"
  top: "vec992"
  top: "vec993"
  top: "vec994"
  top: "vec995"
  top: "vec996"
  top: "vec997"
  top: "vec998"
  top: "vec999"
  top: "vec1000"
  top: "vec1001"
  top: "vec1002"
  top: "vec1003"
  top: "vec1004"
  top: "vec1005"
  top: "vec1006"
  top: "vec1007"
  top: "vec1008"
  top: "vec1009"
  top: "vec1010"
  top: "vec1011"
  top: "vec1012"
  top: "vec1013"
  top: "vec1014"
  top: "vec1015"
  top: "vec1016"
  top: "vec1017"
  top: "vec1018"
  top: "vec1019"
  top: "vec1020"
  top: "vec1021"
  top: "vec1022"
  top: "vec1023"
  top: "vec1024"
  top: "vec1025"
  top: "vec1026"
  top: "vec1027"
  top: "vec1028"
  top: "vec1029"
  top: "vec1030"
  top: "vec1031"
  top: "vec1032"
  top: "vec1033"
  top: "vec1034"
  top: "vec1035"
  top: "vec1036"
  top: "vec1037"
  top: "vec1038"
  top: "vec1039"
  top: "vec1040"
  top: "vec1041"
  top: "vec1042"
  top: "vec1043"
  top: "vec1044"
  top: "vec1045"
  top: "vec1046"
  top: "vec1047"
  top: "vec1048"
  top: "vec1049"
  top: "vec1050"
  top: "vec1051"
  top: "vec1052"
  top: "vec1053"
  top: "vec1054"
  top: "vec1055"
  top: "vec1056"
  top: "vec1057"
  top: "vec1058"
  top: "vec1059"
  top: "vec1060"
  top: "vec1061"
  top: "vec1062"
  top: "vec1063"
  top: "vec1064"
  top: "vec1065"
  top: "vec1066"
  top: "vec1067"
  top: "vec1068"
  top: "vec1069"
  top: "vec1070"
  top: "vec1071"
  top: "vec1072"
  top: "vec1073"
  top: "vec1074"
  top: "vec1075"
  top: "vec1076"
  top: "vec1077"
  top: "vec1078"
  top: "vec1079"
  top: "vec1080"
  top: "vec1081"
  top: "vec1082"
  top: "vec1083"
  top: "vec1084"
  top: "vec1085"
  top: "vec1086"
  top: "vec1087"
  top: "vec1088"
  top: "vec1089"
  top: "vec1090"
  top: "vec1091"
  top: "vec1092"
  top: "vec1093"
  top: "vec1094"
  top: "vec1095"
  top: "vec1096"
  top: "vec1097"
  top: "vec1098"
  top: "vec1099"
  top: "vec1100"
  top: "vec1101"
  top: "vec1102"
  top: "vec1103"
  top: "vec1104"
  top: "vec1105"
  top: "vec1106"
  top: "vec1107"
  top: "vec1108"
  top: "vec1109"
  top: "vec1110"
  top: "vec1111"
  top: "vec1112"
  top: "vec1113"
  top: "vec1114"
  top: "vec1115"
  top: "vec1116"
  top: "vec1117"
  top: "vec1118"
  top: "vec1119"
  top: "vec1120"
  top: "vec1121"
  top: "vec1122"
  top: "vec1123"
  top: "vec1124"
  top: "vec1125"
  top: "vec1126"
  top: "vec1127"
  top: "vec1128"
  top: "vec1129"
  top: "vec1130"
  top: "vec1131"
  top: "vec1132"
  top: "vec1133"
  top: "vec1134"
  top: "vec1135"
  top: "vec1136"
  top: "vec1137"
  top: "vec1138"
  top: "vec1139"
  top: "vec1140"
  top: "vec1141"
  top: "vec1142"
  top: "vec1143"
  top: "vec1144"
  top: "vec1145"
  top: "vec1146"
  top: "vec1147"
  top: "vec1148"
  top: "vec1149"
  top: "vec1150"
  top: "vec1151"
  top: "vec1152"
  top: "vec1153"
  top: "vec1154"
  top: "vec1155"
  top: "vec1156"
  top: "vec1157"
  top: "vec1158"
  top: "vec1159"
  top: "vec1160"
  top: "vec1161"
  top: "vec1162"
  top: "vec1163"
  top: "vec1164"
  top: "vec1165"
  top: "vec1166"
  top: "vec1167"
  top: "vec1168"
  top: "vec1169"
  top: "vec1170"
  top: "vec1171"
  top: "vec1172"
  top: "vec1173"
  top: "vec1174"
  top: "vec1175"
  top: "vec1176"
  top: "vec1177"
  top: "vec1178"
  top: "vec1179"
  top: "vec1180"
  top: "vec1181"
  top: "vec1182"
  top: "vec1183"
  top: "vec1184"
  top: "vec1185"
  top: "vec1186"
  top: "vec1187"
  top: "vec1188"
  top: "vec1189"
  top: "vec1190"
  top: "vec1191"
  top: "vec1192"
  top: "vec1193"
  top: "vec1194"
  top: "vec1195"
  top: "vec1196"
  top: "vec1197"
  top: "vec1198"
  top: "vec1199"
  top: "vec1200"
  top: "vec1201"
  top: "vec1202"
  top: "vec1203"
  top: "vec1204"
  top: "vec1205"
  top: "vec1206"
  top: "vec1207"
  top: "vec1208"
  top: "vec1209"
  top: "vec1210"
  top: "vec1211"
  top: "vec1212"
  top: "vec1213"
  top: "vec1214"
  top: "vec1215"
  top: "vec1216"
  top: "vec1217"
  top: "vec1218"
  top: "vec1219"
  top: "vec1220"
  top: "vec1221"
  top: "vec1222"
  top: "vec1223"
  top: "vec1224"
  top: "vec1225"
  top: "vec1226"
  top: "vec1227"
  top: "vec1228"
  top: "vec1229"
  top: "vec1230"
  top: "vec1231"
  top: "vec1232"
  top: "vec1233"
  top: "vec1234"
  top: "vec1235"
  top: "vec1236"
  top: "vec1237"
  top: "vec1238"
  top: "vec1239"
  top: "vec1240"
  top: "vec1241"
  top: "vec1242"
  top: "vec1243"
  top: "vec1244"
  top: "vec1245"
  top: "vec1246"
  top: "vec1247"
  top: "vec1248"
  top: "vec1249"
  top: "vec1250"
  top: "vec1251"
  top: "vec1252"
  top: "vec1253"
  top: "vec1254"
  top: "vec1255"
  top: "vec1256"
  top: "vec1257"
  top: "vec1258"
  top: "vec1259"
  top: "vec1260"
  top: "vec1261"
  top: "vec1262"
  top: "vec1263"
  top: "vec1264"
  top: "vec1265"
  top: "vec1266"
  top: "vec1267"
  top: "vec1268"
  top: "vec1269"
  top: "vec1270"
  top: "vec1271"
  top: "vec1272"
  top: "vec1273"
  top: "vec1274"
  top: "vec1275"
  top: "vec1276"
  top: "vec1277"
  top: "vec1278"
  top: "vec1279"
  top: "vec1280"
  top: "vec1281"
  top: "vec1282"
  top: "vec1283"
  top: "vec1284"
  top: "vec1285"
  top: "vec1286"
  top: "vec1287"
  top: "vec1288"
  top: "vec1289"
  top: "vec1290"
  top: "vec1291"
  top: "vec1292"
  top: "vec1293"
  top: "vec1294"
  top: "vec1295"
  top: "vec1296"
  top: "vec1297"
  top: "vec1298"
  top: "vec1299"
  top: "vec1300"
  top: "vec1301"
  top: "vec1302"
  top: "vec1303"
  top: "vec1304"
  top: "vec1305"
  top: "vec1306"
  top: "vec1307"
  top: "vec1308"
  top: "vec1309"
  top: "vec1310"
  top: "vec1311"
  top: "vec1312"
  top: "vec1313"
  top: "vec1314"
  top: "vec1315"
  top: "vec1316"
  top: "vec1317"
  top: "vec1318"
  top: "vec1319"
  top: "vec1320"
  top: "vec1321"
  top: "vec1322"
  top: "vec1323"
  top: "vec1324"
  top: "vec1325"
  top: "vec1326"
  top: "vec1327"
  top: "vec1328"
  top: "vec1329"
  top: "vec1330"
  top: "vec1331"
  top: "vec1332"
  top: "vec1333"
  top: "vec1334"
  top: "vec1335"
  top: "vec1336"
  top: "vec1337"
  top: "vec1338"
  top: "vec1339"
  top: "vec1340"
  top: "vec1341"
  top: "vec1342"
  top: "vec1343"
  top: "vec1344"
  top: "vec1345"
  top: "vec1346"
  top: "vec1347"
  top: "vec1348"
  top: "vec1349"
  top: "vec1350"
  top: "vec1351"
  top: "vec1352"
  top: "vec1353"
  top: "vec1354"
  top: "vec1355"
  top: "vec1356"
  top: "vec1357"
  top: "vec1358"
  top: "vec1359"
  top: "vec1360"
  top: "vec1361"
  top: "vec1362"
  top: "vec1363"
  top: "vec1364"
  top: "vec1365"
  top: "vec1366"
  top: "vec1367"
  top: "vec1368"
  top: "vec1369"
  top: "vec1370"
  top: "vec1371"
  top: "vec1372"
  top: "vec1373"
  top: "vec1374"
  top: "vec1375"
  top: "vec1376"
  top: "vec1377"
  top: "vec1378"
  top: "vec1379"
  top: "vec1380"
  top: "vec1381"
  top: "vec1382"
  top: "vec1383"
  top: "vec1384"
  top: "vec1385"
  top: "vec1386"
  top: "vec1387"
  top: "vec1388"
  top: "vec1389"
  top: "vec1390"
  top: "vec1391"
  top: "vec1392"
  top: "vec1393"
  top: "vec1394"
  top: "vec1395"
  top: "vec1396"
  top: "vec1397"
  top: "vec1398"
  top: "vec1399"
  top: "vec1400"
  top: "vec1401"
  top: "vec1402"
  top: "vec1403"
  top: "vec1404"
  top: "vec1405"
  top: "vec1406"
  top: "vec1407"
  top: "vec1408"
  top: "vec1409"
  top: "vec1410"
  top: "vec1411"
  top: "vec1412"
  top: "vec1413"
  top: "vec1414"
  top: "vec1415"
  top: "vec1416"
  top: "vec1417"
  top: "vec1418"
  top: "vec1419"
  top: "vec1420"
  top: "vec1421"
  top: "vec1422"
  top: "vec1423"
  top: "vec1424"
  top: "vec1425"
  top: "vec1426"
  top: "vec1427"
  top: "vec1428"
  top: "vec1429"
  top: "vec1430"
  top: "vec1431"
  top: "vec1432"
  top: "vec1433"
  top: "vec1434"
  top: "vec1435"
  top: "vec1436"
  top: "vec1437"
  top: "vec1438"
  top: "vec1439"
  top: "vec1440"
  top: "vec1441"
  top: "vec1442"
  top: "vec1443"
  top: "vec1444"
  top: "vec1445"
  top: "vec1446"
  top: "vec1447"
  top: "vec1448"
  top: "vec1449"
  top: "vec1450"
  top: "vec1451"
  top: "vec1452"
  top: "vec1453"
  top: "vec1454"
  top: "vec1455"
  top: "vec1456"
  top: "vec1457"
  top: "vec1458"
  top: "vec1459"
  top: "vec1460"
  top: "vec1461"
  top: "vec1462"
  top: "vec1463"
  top: "vec1464"
  top: "vec1465"
  top: "vec1466"
  top: "vec1467"
  top: "vec1468"
  top: "vec1469"
  top: "vec1470"
  top: "vec1471"
  top: "vec1472"
  top: "vec1473"
  top: "vec1474"
  top: "vec1475"
  top: "vec1476"
  top: "vec1477"
  top: "vec1478"
  top: "vec1479"
  top: "vec1480"
  top: "vec1481"
  top: "vec1482"
  top: "vec1483"
  top: "vec1484"
  top: "vec1485"
  top: "vec1486"
  top: "vec1487"
  top: "vec1488"
  top: "vec1489"
  top: "vec1490"
  top: "vec1491"
  top: "vec1492"
  top: "vec1493"
  top: "vec1494"
  top: "vec1495"
  top: "vec1496"
  top: "vec1497"
  top: "vec1498"
  top: "vec1499"
  top: "vec1500"
  top: "vec1501"
  top: "vec1502"
  top: "vec1503"
  top: "vec1504"
  top: "vec1505"
  top: "vec1506"
  top: "vec1507"
  top: "vec1508"
  top: "vec1509"
  top: "vec1510"
  top: "vec1511"
  top: "vec1512"
  top: "vec1513"
  top: "vec1514"
  top: "vec1515"
  top: "vec1516"
  top: "vec1517"
  top: "vec1518"
  top: "vec1519"
  top: "vec1520"
  top: "vec1521"
  top: "vec1522"
  top: "vec1523"
  top: "vec1524"
  top: "vec1525"
  top: "vec1526"
  top: "vec1527"
  top: "vec1528"
  top: "vec1529"
  top: "vec1530"
  top: "vec1531"
  top: "vec1532"
  top: "vec1533"
  top: "vec1534"
  top: "vec1535"
  top: "vec1536"
  top: "vec1537"
  top: "vec1538"
  top: "vec1539"
  top: "vec1540"
  top: "vec1541"
  top: "vec1542"
  top: "vec1543"
  top: "vec1544"
  top: "vec1545"
  top: "vec1546"
  top: "vec1547"
  top: "vec1548"
  top: "vec1549"
  top: "vec1550"
  top: "vec1551"
  top: "vec1552"
  top: "vec1553"
  top: "vec1554"
  top: "vec1555"
  top: "vec1556"
  top: "vec1557"
  top: "vec1558"
  top: "vec1559"
  top: "vec1560"
  top: "vec1561"
  top: "vec1562"
  top: "vec1563"
  top: "vec1564"
  top: "vec1565"
  top: "vec1566"
  top: "vec1567"
  top: "vec1568"
  top: "vec1569"
  top: "vec1570"
  top: "vec1571"
  top: "vec1572"
  top: "vec1573"
  top: "vec1574"
  top: "vec1575"
  top: "vec1576"
  top: "vec1577"
  top: "vec1578"
  top: "vec1579"
  top: "vec1580"
  top: "vec1581"
  top: "vec1582"
  top: "vec1583"
  top: "vec1584"
  top: "vec1585"
  top: "vec1586"
  top: "vec1587"
  top: "vec1588"
  top: "vec1589"
  top: "vec1590"
  top: "vec1591"
  top: "vec1592"
  top: "vec1593"
  top: "vec1594"
  top: "vec1595"
  top: "vec1596"
  top: "vec1597"
  top: "vec1598"
  top: "vec1599"
  top: "vec1600"
  top: "vec1601"
  top: "vec1602"
  top: "vec1603"
  top: "vec1604"
  top: "vec1605"
  top: "vec1606"
  top: "vec1607"
  top: "vec1608"
  top: "vec1609"
  top: "vec1610"
  top: "vec1611"
  top: "vec1612"
  top: "vec1613"
  top: "vec1614"
  top: "vec1615"
  top: "vec1616"
  top: "vec1617"
  top: "vec1618"
  top: "vec1619"
  top: "vec1620"
  top: "vec1621"
  top: "vec1622"
  top: "vec1623"
  top: "vec1624"
  top: "vec1625"
  top: "vec1626"
  top: "vec1627"
  top: "vec1628"
  top: "vec1629"
  top: "vec1630"
  top: "vec1631"
  top: "vec1632"
  top: "vec1633"
  top: "vec1634"
  top: "vec1635"
  top: "vec1636"
  top: "vec1637"
  top: "vec1638"
  top: "vec1639"
  top: "vec1640"
  top: "vec1641"
  top: "vec1642"
  top: "vec1643"
  top: "vec1644"
  top: "vec1645"
  top: "vec1646"
  top: "vec1647"
  top: "vec1648"
  top: "vec1649"
  top: "vec1650"
  top: "vec1651"
  top: "vec1652"
  top: "vec1653"
  top: "vec1654"
  top: "vec1655"
  top: "vec1656"
  top: "vec1657"
  top: "vec1658"
  top: "vec1659"
  top: "vec1660"
  top: "vec1661"
  top: "vec1662"
  top: "vec1663"
  top: "vec1664"
  top: "vec1665"
  top: "vec1666"
  top: "vec1667"
  top: "vec1668"
  top: "vec1669"
  top: "vec1670"
  top: "vec1671"
  top: "vec1672"
  top: "vec1673"
  top: "vec1674"
  top: "vec1675"
  top: "vec1676"
  top: "vec1677"
  top: "vec1678"
  top: "vec1679"
  top: "vec1680"
  top: "vec1681"
  top: "vec1682"
  top: "vec1683"
  top: "vec1684"
  top: "vec1685"
  top: "vec1686"
  top: "vec1687"
  top: "vec1688"
  top: "vec1689"
  top: "vec1690"
  top: "vec1691"
  top: "vec1692"
  top: "vec1693"
  top: "vec1694"
  top: "vec1695"
  top: "vec1696"
  top: "vec1697"
  top: "vec1698"
  top: "vec1699"
  top: "vec1700"
  top: "vec1701"
  top: "vec1702"
  top: "vec1703"
  top: "vec1704"
  top: "vec1705"
  top: "vec1706"
  top: "vec1707"
  top: "vec1708"
  top: "vec1709"
  top: "vec1710"
  top: "vec1711"
  top: "vec1712"
  top: "vec1713"
  top: "vec1714"
  top: "vec1715"
  top: "vec1716"
  top: "vec1717"
  top: "vec1718"
  top: "vec1719"
  top: "vec1720"
  top: "vec1721"
  top: "vec1722"
  top: "vec1723"
  top: "vec1724"
  top: "vec1725"
  top: "vec1726"
  top: "vec1727"
  top: "vec1728"
  top: "vec1729"
  top: "vec1730"
  top: "vec1731"
  top: "vec1732"
  top: "vec1733"
  top: "vec1734"
  top: "vec1735"
  top: "vec1736"
  top: "vec1737"
  top: "vec1738"
  top: "vec1739"
  top: "vec1740"
  top: "vec1741"
  top: "vec1742"
  top: "vec1743"
  top: "vec1744"
  top: "vec1745"
  top: "vec1746"
  top: "vec1747"
  top: "vec1748"
  top: "vec1749"
  top: "vec1750"
  top: "vec1751"
  top: "vec1752"
  top: "vec1753"
  top: "vec1754"
  top: "vec1755"
  top: "vec1756"
  top: "vec1757"
  top: "vec1758"
  top: "vec1759"
  top: "vec1760"
  top: "vec1761"
  top: "vec1762"
  top: "vec1763"
  top: "vec1764"
  top: "vec1765"
  top: "vec1766"
  top: "vec1767"
  top: "vec1768"
  top: "vec1769"
  top: "vec1770"
  top: "vec1771"
  top: "vec1772"
  top: "vec1773"
  top: "vec1774"
  top: "vec1775"
  top: "vec1776"
  top: "vec1777"
  top: "vec1778"
  top: "vec1779"
  top: "vec1780"
  top: "vec1781"
  top: "vec1782"
  top: "vec1783"
  top: "vec1784"
  top: "vec1785"
  top: "vec1786"
  top: "vec1787"
  top: "vec1788"
  top: "vec1789"
  top: "vec1790"
  top: "vec1791"
  top: "vec1792"
  top: "vec1793"
  top: "vec1794"
  top: "vec1795"
  top: "vec1796"
  top: "vec1797"
  top: "vec1798"
  top: "vec1799"
  top: "vec1800"
  top: "vec1801"
  top: "vec1802"
  top: "vec1803"
  top: "vec1804"
  top: "vec1805"
  top: "vec1806"
  top: "vec1807"
  top: "vec1808"
  top: "vec1809"
  top: "vec1810"
  top: "vec1811"
  top: "vec1812"
  top: "vec1813"
  top: "vec1814"
  top: "vec1815"
  top: "vec1816"
  top: "vec1817"
  top: "vec1818"
  top: "vec1819"
  top: "vec1820"
  top: "vec1821"
  top: "vec1822"
  top: "vec1823"
  top: "vec1824"
  top: "vec1825"
  top: "vec1826"
  top: "vec1827"
  top: "vec1828"
  top: "vec1829"
  top: "vec1830"
  top: "vec1831"
  top: "vec1832"
  top: "vec1833"
  top: "vec1834"
  top: "vec1835"
  top: "vec1836"
  top: "vec1837"
  top: "vec1838"
  top: "vec1839"
  top: "vec1840"
  top: "vec1841"
  top: "vec1842"
  top: "vec1843"
  top: "vec1844"
  top: "vec1845"
  top: "vec1846"
  top: "vec1847"
  top: "vec1848"
  top: "vec1849"
  top: "vec1850"
  top: "vec1851"
  top: "vec1852"
  top: "vec1853"
  top: "vec1854"
  top: "vec1855"
  top: "vec1856"
  top: "vec1857"
  top: "vec1858"
  top: "vec1859"
  top: "vec1860"
  top: "vec1861"
  top: "vec1862"
  top: "vec1863"
  top: "vec1864"
  top: "vec1865"
  top: "vec1866"
  top: "vec1867"
  top: "vec1868"
  top: "vec1869"
  top: "vec1870"
  top: "vec1871"
  top: "vec1872"
  top: "vec1873"
  top: "vec1874"
  top: "vec1875"
  top: "vec1876"
  top: "vec1877"
  top: "vec1878"
  top: "vec1879"
  top: "vec1880"
  top: "vec1881"
  top: "vec1882"
  top: "vec1883"
  top: "vec1884"
  top: "vec1885"
  top: "vec1886"
  top: "vec1887"
  top: "vec1888"
  top: "vec1889"
  top: "vec1890"
  top: "vec1891"
  top: "vec1892"
  top: "vec1893"
  top: "vec1894"
  top: "vec1895"
  top: "vec1896"
  top: "vec1897"
  top: "vec1898"
  top: "vec1899"
  top: "vec1900"
  top: "vec1901"
  top: "vec1902"
  top: "vec1903"
  top: "vec1904"
  top: "vec1905"
  top: "vec1906"
  top: "vec1907"
  top: "vec1908"
  top: "vec1909"
  top: "vec1910"
  top: "vec1911"
  top: "vec1912"
  top: "vec1913"
  top: "vec1914"
  top: "vec1915"
  top: "vec1916"
  top: "vec1917"
  top: "vec1918"
  top: "vec1919"
  top: "vec1920"
  top: "vec1921"
  top: "vec1922"
  top: "vec1923"
  top: "vec1924"
  top: "vec1925"
  top: "vec1926"
  top: "vec1927"
  top: "vec1928"
  top: "vec1929"
  top: "vec1930"
  top: "vec1931"
  top: "vec1932"
  top: "vec1933"
  top: "vec1934"
  top: "vec1935"
  top: "vec1936"
  top: "vec1937"
  top: "vec1938"
  top: "vec1939"
  top: "vec1940"
  top: "vec1941"
  top: "vec1942"
  top: "vec1943"
  top: "vec1944"
  top: "vec1945"
  top: "vec1946"
  top: "vec1947"
  top: "vec1948"
  top: "vec1949"
  top: "vec1950"
  top: "vec1951"
  top: "vec1952"
  top: "vec1953"
  top: "vec1954"
  top: "vec1955"
  top: "vec1956"
  top: "vec1957"
  top: "vec1958"
  top: "vec1959"
  top: "vec1960"
  top: "vec1961"
  top: "vec1962"
  top: "vec1963"
  top: "vec1964"
  top: "vec1965"
  top: "vec1966"
  top: "vec1967"
  top: "vec1968"
  top: "vec1969"
  top: "vec1970"
  top: "vec1971"
  top: "vec1972"
  top: "vec1973"
  top: "vec1974"
  top: "vec1975"
  top: "vec1976"
  top: "vec1977"
  top: "vec1978"
  top: "vec1979"
  top: "vec1980"
  top: "vec1981"
  top: "vec1982"
  top: "vec1983"
  top: "vec1984"
  top: "vec1985"
  top: "vec1986"
  top: "vec1987"
  top: "vec1988"
  top: "vec1989"
  top: "vec1990"
  top: "vec1991"
  top: "vec1992"
  top: "vec1993"
  top: "vec1994"
  top: "vec1995"
  top: "vec1996"
  top: "vec1997"
  top: "vec1998"
  top: "vec1999"
  top: "vec2000"
  top: "vec2001"
  top: "vec2002"
  top: "vec2003"
  top: "vec2004"
  top: "vec2005"
  top: "vec2006"
  top: "vec2007"
  top: "vec2008"
  top: "vec2009"
  top: "vec2010"
  top: "vec2011"
  top: "vec2012"
  top: "vec2013"
  top: "vec2014"
  top: "vec2015"
  top: "vec2016"
  top: "vec2017"
  top: "vec2018"
  top: "vec2019"
  top: "vec2020"
  top: "vec2021"
  top: "vec2022"
  top: "vec2023"
  top: "vec2024"
  top: "vec2025"
  top: "vec2026"
  top: "vec2027"
  top: "vec2028"
  top: "vec2029"
  top: "vec2030"
  top: "vec2031"
  top: "vec2032"
  top: "vec2033"
  top: "vec2034"
  top: "vec2035"
  top: "vec2036"
  top: "vec2037"
  top: "vec2038"
  top: "vec2039"
  top: "vec2040"
  top: "vec2041"
  top: "vec2042"
  top: "vec2043"
  top: "vec2044"
  top: "vec2045"
  top: "vec2046"
  top: "vec2047"
  top: "vec2048"
  top: "vec2049"
  top: "vec2050"
  top: "vec2051"
  top: "vec2052"
  top: "vec2053"
  top: "vec2054"
  top: "vec2055"
  top: "vec2056"
  top: "vec2057"
  top: "vec2058"
  top: "vec2059"
  top: "vec2060"
  top: "vec2061"
  top: "vec2062"
  top: "vec2063"
  top: "vec2064"
  top: "vec2065"
  top: "vec2066"
  top: "vec2067"
  top: "vec2068"
  top: "vec2069"
  top: "vec2070"
  top: "vec2071"
  top: "vec2072"
  top: "vec2073"
  top: "vec2074"
  top: "vec2075"
  top: "vec2076"
  top: "vec2077"
  top: "vec2078"
  top: "vec2079"
  top: "vec2080"
  top: "vec2081"
  top: "vec2082"
  top: "vec2083"
  top: "vec2084"
  top: "vec2085"
  top: "vec2086"
  top: "vec2087"
  top: "vec2088"
  top: "vec2089"
  top: "vec2090"
  top: "vec2091"
  top: "vec2092"
  top: "vec2093"
  top: "vec2094"
  top: "vec2095"
  top: "vec2096"
  top: "vec2097"
  top: "vec2098"
  top: "vec2099"
  top: "vec2100"
  top: "vec2101"
  top: "vec2102"
  top: "vec2103"
  top: "vec2104"
  top: "vec2105"
  top: "vec2106"
  top: "vec2107"
  top: "vec2108"
  top: "vec2109"
  top: "vec2110"
  top: "vec2111"
  top: "vec2112"
  top: "vec2113"
  top: "vec2114"
  top: "vec2115"
  top: "vec2116"
  top: "vec2117"
  top: "vec2118"
  top: "vec2119"
  top: "vec2120"
  top: "vec2121"
  top: "vec2122"
  top: "vec2123"
  top: "vec2124"
  top: "vec2125"
  top: "vec2126"
  top: "vec2127"
  top: "vec2128"
  top: "vec2129"
  top: "vec2130"
  top: "vec2131"
  top: "vec2132"
  top: "vec2133"
  top: "vec2134"
  top: "vec2135"
  top: "vec2136"
  top: "vec2137"
  top: "vec2138"
  top: "vec2139"
  top: "vec2140"
  top: "vec2141"
  top: "vec2142"
  top: "vec2143"
  top: "vec2144"
  top: "vec2145"
  top: "vec2146"
  top: "vec2147"
  top: "vec2148"
  top: "vec2149"
  top: "vec2150"
  top: "vec2151"
  top: "vec2152"
  top: "vec2153"
  top: "vec2154"
  top: "vec2155"
  top: "vec2156"
  top: "vec2157"
  top: "vec2158"
  top: "vec2159"
  top: "vec2160"
  top: "vec2161"
  top: "vec2162"
  top: "vec2163"
  top: "vec2164"
  top: "vec2165"
  top: "vec2166"
  top: "vec2167"
  top: "vec2168"
  top: "vec2169"
  top: "vec2170"
  top: "vec2171"
  top: "vec2172"
  top: "vec2173"
  top: "vec2174"
  top: "vec2175"
  top: "vec2176"
  top: "vec2177"
  top: "vec2178"
  top: "vec2179"
  top: "vec2180"
  top: "vec2181"
  top: "vec2182"
  top: "vec2183"
  top: "vec2184"
  top: "vec2185"
  top: "vec2186"
  top: "vec2187"
  top: "vec2188"
  top: "vec2189"
  top: "vec2190"
  top: "vec2191"
  top: "vec2192"
  top: "vec2193"
  top: "vec2194"
  top: "vec2195"
  top: "vec2196"
  top: "vec2197"
  top: "vec2198"
  top: "vec2199"
  top: "vec2200"
  top: "vec2201"
  top: "vec2202"
  top: "vec2203"
  top: "vec2204"
  top: "vec2205"
  top: "vec2206"
  top: "vec2207"
  top: "vec2208"
  top: "vec2209"
  top: "vec2210"
  top: "vec2211"
  top: "vec2212"
  top: "vec2213"
  top: "vec2214"
  top: "vec2215"
  top: "vec2216"
  top: "vec2217"
  top: "vec2218"
  top: "vec2219"
  top: "vec2220"
  top: "vec2221"
  top: "vec2222"
  top: "vec2223"
  top: "vec2224"
  top: "vec2225"
  top: "vec2226"
  top: "vec2227"
  top: "vec2228"
  top: "vec2229"
  top: "vec2230"
  top: "vec2231"
  top: "vec2232"
  top: "vec2233"
  top: "vec2234"
  top: "vec2235"
  top: "vec2236"
  top: "vec2237"
  top: "vec2238"
  top: "vec2239"
  top: "vec2240"
  top: "vec2241"
  top: "vec2242"
  top: "vec2243"
  top: "vec2244"
  top: "vec2245"
  top: "vec2246"
  top: "vec2247"
  top: "vec2248"
  top: "vec2249"
  top: "vec2250"
  top: "vec2251"
  top: "vec2252"
  top: "vec2253"
  top: "vec2254"
  top: "vec2255"
  top: "vec2256"
  top: "vec2257"
  top: "vec2258"
  top: "vec2259"
  top: "vec2260"
  top: "vec2261"
  top: "vec2262"
  top: "vec2263"
  top: "vec2264"
  top: "vec2265"
  top: "vec2266"
  top: "vec2267"
  top: "vec2268"
  top: "vec2269"
  top: "vec2270"
  top: "vec2271"
  top: "vec2272"
  top: "vec2273"
  top: "vec2274"
  top: "vec2275"
  top: "vec2276"
  top: "vec2277"
  top: "vec2278"
  top: "vec2279"
  top: "vec2280"
  top: "vec2281"
  top: "vec2282"
  top: "vec2283"
  top: "vec2284"
  top: "vec2285"
  top: "vec2286"
  top: "vec2287"
  top: "vec2288"
  top: "vec2289"
  top: "vec2290"
  top: "vec2291"
  top: "vec2292"
  top: "vec2293"
  top: "vec2294"
  top: "vec2295"
  top: "vec2296"
  top: "vec2297"
  top: "vec2298"
  top: "vec2299"
  top: "vec2300"
  top: "vec2301"
  top: "vec2302"
  top: "vec2303"
  top: "vec2304"
  top: "vec2305"
  top: "vec2306"
  top: "vec2307"
  top: "vec2308"
  top: "vec2309"
  top: "vec2310"
  top: "vec2311"
  top: "vec2312"
  top: "vec2313"
  top: "vec2314"
  top: "vec2315"
  top: "vec2316"
  top: "vec2317"
  top: "vec2318"
  top: "vec2319"
  top: "vec2320"
  top: "vec2321"
  top: "vec2322"
  top: "vec2323"
  top: "vec2324"
  top: "vec2325"
  top: "vec2326"
  top: "vec2327"
  top: "vec2328"
  top: "vec2329"
  top: "vec2330"
  top: "vec2331"
  top: "vec2332"
  top: "vec2333"
  top: "vec2334"
  top: "vec2335"
  top: "vec2336"
  top: "vec2337"
  top: "vec2338"
  top: "vec2339"
  top: "vec2340"
  top: "vec2341"
  top: "vec2342"
  top: "vec2343"
  top: "vec2344"
  top: "vec2345"
  top: "vec2346"
  top: "vec2347"
  top: "vec2348"
  top: "vec2349"
  top: "vec2350"
  top: "vec2351"
  top: "vec2352"
  top: "vec2353"
  top: "vec2354"
  top: "vec2355"
  top: "vec2356"
  top: "vec2357"
  top: "vec2358"
  top: "vec2359"
  top: "vec2360"
  top: "vec2361"
  top: "vec2362"
  top: "vec2363"
  top: "vec2364"
  top: "vec2365"
  top: "vec2366"
  top: "vec2367"
  top: "vec2368"
  top: "vec2369"
  top: "vec2370"
  top: "vec2371"
  top: "vec2372"
  top: "vec2373"
  top: "vec2374"
  top: "vec2375"
  top: "vec2376"
  top: "vec2377"
  top: "vec2378"
  top: "vec2379"
  top: "vec2380"
  top: "vec2381"
  top: "vec2382"
  top: "vec2383"
  top: "vec2384"
  top: "vec2385"
  top: "vec2386"
  top: "vec2387"
  top: "vec2388"
  top: "vec2389"
  top: "vec2390"
  top: "vec2391"
  top: "vec2392"
  top: "vec2393"
  top: "vec2394"
  top: "vec2395"
  top: "vec2396"
  top: "vec2397"
  top: "vec2398"
  top: "vec2399"
  top: "vec2400"
  top: "vec2401"
  top: "vec2402"
  top: "vec2403"
  top: "vec2404"
  top: "vec2405"
  top: "vec2406"
  top: "vec2407"
  top: "vec2408"
  top: "vec2409"
  top: "vec2410"
  top: "vec2411"
  top: "vec2412"
  top: "vec2413"
  top: "vec2414"
  top: "vec2415"
  top: "vec2416"
  top: "vec2417"
  top: "vec2418"
  top: "vec2419"
  top: "vec2420"
  top: "vec2421"
  top: "vec2422"
  top: "vec2423"
  top: "vec2424"
  top: "vec2425"
  top: "vec2426"
  top: "vec2427"
  top: "vec2428"
  top: "vec2429"
  top: "vec2430"
  top: "vec2431"
  top: "vec2432"
  top: "vec2433"
  top: "vec2434"
  top: "vec2435"
  top: "vec2436"
  top: "vec2437"
  top: "vec2438"
  top: "vec2439"
  top: "vec2440"
  top: "vec2441"
  top: "vec2442"
  top: "vec2443"
  top: "vec2444"
  top: "vec2445"
  top: "vec2446"
  top: "vec2447"
  top: "vec2448"
  top: "vec2449"
  top: "vec2450"
  top: "vec2451"
  top: "vec2452"
  top: "vec2453"
  top: "vec2454"
  top: "vec2455"
  top: "vec2456"
  top: "vec2457"
  top: "vec2458"
  top: "vec2459"
  top: "vec2460"
  top: "vec2461"
  top: "vec2462"
  top: "vec2463"
  top: "vec2464"
  top: "vec2465"
  top: "vec2466"
  top: "vec2467"
  top: "vec2468"
  top: "vec2469"
  top: "vec2470"
  top: "vec2471"
  top: "vec2472"
  top: "vec2473"
  top: "vec2474"
  top: "vec2475"
  top: "vec2476"
  top: "vec2477"
  top: "vec2478"
  top: "vec2479"
  top: "vec2480"
  top: "vec2481"
  top: "vec2482"
  top: "vec2483"
  top: "vec2484"
  top: "vec2485"
  top: "vec2486"
  top: "vec2487"
  top: "vec2488"
  top: "vec2489"
  top: "vec2490"
  top: "vec2491"
  top: "vec2492"
  top: "vec2493"
  top: "vec2494"
  top: "vec2495"
  top: "vec2496"
  top: "vec2497"
  top: "vec2498"
  top: "vec2499"
  top: "vec2500"
  top: "vec2501"
  top: "vec2502"
  top: "vec2503"
  top: "vec2504"
  top: "vec2505"
  top: "vec2506"
  top: "vec2507"
  top: "vec2508"
  top: "vec2509"
  top: "vec2510"
  top: "vec2511"
  top: "vec2512"
  top: "vec2513"
  top: "vec2514"
  top: "vec2515"
  top: "vec2516"
  top: "vec2517"
  top: "vec2518"
  top: "vec2519"
  top: "vec2520"
  top: "vec2521"
  top: "vec2522"
  top: "vec2523"
  top: "vec2524"
  top: "vec2525"
  top: "vec2526"
  top: "vec2527"
  top: "vec2528"
  top: "vec2529"
  top: "vec2530"
  top: "vec2531"
  top: "vec2532"
  top: "vec2533"
  top: "vec2534"
  top: "vec2535"
  top: "vec2536"
  top: "vec2537"
  top: "vec2538"
  top: "vec2539"
  top: "vec2540"
  top: "vec2541"
  top: "vec2542"
  top: "vec2543"
  top: "vec2544"
  top: "vec2545"
  top: "vec2546"
  top: "vec2547"
  top: "vec2548"
  top: "vec2549"
  top: "vec2550"
  top: "vec2551"
  top: "vec2552"
  top: "vec2553"
  top: "vec2554"
  top: "vec2555"
  top: "vec2556"
  top: "vec2557"
  top: "vec2558"
  top: "vec2559"
  top: "vec2560"
  top: "vec2561"
  top: "vec2562"
  top: "vec2563"
  top: "vec2564"
  top: "vec2565"
  top: "vec2566"
  top: "vec2567"
  top: "vec2568"
  top: "vec2569"
  top: "vec2570"
  top: "vec2571"
  top: "vec2572"
  top: "vec2573"
  top: "vec2574"
  top: "vec2575"
  top: "vec2576"
  top: "vec2577"
  top: "vec2578"
  top: "vec2579"
  top: "vec2580"
  top: "vec2581"
  top: "vec2582"
  top: "vec2583"
  top: "vec2584"
  top: "vec2585"
  top: "vec2586"
  top: "vec2587"
  top: "vec2588"
  top: "vec2589"
  top: "vec2590"
  top: "vec2591"
  top: "vec2592"
  top: "vec2593"
  top: "vec2594"
  top: "vec2595"
  top: "vec2596"
  top: "vec2597"
  top: "vec2598"
  top: "vec2599"
  top: "vec2600"
  top: "vec2601"
  top: "vec2602"
  top: "vec2603"
  top: "vec2604"
  top: "vec2605"
  top: "vec2606"
  top: "vec2607"
  top: "vec2608"
  top: "vec2609"
  top: "vec2610"
  top: "vec2611"
  top: "vec2612"
  top: "vec2613"
  top: "vec2614"
  top: "vec2615"
  top: "vec2616"
  top: "vec2617"
  top: "vec2618"
  top: "vec2619"
  top: "vec2620"
  top: "vec2621"
  top: "vec2622"
  top: "vec2623"
  top: "vec2624"
  top: "vec2625"
  top: "vec2626"
  top: "vec2627"
  top: "vec2628"
  top: "vec2629"
  top: "vec2630"
  top: "vec2631"
  top: "vec2632"
  top: "vec2633"
  top: "vec2634"
  top: "vec2635"
  top: "vec2636"
  top: "vec2637"
  top: "vec2638"
  top: "vec2639"
  top: "vec2640"
  top: "vec2641"
  top: "vec2642"
  top: "vec2643"
  top: "vec2644"
  top: "vec2645"
  top: "vec2646"
  top: "vec2647"
  top: "vec2648"
  top: "vec2649"
  top: "vec2650"
  top: "vec2651"
  top: "vec2652"
  top: "vec2653"
  top: "vec2654"
  top: "vec2655"
  top: "vec2656"
  top: "vec2657"
  top: "vec2658"
  top: "vec2659"
  top: "vec2660"
  top: "vec2661"
  top: "vec2662"
  top: "vec2663"
  top: "vec2664"
  top: "vec2665"
  top: "vec2666"
  top: "vec2667"
  top: "vec2668"
  top: "vec2669"
  top: "vec2670"
  top: "vec2671"
  top: "vec2672"
  top: "vec2673"
  top: "vec2674"
  top: "vec2675"
  top: "vec2676"
  top: "vec2677"
  top: "vec2678"
  top: "vec2679"
  top: "vec2680"
  top: "vec2681"
  top: "vec2682"
  top: "vec2683"
  top: "vec2684"
  top: "vec2685"
  top: "vec2686"
  top: "vec2687"
  top: "vec2688"
  top: "vec2689"
  top: "vec2690"
  top: "vec2691"
  top: "vec2692"
  top: "vec2693"
  top: "vec2694"
  top: "vec2695"
  top: "vec2696"
  top: "vec2697"
  top: "vec2698"
  top: "vec2699"
  top: "vec2700"
  top: "vec2701"
  top: "vec2702"
  top: "vec2703"
  top: "vec2704"
  top: "vec2705"
  top: "vec2706"
  top: "vec2707"
  top: "vec2708"
  top: "vec2709"
  top: "vec2710"
  top: "vec2711"
  top: "vec2712"
  top: "vec2713"
  top: "vec2714"
  top: "vec2715"
  top: "vec2716"
  top: "vec2717"
  top: "vec2718"
  top: "vec2719"
  top: "vec2720"
  top: "vec2721"
  top: "vec2722"
  top: "vec2723"
  top: "vec2724"
  top: "vec2725"
  top: "vec2726"
  top: "vec2727"
  top: "vec2728"
  top: "vec2729"
  top: "vec2730"
  top: "vec2731"
  top: "vec2732"
  top: "vec2733"
  top: "vec2734"
  top: "vec2735"
  top: "vec2736"
  top: "vec2737"
  top: "vec2738"
  top: "vec2739"
  top: "vec2740"
  top: "vec2741"
  top: "vec2742"
  top: "vec2743"
  top: "vec2744"
  top: "vec2745"
  top: "vec2746"
  top: "vec2747"
  top: "vec2748"
  top: "vec2749"
  top: "vec2750"
  top: "vec2751"
  top: "vec2752"
  top: "vec2753"
  top: "vec2754"
  top: "vec2755"
  top: "vec2756"
  top: "vec2757"
  top: "vec2758"
  top: "vec2759"
  top: "vec2760"
  top: "vec2761"
  top: "vec2762"
  top: "vec2763"
  top: "vec2764"
  top: "vec2765"
  top: "vec2766"
  top: "vec2767"
  top: "vec2768"
  top: "vec2769"
  top: "vec2770"
  top: "vec2771"
  top: "vec2772"
  top: "vec2773"
  top: "vec2774"
  top: "vec2775"
  top: "vec2776"
  top: "vec2777"
  top: "vec2778"
  top: "vec2779"
  top: "vec2780"
  top: "vec2781"
  top: "vec2782"
  top: "vec2783"
  top: "vec2784"
  top: "vec2785"
  top: "vec2786"
  top: "vec2787"
  top: "vec2788"
  top: "vec2789"
  top: "vec2790"
  top: "vec2791"
  top: "vec2792"
  top: "vec2793"
  top: "vec2794"
  top: "vec2795"
  top: "vec2796"
  top: "vec2797"
  top: "vec2798"
  top: "vec2799"
  top: "vec2800"
  top: "vec2801"
  top: "vec2802"
  top: "vec2803"
  top: "vec2804"
  top: "vec2805"
  top: "vec2806"
  top: "vec2807"
  top: "vec2808"
  top: "vec2809"
  top: "vec2810"
  top: "vec2811"
  top: "vec2812"
  top: "vec2813"
  top: "vec2814"
  top: "vec2815"
  top: "vec2816"
  top: "vec2817"
  top: "vec2818"
  top: "vec2819"
  top: "vec2820"
  top: "vec2821"
  top: "vec2822"
  top: "vec2823"
  top: "vec2824"
  top: "vec2825"
  top: "vec2826"
  top: "vec2827"
  top: "vec2828"
  top: "vec2829"
  top: "vec2830"
  top: "vec2831"
  top: "vec2832"
  top: "vec2833"
  top: "vec2834"
  top: "vec2835"
  top: "vec2836"
  top: "vec2837"
  top: "vec2838"
  top: "vec2839"
  top: "vec2840"
  top: "vec2841"
  top: "vec2842"
  top: "vec2843"
  top: "vec2844"
  top: "vec2845"
  top: "vec2846"
  top: "vec2847"
  top: "vec2848"
  top: "vec2849"
  top: "vec2850"
  top: "vec2851"
  top: "vec2852"
  top: "vec2853"
  top: "vec2854"
  top: "vec2855"
  top: "vec2856"
  top: "vec2857"
  top: "vec2858"
  top: "vec2859"
  top: "vec2860"
  top: "vec2861"
  top: "vec2862"
  top: "vec2863"
  top: "vec2864"
  top: "vec2865"
  top: "vec2866"
  top: "vec2867"
  top: "vec2868"
  top: "vec2869"
  top: "vec2870"
  top: "vec2871"
  top: "vec2872"
  top: "vec2873"
  top: "vec2874"
  top: "vec2875"
  top: "vec2876"
  top: "vec2877"
  top: "vec2878"
  top: "vec2879"
  top: "vec2880"
  top: "vec2881"
  top: "vec2882"
  top: "vec2883"
  top: "vec2884"
  top: "vec2885"
  top: "vec2886"
  top: "vec2887"
  top: "vec2888"
  top: "vec2889"
  top: "vec2890"
  top: "vec2891"
  top: "vec2892"
  top: "vec2893"
  top: "vec2894"
  top: "vec2895"
  top: "vec2896"
  top: "vec2897"
  top: "vec2898"
  top: "vec2899"
  top: "vec2900"
  top: "vec2901"
  top: "vec2902"
  top: "vec2903"
  top: "vec2904"
  top: "vec2905"
  top: "vec2906"
  top: "vec2907"
  top: "vec2908"
  top: "vec2909"
  top: "vec2910"
  top: "vec2911"
  top: "vec2912"
  top: "vec2913"
  top: "vec2914"
  top: "vec2915"
  top: "vec2916"
  top: "vec2917"
  top: "vec2918"
  top: "vec2919"
  top: "vec2920"
  top: "vec2921"
  top: "vec2922"
  top: "vec2923"
  top: "vec2924"
  top: "vec2925"
  top: "vec2926"
  top: "vec2927"
  top: "vec2928"
  top: "vec2929"
  top: "vec2930"
  top: "vec2931"
  top: "vec2932"
  top: "vec2933"
  top: "vec2934"
  top: "vec2935"
  top: "vec2936"
  top: "vec2937"
  top: "vec2938"
  top: "vec2939"
  top: "vec2940"
  top: "vec2941"
  top: "vec2942"
  top: "vec2943"
  top: "vec2944"
  top: "vec2945"
  top: "vec2946"
  top: "vec2947"
  top: "vec2948"
  top: "vec2949"
  top: "vec2950"
  top: "vec2951"
  top: "vec2952"
  top: "vec2953"
  top: "vec2954"
  top: "vec2955"
  top: "vec2956"
  top: "vec2957"
  top: "vec2958"
  top: "vec2959"
  top: "vec2960"
  top: "vec2961"
  top: "vec2962"
  top: "vec2963"
  top: "vec2964"
  top: "vec2965"
  top: "vec2966"
  top: "vec2967"
  top: "vec2968"
  top: "vec2969"
  top: "vec2970"
  top: "vec2971"
  top: "vec2972"
  top: "vec2973"
  top: "vec2974"
  top: "vec2975"
  top: "vec2976"
  top: "vec2977"
  top: "vec2978"
  top: "vec2979"
  top: "vec2980"
  top: "vec2981"
  top: "vec2982"
  top: "vec2983"
  top: "vec2984"
  top: "vec2985"
  top: "vec2986"
  top: "vec2987"
  top: "vec2988"
  top: "vec2989"
  top: "vec2990"
  top: "vec2991"
  top: "vec2992"
  top: "vec2993"
  top: "vec2994"
  top: "vec2995"
  top: "vec2996"
  top: "vec2997"
  top: "vec2998"
  top: "vec2999"
  top: "vec3000"
  top: "vec3001"
  top: "vec3002"
  top: "vec3003"
  top: "vec3004"
  top: "vec3005"
  top: "vec3006"
  top: "vec3007"
  top: "vec3008"
  top: "vec3009"
  top: "vec3010"
  top: "vec3011"
  top: "vec3012"
  top: "vec3013"
  top: "vec3014"
  top: "vec3015"
  top: "vec3016"
  top: "vec3017"
  top: "vec3018"
  top: "vec3019"
  top: "vec3020"
  top: "vec3021"
  top: "vec3022"
  top: "vec3023"
  top: "vec3024"
  top: "vec3025"
  top: "vec3026"
  top: "vec3027"
  top: "vec3028"
  top: "vec3029"
  top: "vec3030"
  top: "vec3031"
  top: "vec3032"
  top: "vec3033"
  top: "vec3034"
  top: "vec3035"
  top: "vec3036"
  top: "vec3037"
  top: "vec3038"
  top: "vec3039"
  top: "vec3040"
  top: "vec3041"
  top: "vec3042"
  top: "vec3043"
  top: "vec3044"
  top: "vec3045"
  top: "vec3046"
  top: "vec3047"
  top: "vec3048"
  top: "vec3049"
  top: "vec3050"
  top: "vec3051"
  top: "vec3052"
  top: "vec3053"
  top: "vec3054"
  top: "vec3055"
  top: "vec3056"
  top: "vec3057"
  top: "vec3058"
  top: "vec3059"
  top: "vec3060"
  top: "vec3061"
  top: "vec3062"
  top: "vec3063"
  top: "vec3064"
  top: "vec3065"
  top: "vec3066"
  top: "vec3067"
  top: "vec3068"
  top: "vec3069"
  top: "vec3070"
  top: "vec3071"
  top: "vec3072"
  top: "vec3073"
  top: "vec3074"
  top: "vec3075"
  top: "vec3076"
  top: "vec3077"
  top: "vec3078"
  top: "vec3079"
  top: "vec3080"
  top: "vec3081"
  top: "vec3082"
  top: "vec3083"
  top: "vec3084"
  top: "vec3085"
  top: "vec3086"
  top: "vec3087"
  top: "vec3088"
  top: "vec3089"
  top: "vec3090"
  top: "vec3091"
  top: "vec3092"
  top: "vec3093"
  top: "vec3094"
  top: "vec3095"
  top: "vec3096"
  top: "vec3097"
  top: "vec3098"
  top: "vec3099"
  top: "vec3100"
  top: "vec3101"
  top: "vec3102"
  top: "vec3103"
  top: "vec3104"
  top: "vec3105"
  top: "vec3106"
  top: "vec3107"
  top: "vec3108"
  top: "vec3109"
  top: "vec3110"
  top: "vec3111"
  top: "vec3112"
  top: "vec3113"
  top: "vec3114"
  top: "vec3115"
  top: "vec3116"
  top: "vec3117"
  top: "vec3118"
  top: "vec3119"
  top: "vec3120"
  top: "vec3121"
  top: "vec3122"
  top: "vec3123"
  top: "vec3124"
  top: "vec3125"
  top: "vec3126"
  top: "vec3127"
  top: "vec3128"
  top: "vec3129"
  top: "vec3130"
  top: "vec3131"
  top: "vec3132"
  top: "vec3133"
  top: "vec3134"
  top: "vec3135"
  top: "vec3136"
  top: "vec3137"
  top: "vec3138"
  top: "vec3139"
  top: "vec3140"
  top: "vec3141"
  top: "vec3142"
  top: "vec3143"
  top: "vec3144"
  top: "vec3145"
  top: "vec3146"
  top: "vec3147"
  top: "vec3148"
  top: "vec3149"
  top: "vec3150"
  top: "vec3151"
  top: "vec3152"
  top: "vec3153"
  top: "vec3154"
  top: "vec3155"
  top: "vec3156"
  top: "vec3157"
  top: "vec3158"
  top: "vec3159"
  top: "vec3160"
  top: "vec3161"
  top: "vec3162"
  top: "vec3163"
  top: "vec3164"
  top: "vec3165"
  top: "vec3166"
  top: "vec3167"
  top: "vec3168"
  top: "vec3169"
  top: "vec3170"
  top: "vec3171"
  top: "vec3172"
  top: "vec3173"
  top: "vec3174"
  top: "vec3175"
  top: "vec3176"
  top: "vec3177"
  top: "vec3178"
  top: "vec3179"
  top: "vec3180"
  top: "vec3181"
  top: "vec3182"
  top: "vec3183"
  top: "vec3184"
  top: "vec3185"
  top: "vec3186"
  top: "vec3187"
  top: "vec3188"
  top: "vec3189"
  top: "vec3190"
  top: "vec3191"
  top: "vec3192"
  top: "vec3193"
  top: "vec3194"
  top: "vec3195"
  top: "vec3196"
  top: "vec3197"
  top: "vec3198"
  top: "vec3199"
  top: "vec3200"
  top: "vec3201"
  top: "vec3202"
  top: "vec3203"
  top: "vec3204"
  top: "vec3205"
  top: "vec3206"
  top: "vec3207"
  top: "vec3208"
  top: "vec3209"
  top: "vec3210"
  top: "vec3211"
  top: "vec3212"
  top: "vec3213"
  top: "vec3214"
  top: "vec3215"
  top: "vec3216"
  top: "vec3217"
  top: "vec3218"
  top: "vec3219"
  top: "vec3220"
  top: "vec3221"
  top: "vec3222"
  top: "vec3223"
  top: "vec3224"
  top: "vec3225"
  top: "vec3226"
  top: "vec3227"
  top: "vec3228"
  top: "vec3229"
  top: "vec3230"
  top: "vec3231"
  top: "vec3232"
  top: "vec3233"
  top: "vec3234"
  top: "vec3235"
  top: "vec3236"
  top: "vec3237"
  top: "vec3238"
  top: "vec3239"
  top: "vec3240"
  top: "vec3241"
  top: "vec3242"
  top: "vec3243"
  top: "vec3244"
  top: "vec3245"
  top: "vec3246"
  top: "vec3247"
  top: "vec3248"
  top: "vec3249"
  top: "vec3250"
  top: "vec3251"
  top: "vec3252"
  top: "vec3253"
  top: "vec3254"
  top: "vec3255"
  top: "vec3256"
  top: "vec3257"
  top: "vec3258"
  top: "vec3259"
  top: "vec3260"
  top: "vec3261"
  top: "vec3262"
  top: "vec3263"
  top: "vec3264"
  top: "vec3265"
  top: "vec3266"
  top: "vec3267"
  top: "vec3268"
  top: "vec3269"
  top: "vec3270"
  top: "vec3271"
  top: "vec3272"
  top: "vec3273"
  top: "vec3274"
  top: "vec3275"
  top: "vec3276"
  top: "vec3277"
  top: "vec3278"
  top: "vec3279"
  top: "vec3280"
  top: "vec3281"
  top: "vec3282"
  top: "vec3283"
  top: "vec3284"
  top: "vec3285"
  top: "vec3286"
  top: "vec3287"
  top: "vec3288"
  top: "vec3289"
  top: "vec3290"
  top: "vec3291"
  top: "vec3292"
  top: "vec3293"
  top: "vec3294"
  top: "vec3295"
  top: "vec3296"
  top: "vec3297"
  top: "vec3298"
  top: "vec3299"
  top: "vec3300"
  top: "vec3301"
  top: "vec3302"
  top: "vec3303"
  top: "vec3304"
  top: "vec3305"
  top: "vec3306"
  top: "vec3307"
  top: "vec3308"
  top: "vec3309"
  top: "vec3310"
  top: "vec3311"
  top: "vec3312"
  top: "vec3313"
  top: "vec3314"
  top: "vec3315"
  top: "vec3316"
  top: "vec3317"
  top: "vec3318"
  top: "vec3319"
  top: "vec3320"
  top: "vec3321"
  top: "vec3322"
  top: "vec3323"
  top: "vec3324"
  top: "vec3325"
  top: "vec3326"
  top: "vec3327"
  top: "vec3328"
  top: "vec3329"
  top: "vec3330"
  top: "vec3331"
  top: "vec3332"
  top: "vec3333"
  top: "vec3334"
  top: "vec3335"
  top: "vec3336"
  top: "vec3337"
  top: "vec3338"
  top: "vec3339"
  top: "vec3340"
  top: "vec3341"
  top: "vec3342"
  top: "vec3343"
  top: "vec3344"
  top: "vec3345"
  top: "vec3346"
  top: "vec3347"
  top: "vec3348"
  top: "vec3349"
  top: "vec3350"
  top: "vec3351"
  top: "vec3352"
  top: "vec3353"
  top: "vec3354"
  top: "vec3355"
  top: "vec3356"
  top: "vec3357"
  top: "vec3358"
  top: "vec3359"
  top: "vec3360"
  top: "vec3361"
  top: "vec3362"
  top: "vec3363"
  top: "vec3364"
  top: "vec3365"
  top: "vec3366"
  top: "vec3367"
  top: "vec3368"
  top: "vec3369"
  top: "vec3370"
  top: "vec3371"
  top: "vec3372"
  top: "vec3373"
  top: "vec3374"
  top: "vec3375"
  top: "vec3376"
  top: "vec3377"
  top: "vec3378"
  top: "vec3379"
  top: "vec3380"
  top: "vec3381"
  top: "vec3382"
  top: "vec3383"
  top: "vec3384"
  top: "vec3385"
  top: "vec3386"
  top: "vec3387"
  top: "vec3388"
  top: "vec3389"
  top: "vec3390"
  top: "vec3391"
  top: "vec3392"
  top: "vec3393"
  top: "vec3394"
  top: "vec3395"
  top: "vec3396"
  top: "vec3397"
  top: "vec3398"
  top: "vec3399"
  top: "vec3400"
  top: "vec3401"
  top: "vec3402"
  top: "vec3403"
  top: "vec3404"
  top: "vec3405"
  top: "vec3406"
  top: "vec3407"
  top: "vec3408"
  top: "vec3409"
  top: "vec3410"
  top: "vec3411"
  top: "vec3412"
  top: "vec3413"
  top: "vec3414"
  top: "vec3415"
  top: "vec3416"
  top: "vec3417"
  top: "vec3418"
  top: "vec3419"
  top: "vec3420"
  top: "vec3421"
  top: "vec3422"
  top: "vec3423"
  top: "vec3424"
  top: "vec3425"
  top: "vec3426"
  top: "vec3427"
  top: "vec3428"
  top: "vec3429"
  top: "vec3430"
  top: "vec3431"
  top: "vec3432"
  top: "vec3433"
  top: "vec3434"
  top: "vec3435"
  top: "vec3436"
  top: "vec3437"
  top: "vec3438"
  top: "vec3439"
  top: "vec3440"
  top: "vec3441"
  top: "vec3442"
  top: "vec3443"
  top: "vec3444"
  top: "vec3445"
  top: "vec3446"
  top: "vec3447"
  top: "vec3448"
  top: "vec3449"
  top: "vec3450"
  top: "vec3451"
  top: "vec3452"
  top: "vec3453"
  top: "vec3454"
  top: "vec3455"
  top: "vec3456"
  top: "vec3457"
  top: "vec3458"
  top: "vec3459"
  top: "vec3460"
  top: "vec3461"
  top: "vec3462"
  top: "vec3463"
  top: "vec3464"
  top: "vec3465"
  top: "vec3466"
  top: "vec3467"
  top: "vec3468"
  top: "vec3469"
  top: "vec3470"
  top: "vec3471"
  top: "vec3472"
  top: "vec3473"
  top: "vec3474"
  top: "vec3475"
  top: "vec3476"
  top: "vec3477"
  top: "vec3478"
  top: "vec3479"
  top: "vec3480"
  top: "vec3481"
  top: "vec3482"
  top: "vec3483"
  top: "vec3484"
  top: "vec3485"
  top: "vec3486"
  top: "vec3487"
  top: "vec3488"
  top: "vec3489"
  top: "vec3490"
  top: "vec3491"
  top: "vec3492"
  top: "vec3493"
  top: "vec3494"
  top: "vec3495"
  top: "vec3496"
  top: "vec3497"
  top: "vec3498"
  top: "vec3499"
  top: "vec3500"
  top: "vec3501"
  top: "vec3502"
  top: "vec3503"
  top: "vec3504"
  top: "vec3505"
  top: "vec3506"
  top: "vec3507"
  top: "vec3508"
  top: "vec3509"
  top: "vec3510"
  top: "vec3511"
  top: "vec3512"
  top: "vec3513"
  top: "vec3514"
  top: "vec3515"
  top: "vec3516"
  top: "vec3517"
  top: "vec3518"
  top: "vec3519"
  top: "vec3520"
  top: "vec3521"
  top: "vec3522"
  top: "vec3523"
  top: "vec3524"
  top: "vec3525"
  top: "vec3526"
  top: "vec3527"
  top: "vec3528"
  top: "vec3529"
  top: "vec3530"
  top: "vec3531"
  top: "vec3532"
  top: "vec3533"
  top: "vec3534"
  top: "vec3535"
  top: "vec3536"
  top: "vec3537"
  top: "vec3538"
  top: "vec3539"
  top: "vec3540"
  top: "vec3541"
  top: "vec3542"
  top: "vec3543"
  top: "vec3544"
  top: "vec3545"
  top: "vec3546"
  top: "vec3547"
  top: "vec3548"
  top: "vec3549"
  top: "vec3550"
  top: "vec3551"
  top: "vec3552"
  top: "vec3553"
  top: "vec3554"
  top: "vec3555"
  top: "vec3556"
  top: "vec3557"
  top: "vec3558"
  top: "vec3559"
  top: "vec3560"
  top: "vec3561"
  top: "vec3562"
  top: "vec3563"
  top: "vec3564"
  top: "vec3565"
  top: "vec3566"
  top: "vec3567"
  top: "vec3568"
  top: "vec3569"
  top: "vec3570"
  top: "vec3571"
  top: "vec3572"
  top: "vec3573"
  top: "vec3574"
  top: "vec3575"
  top: "vec3576"
  top: "vec3577"
  top: "vec3578"
  top: "vec3579"
  top: "vec3580"
  top: "vec3581"
  top: "vec3582"
  top: "vec3583"
  top: "vec3584"
  top: "vec3585"
  top: "vec3586"
  top: "vec3587"
  top: "vec3588"
  top: "vec3589"
  top: "vec3590"
  top: "vec3591"
  top: "vec3592"
  top: "vec3593"
  top: "vec3594"
  top: "vec3595"
  top: "vec3596"
  top: "vec3597"
  top: "vec3598"
  top: "vec3599"
  top: "vec3600"
  top: "vec3601"
  top: "vec3602"
  top: "vec3603"
  top: "vec3604"
  top: "vec3605"
  top: "vec3606"
  top: "vec3607"
  top: "vec3608"
  top: "vec3609"
  top: "vec3610"
  top: "vec3611"
  top: "vec3612"
  top: "vec3613"
  top: "vec3614"
  top: "vec3615"
  top: "vec3616"
  top: "vec3617"
  top: "vec3618"
  top: "vec3619"
  top: "vec3620"
  top: "vec3621"
  top: "vec3622"
  top: "vec3623"
  top: "vec3624"
  top: "vec3625"
  top: "vec3626"
  top: "vec3627"
  top: "vec3628"
  top: "vec3629"
  top: "vec3630"
  top: "vec3631"
  top: "vec3632"
  top: "vec3633"
  top: "vec3634"
  top: "vec3635"
  top: "vec3636"
  top: "vec3637"
  top: "vec3638"
  top: "vec3639"
  top: "vec3640"
  top: "vec3641"
  top: "vec3642"
  top: "vec3643"
  top: "vec3644"
  top: "vec3645"
  top: "vec3646"
  top: "vec3647"
  top: "vec3648"
  top: "vec3649"
  top: "vec3650"
  top: "vec3651"
  top: "vec3652"
  top: "vec3653"
  top: "vec3654"
  top: "vec3655"
  top: "vec3656"
  top: "vec3657"
  top: "vec3658"
  top: "vec3659"
  top: "vec3660"
  top: "vec3661"
  top: "vec3662"
  top: "vec3663"
  top: "vec3664"
  top: "vec3665"
  top: "vec3666"
  top: "vec3667"
  top: "vec3668"
  top: "vec3669"
  top: "vec3670"
  top: "vec3671"
  top: "vec3672"
  top: "vec3673"
  top: "vec3674"
  top: "vec3675"
  top: "vec3676"
  top: "vec3677"
  top: "vec3678"
  top: "vec3679"
  top: "vec3680"
  top: "vec3681"
  top: "vec3682"
  top: "vec3683"
  top: "vec3684"
  top: "vec3685"
  top: "vec3686"
  top: "vec3687"
  top: "vec3688"
  top: "vec3689"
  top: "vec3690"
  top: "vec3691"
  top: "vec3692"
  top: "vec3693"
  top: "vec3694"
  top: "vec3695"
  top: "vec3696"
  top: "vec3697"
  top: "vec3698"
  top: "vec3699"
  top: "vec3700"
  top: "vec3701"
  top: "vec3702"
  top: "vec3703"
  top: "vec3704"
  top: "vec3705"
  top: "vec3706"
  top: "vec3707"
  top: "vec3708"
  top: "vec3709"
  top: "vec3710"
  top: "vec3711"
  top: "vec3712"
  top: "vec3713"
  top: "vec3714"
  top: "vec3715"
  top: "vec3716"
  top: "vec3717"
  top: "vec3718"
  top: "vec3719"
  top: "vec3720"
  top: "vec3721"
  top: "vec3722"
  top: "vec3723"
  top: "vec3724"
  top: "vec3725"
  top: "vec3726"
  top: "vec3727"
  top: "vec3728"
  top: "vec3729"
  top: "vec3730"
  top: "vec3731"
  top: "vec3732"
  top: "vec3733"
  top: "vec3734"
  top: "vec3735"
  top: "vec3736"
  top: "vec3737"
  top: "vec3738"
  top: "vec3739"
  top: "vec3740"
  top: "vec3741"
  top: "vec3742"
  top: "vec3743"
  top: "vec3744"
  top: "vec3745"
  top: "vec3746"
  top: "vec3747"
  top: "vec3748"
  top: "vec3749"
  top: "vec3750"
  top: "vec3751"
  top: "vec3752"
  top: "vec3753"
  top: "vec3754"
  top: "vec3755"
  top: "vec3756"
  top: "vec3757"
  top: "vec3758"
  top: "vec3759"
  top: "vec3760"
  top: "vec3761"
  top: "vec3762"
  top: "vec3763"
  top: "vec3764"
  top: "vec3765"
  top: "vec3766"
  top: "vec3767"
  top: "vec3768"
  top: "vec3769"
  top: "vec3770"
  top: "vec3771"
  top: "vec3772"
  top: "vec3773"
  top: "vec3774"
  top: "vec3775"
  top: "vec3776"
  top: "vec3777"
  top: "vec3778"
  top: "vec3779"
  top: "vec3780"
  top: "vec3781"
  top: "vec3782"
  top: "vec3783"
  top: "vec3784"
  top: "vec3785"
  top: "vec3786"
  top: "vec3787"
  top: "vec3788"
  top: "vec3789"
  top: "vec3790"
  top: "vec3791"
  top: "vec3792"
  top: "vec3793"
  top: "vec3794"
  top: "vec3795"
  top: "vec3796"
  top: "vec3797"
  top: "vec3798"
  top: "vec3799"
  top: "vec3800"
  top: "vec3801"
  top: "vec3802"
  top: "vec3803"
  top: "vec3804"
  top: "vec3805"
  top: "vec3806"
  top: "vec3807"
  top: "vec3808"
  top: "vec3809"
  top: "vec3810"
  top: "vec3811"
  top: "vec3812"
  top: "vec3813"
  top: "vec3814"
  top: "vec3815"
  top: "vec3816"
  top: "vec3817"
  top: "vec3818"
  top: "vec3819"
  top: "vec3820"
  top: "vec3821"
  top: "vec3822"
  top: "vec3823"
  top: "vec3824"
  top: "vec3825"
  top: "vec3826"
  top: "vec3827"
  top: "vec3828"
  top: "vec3829"
  top: "vec3830"
  top: "vec3831"
  top: "vec3832"
  top: "vec3833"
  top: "vec3834"
  top: "vec3835"
  top: "vec3836"
  top: "vec3837"
  top: "vec3838"
  top: "vec3839"
  top: "vec3840"
  top: "vec3841"
  top: "vec3842"
  top: "vec3843"
  top: "vec3844"
  top: "vec3845"
  top: "vec3846"
  top: "vec3847"
  top: "vec3848"
  top: "vec3849"
  top: "vec3850"
  top: "vec3851"
  top: "vec3852"
  top: "vec3853"
  top: "vec3854"
  top: "vec3855"
  top: "vec3856"
  top: "vec3857"
  top: "vec3858"
  top: "vec3859"
  top: "vec3860"
  top: "vec3861"
  top: "vec3862"
  top: "vec3863"
  top: "vec3864"
  top: "vec3865"
  top: "vec3866"
  top: "vec3867"
  top: "vec3868"
  top: "vec3869"
  top: "vec3870"
  top: "vec3871"
  top: "vec3872"
  top: "vec3873"
  top: "vec3874"
  top: "vec3875"
  top: "vec3876"
  top: "vec3877"
  top: "vec3878"
  top: "vec3879"
  top: "vec3880"
  top: "vec3881"
  top: "vec3882"
  top: "vec3883"
  top: "vec3884"
  top: "vec3885"
  top: "vec3886"
  top: "vec3887"
  top: "vec3888"
  top: "vec3889"
  top: "vec3890"
  top: "vec3891"
  top: "vec3892"
  top: "vec3893"
  top: "vec3894"
  top: "vec3895"
  top: "vec3896"
  top: "vec3897"
  top: "vec3898"
  top: "vec3899"
  top: "vec3900"
  top: "vec3901"
  top: "vec3902"
  top: "vec3903"
  top: "vec3904"
  top: "vec3905"
  top: "vec3906"
  top: "vec3907"
  top: "vec3908"
  top: "vec3909"
  top: "vec3910"
  top: "vec3911"
  top: "vec3912"
  top: "vec3913"
  top: "vec3914"
  top: "vec3915"
  top: "vec3916"
  top: "vec3917"
  top: "vec3918"
  top: "vec3919"
  top: "vec3920"
  top: "vec3921"
  top: "vec3922"
  top: "vec3923"
  top: "vec3924"
  top: "vec3925"
  top: "vec3926"
  top: "vec3927"
  top: "vec3928"
  top: "vec3929"
  top: "vec3930"
  top: "vec3931"
  top: "vec3932"
  top: "vec3933"
  top: "vec3934"
  top: "vec3935"
  top: "vec3936"
  top: "vec3937"
  top: "vec3938"
  top: "vec3939"
  top: "vec3940"
  top: "vec3941"
  top: "vec3942"
  top: "vec3943"
  top: "vec3944"
  top: "vec3945"
  top: "vec3946"
  top: "vec3947"
  top: "vec3948"
  top: "vec3949"
  top: "vec3950"
  top: "vec3951"
  top: "vec3952"
  top: "vec3953"
  top: "vec3954"
  top: "vec3955"
  top: "vec3956"
  top: "vec3957"
  top: "vec3958"
  top: "vec3959"
  top: "vec3960"
  top: "vec3961"
  top: "vec3962"
  top: "vec3963"
  top: "vec3964"
  top: "vec3965"
  top: "vec3966"
  top: "vec3967"
  top: "vec3968"
  top: "vec3969"
  top: "vec3970"
  top: "vec3971"
  top: "vec3972"
  top: "vec3973"
  top: "vec3974"
  top: "vec3975"
  top: "vec3976"
  top: "vec3977"
  top: "vec3978"
  top: "vec3979"
  top: "vec3980"
  top: "vec3981"
  top: "vec3982"
  top: "vec3983"
  top: "vec3984"
  top: "vec3985"
  top: "vec3986"
  top: "vec3987"
  top: "vec3988"
  top: "vec3989"
  top: "vec3990"
  top: "vec3991"
  top: "vec3992"
  top: "vec3993"
  top: "vec3994"
  top: "vec3995"
  top: "vec3996"
  top: "vec3997"
  top: "vec3998"
  top: "vec3999"
  top: "vec4000"
  top: "vec4001"
  top: "vec4002"
  top: "vec4003"
  top: "vec4004"
  top: "vec4005"
  top: "vec4006"
  top: "vec4007"
  top: "vec4008"
  top: "vec4009"
  top: "vec4010"
  top: "vec4011"
  top: "vec4012"
  top: "vec4013"
  top: "vec4014"
  top: "vec4015"
  top: "vec4016"
  top: "vec4017"
  top: "vec4018"
  top: "vec4019"
  top: "vec4020"
  top: "vec4021"
  top: "vec4022"
  top: "vec4023"
  top: "vec4024"
  top: "vec4025"
  top: "vec4026"
  top: "vec4027"
  top: "vec4028"
  top: "vec4029"
  top: "vec4030"
  top: "vec4031"
  top: "vec4032"
  top: "vec4033"
  top: "vec4034"
  top: "vec4035"
  top: "vec4036"
  top: "vec4037"
  top: "vec4038"
  top: "vec4039"
  top: "vec4040"
  top: "vec4041"
  top: "vec4042"
  top: "vec4043"
  top: "vec4044"
  top: "vec4045"
  top: "vec4046"
  top: "vec4047"
  top: "vec4048"
  top: "vec4049"
  top: "vec4050"
  top: "vec4051"
  top: "vec4052"
  top: "vec4053"
  top: "vec4054"
  top: "vec4055"
  top: "vec4056"
  top: "vec4057"
  top: "vec4058"
  top: "vec4059"
  top: "vec4060"
  top: "vec4061"
  top: "vec4062"
  top: "vec4063"
  top: "vec4064"
  top: "vec4065"
  top: "vec4066"
  top: "vec4067"
  top: "vec4068"
  top: "vec4069"
  top: "vec4070"
  top: "vec4071"
  top: "vec4072"
  top: "vec4073"
  top: "vec4074"
  top: "vec4075"
  top: "vec4076"
  top: "vec4077"
  top: "vec4078"
  top: "vec4079"
  top: "vec4080"
  top: "vec4081"
  top: "vec4082"
  top: "vec4083"
  top: "vec4084"
  top: "vec4085"
  top: "vec4086"
  top: "vec4087"
  top: "vec4088"
  top: "vec4089"
  top: "vec4090"
  top: "vec4091"
  top: "vec4092"
  top: "vec4093"
  top: "vec4094"
  top: "vec4095"
  top: "vec4096"
  top: "vec4097"
  top: "vec4098"
  top: "vec4099"
  top: "vec4100"
  top: "vec4101"
  top: "vec4102"
  top: "vec4103"
  top: "vec4104"
  top: "vec4105"
  top: "vec4106"
  top: "vec4107"
  top: "vec4108"
  top: "vec4109"
  top: "vec4110"
  top: "vec4111"
  top: "vec4112"
  top: "vec4113"
  top: "vec4114"
  top: "vec4115"
  top: "vec4116"
  top: "vec4117"
  top: "vec4118"
  top: "vec4119"
  top: "vec4120"
  top: "vec4121"
  top: "vec4122"
  top: "vec4123"
  top: "vec4124"
  top: "vec4125"
  top: "vec4126"
  top: "vec4127"
  top: "vec4128"
  top: "vec4129"
  top: "vec4130"
  top: "vec4131"
  top: "vec4132"
  top: "vec4133"
  top: "vec4134"
  top: "vec4135"
  top: "vec4136"
  top: "vec4137"
  top: "vec4138"
  top: "vec4139"
  top: "vec4140"
  top: "vec4141"
  top: "vec4142"
  top: "vec4143"
  top: "vec4144"
  top: "vec4145"
  top: "vec4146"
  top: "vec4147"
  top: "vec4148"
  top: "vec4149"
  top: "vec4150"
  top: "vec4151"
  top: "vec4152"
  top: "vec4153"
  top: "vec4154"
  top: "vec4155"
  top: "vec4156"
  top: "vec4157"
  top: "vec4158"
  top: "vec4159"
  top: "vec4160"
  top: "vec4161"
  top: "vec4162"
  top: "vec4163"
  top: "vec4164"
  top: "vec4165"
  top: "vec4166"
  top: "vec4167"
  top: "vec4168"
  top: "vec4169"
  top: "vec4170"
  top: "vec4171"
  top: "vec4172"
  top: "vec4173"
  top: "vec4174"
  top: "vec4175"
  top: "vec4176"
  top: "vec4177"
  top: "vec4178"
  top: "vec4179"
  top: "vec4180"
  top: "vec4181"
  top: "vec4182"
  top: "vec4183"
  top: "vec4184"
  top: "vec4185"
  top: "vec4186"
  top: "vec4187"
  top: "vec4188"
  top: "vec4189"
  top: "vec4190"
  top: "vec4191"
  top: "vec4192"
  top: "vec4193"
  top: "vec4194"
  top: "vec4195"
  top: "vec4196"
  top: "vec4197"
  top: "vec4198"
  top: "vec4199"
  top: "vec4200"
  top: "vec4201"
  top: "vec4202"
  top: "vec4203"
  top: "vec4204"
  top: "vec4205"
  top: "vec4206"
  top: "vec4207"
  top: "vec4208"
  top: "vec4209"
  top: "vec4210"
  top: "vec4211"
  top: "vec4212"
  top: "vec4213"
  top: "vec4214"
  top: "vec4215"
  top: "vec4216"
  top: "vec4217"
  top: "vec4218"
  top: "vec4219"
  top: "vec4220"
  top: "vec4221"
  top: "vec4222"
  top: "vec4223"
  top: "vec4224"
  top: "vec4225"
  top: "vec4226"
  top: "vec4227"
  top: "vec4228"
  top: "vec4229"
  top: "vec4230"
  top: "vec4231"
  top: "vec4232"
  top: "vec4233"
  top: "vec4234"
  top: "vec4235"
  top: "vec4236"
  top: "vec4237"
  top: "vec4238"
  top: "vec4239"
  top: "vec4240"
  top: "vec4241"
  top: "vec4242"
  top: "vec4243"
  top: "vec4244"
  top: "vec4245"
  top: "vec4246"
  top: "vec4247"
  top: "vec4248"
  top: "vec4249"
  top: "vec4250"
  top: "vec4251"
  top: "vec4252"
  top: "vec4253"
  top: "vec4254"
  top: "vec4255"
  top: "vec4256"
  top: "vec4257"
  top: "vec4258"
  top: "vec4259"
  top: "vec4260"
  top: "vec4261"
  top: "vec4262"
  top: "vec4263"
  top: "vec4264"
  top: "vec4265"
  top: "vec4266"
  top: "vec4267"
  top: "vec4268"
  top: "vec4269"
  top: "vec4270"
  top: "vec4271"
  top: "vec4272"
  top: "vec4273"
  top: "vec4274"
  top: "vec4275"
  top: "vec4276"
  top: "vec4277"
  top: "vec4278"
  top: "vec4279"
  top: "vec4280"
  top: "vec4281"
  top: "vec4282"
  top: "vec4283"
  top: "vec4284"
  top: "vec4285"
  top: "vec4286"
  top: "vec4287"
  top: "vec4288"
  top: "vec4289"
  top: "vec4290"
  top: "vec4291"
  top: "vec4292"
  top: "vec4293"
  top: "vec4294"
  top: "vec4295"
  top: "vec4296"
  top: "vec4297"
  top: "vec4298"
  top: "vec4299"
  top: "vec4300"
  top: "vec4301"
  top: "vec4302"
  top: "vec4303"
  top: "vec4304"
  top: "vec4305"
  top: "vec4306"
  top: "vec4307"
  top: "vec4308"
  top: "vec4309"
  top: "vec4310"
  top: "vec4311"
  top: "vec4312"
  top: "vec4313"
  top: "vec4314"
  top: "vec4315"
  top: "vec4316"
  top: "vec4317"
  top: "vec4318"
  top: "vec4319"
  top: "vec4320"
  top: "vec4321"
  top: "vec4322"
  top: "vec4323"
  top: "vec4324"
  top: "vec4325"
  top: "vec4326"
  top: "vec4327"
  top: "vec4328"
  top: "vec4329"
  top: "vec4330"
  top: "vec4331"
  top: "vec4332"
  top: "vec4333"
  top: "vec4334"
  top: "vec4335"
  top: "vec4336"
  top: "vec4337"
  top: "vec4338"
  top: "vec4339"
  top: "vec4340"
  top: "vec4341"
  top: "vec4342"
  top: "vec4343"
  top: "vec4344"
  top: "vec4345"
  top: "vec4346"
  top: "vec4347"
  top: "vec4348"
  top: "vec4349"
  top: "vec4350"
  top: "vec4351"
  top: "vec4352"
  top: "vec4353"
  top: "vec4354"
  top: "vec4355"
  top: "vec4356"
  top: "vec4357"
  top: "vec4358"
  top: "vec4359"
  top: "vec4360"
  top: "vec4361"
  top: "vec4362"
  top: "vec4363"
  top: "vec4364"
  top: "vec4365"
  top: "vec4366"
  top: "vec4367"
  top: "vec4368"
  top: "vec4369"
  top: "vec4370"
  top: "vec4371"
  top: "vec4372"
  top: "vec4373"
  top: "vec4374"
  top: "vec4375"
  top: "vec4376"
  top: "vec4377"
  top: "vec4378"
  top: "vec4379"
  top: "vec4380"
  top: "vec4381"
  top: "vec4382"
  top: "vec4383"
  top: "vec4384"
  top: "vec4385"
  top: "vec4386"
  top: "vec4387"
  top: "vec4388"
  top: "vec4389"
  top: "vec4390"
  top: "vec4391"
  top: "vec4392"
  top: "vec4393"
  top: "vec4394"
  top: "vec4395"
  top: "vec4396"
  top: "vec4397"
  top: "vec4398"
  top: "vec4399"
  top: "vec4400"
  top: "vec4401"
  top: "vec4402"
  top: "vec4403"
  top: "vec4404"
  top: "vec4405"
  top: "vec4406"
  top: "vec4407"
  top: "vec4408"
  top: "vec4409"
  top: "vec4410"
  top: "vec4411"
  top: "vec4412"
  top: "vec4413"
  top: "vec4414"
  top: "vec4415"
  top: "vec4416"
  top: "vec4417"
  top: "vec4418"
  top: "vec4419"
  top: "vec4420"
  top: "vec4421"
  top: "vec4422"
  top: "vec4423"
  top: "vec4424"
  top: "vec4425"
  top: "vec4426"
  top: "vec4427"
  top: "vec4428"
  top: "vec4429"
  top: "vec4430"
  top: "vec4431"
  top: "vec4432"
  top: "vec4433"
  top: "vec4434"
  top: "vec4435"
  top: "vec4436"
  top: "vec4437"
  top: "vec4438"
  top: "vec4439"
  top: "vec4440"
  top: "vec4441"
  top: "vec4442"
  top: "vec4443"
  top: "vec4444"
  top: "vec4445"
  top: "vec4446"
  top: "vec4447"
  top: "vec4448"
  top: "vec4449"
  top: "vec4450"
  top: "vec4451"
  top: "vec4452"
  top: "vec4453"
  top: "vec4454"
  top: "vec4455"
  top: "vec4456"
  top: "vec4457"
  top: "vec4458"
  top: "vec4459"
  top: "vec4460"
  top: "vec4461"
  top: "vec4462"
  top: "vec4463"
  top: "vec4464"
  top: "vec4465"
  top: "vec4466"
  top: "vec4467"
  top: "vec4468"
  top: "vec4469"
  top: "vec4470"
  top: "vec4471"
  top: "vec4472"
  top: "vec4473"
  top: "vec4474"
  top: "vec4475"
  top: "vec4476"
  top: "vec4477"
  top: "vec4478"
  top: "vec4479"
  top: "vec4480"
  top: "vec4481"
  top: "vec4482"
  top: "vec4483"
  top: "vec4484"
  top: "vec4485"
  top: "vec4486"
  top: "vec4487"
  top: "vec4488"
  top: "vec4489"
  top: "vec4490"
  top: "vec4491"
  top: "vec4492"
  top: "vec4493"
  top: "vec4494"
  top: "vec4495"
  top: "vec4496"
  top: "vec4497"
  top: "vec4498"
  top: "vec4499"
  top: "vec4500"
  top: "vec4501"
  top: "vec4502"
  top: "vec4503"
  top: "vec4504"
  top: "vec4505"
  top: "vec4506"
  top: "vec4507"
  top: "vec4508"
  top: "vec4509"
  top: "vec4510"
  top: "vec4511"
  top: "vec4512"
  top: "vec4513"
  top: "vec4514"
  top: "vec4515"
  top: "vec4516"
  top: "vec4517"
  top: "vec4518"
  top: "vec4519"
  top: "vec4520"
  top: "vec4521"
  top: "vec4522"
  top: "vec4523"
  top: "vec4524"
  top: "vec4525"
  top: "vec4526"
  top: "vec4527"
  top: "vec4528"
  top: "vec4529"
  top: "vec4530"
  top: "vec4531"
  top: "vec4532"
  top: "vec4533"
  top: "vec4534"
  top: "vec4535"
  top: "vec4536"
  top: "vec4537"
  top: "vec4538"
  top: "vec4539"
  top: "vec4540"
  top: "vec4541"
  top: "vec4542"
  top: "vec4543"
  top: "vec4544"
  top: "vec4545"
  top: "vec4546"
  top: "vec4547"
  top: "vec4548"
  top: "vec4549"
  top: "vec4550"
  top: "vec4551"
  top: "vec4552"
  top: "vec4553"
  top: "vec4554"
  top: "vec4555"
  top: "vec4556"
  top: "vec4557"
  top: "vec4558"
  top: "vec4559"
  top: "vec4560"
  top: "vec4561"
  top: "vec4562"
  top: "vec4563"
  top: "vec4564"
  top: "vec4565"
  top: "vec4566"
  top: "vec4567"
  top: "vec4568"
  top: "vec4569"
  top: "vec4570"
  top: "vec4571"
  top: "vec4572"
  top: "vec4573"
  top: "vec4574"
  top: "vec4575"
  top: "vec4576"
  top: "vec4577"
  top: "vec4578"
  top: "vec4579"
  top: "vec4580"
  top: "vec4581"
  top: "vec4582"
  top: "vec4583"
  top: "vec4584"
  top: "vec4585"
  top: "vec4586"
  top: "vec4587"
  top: "vec4588"
  top: "vec4589"
  top: "vec4590"
  top: "vec4591"
  top: "vec4592"
  top: "vec4593"
  top: "vec4594"
  top: "vec4595"
  top: "vec4596"
  top: "vec4597"
  top: "vec4598"
  top: "vec4599"
  top: "vec4600"
  top: "vec4601"
  top: "vec4602"
  top: "vec4603"
  top: "vec4604"
  top: "vec4605"
  top: "vec4606"
  top: "vec4607"
  top: "vec4608"
  top: "vec4609"
  top: "vec4610"
  top: "vec4611"
  top: "vec4612"
  top: "vec4613"
  top: "vec4614"
  top: "vec4615"
  top: "vec4616"
  top: "vec4617"
  top: "vec4618"
  top: "vec4619"
  top: "vec4620"
  top: "vec4621"
  top: "vec4622"
  top: "vec4623"
  top: "vec4624"
  top: "vec4625"
  top: "vec4626"
  top: "vec4627"
  top: "vec4628"
  top: "vec4629"
  top: "vec4630"
  top: "vec4631"
  top: "vec4632"
  top: "vec4633"
  top: "vec4634"
  top: "vec4635"
  top: "vec4636"
  top: "vec4637"
  top: "vec4638"
  top: "vec4639"
  top: "vec4640"
  top: "vec4641"
  top: "vec4642"
  top: "vec4643"
  top: "vec4644"
  top: "vec4645"
  top: "vec4646"
  top: "vec4647"
  top: "vec4648"
  top: "vec4649"
  top: "vec4650"
  top: "vec4651"
  top: "vec4652"
  top: "vec4653"
  top: "vec4654"
  top: "vec4655"
  top: "vec4656"
  top: "vec4657"
  top: "vec4658"
  top: "vec4659"
  top: "vec4660"
  top: "vec4661"
  top: "vec4662"
  top: "vec4663"
  top: "vec4664"
  top: "vec4665"
  top: "vec4666"
  top: "vec4667"
  top: "vec4668"
  top: "vec4669"
  top: "vec4670"
  top: "vec4671"
  top: "vec4672"
  top: "vec4673"
  top: "vec4674"
  top: "vec4675"
  top: "vec4676"
  top: "vec4677"
  top: "vec4678"
  top: "vec4679"
  top: "vec4680"
  top: "vec4681"
  top: "vec4682"
  top: "vec4683"
  top: "vec4684"
  top: "vec4685"
  top: "vec4686"
  top: "vec4687"
  top: "vec4688"
  top: "vec4689"
  top: "vec4690"
  top: "vec4691"
  top: "vec4692"
  top: "vec4693"
  top: "vec4694"
  top: "vec4695"
  top: "vec4696"
  top: "vec4697"
  top: "vec4698"
  top: "vec4699"
  top: "vec4700"
  top: "vec4701"
  top: "vec4702"
  top: "vec4703"
  top: "vec4704"
  top: "vec4705"
  top: "vec4706"
  top: "vec4707"
  top: "vec4708"
  top: "vec4709"
  top: "vec4710"
  top: "vec4711"
  top: "vec4712"
  top: "vec4713"
  top: "vec4714"
  top: "vec4715"
  top: "vec4716"
  top: "vec4717"
  top: "vec4718"
  top: "vec4719"
  top: "vec4720"
  top: "vec4721"
  top: "vec4722"
  top: "vec4723"
  top: "vec4724"
  top: "vec4725"
  top: "vec4726"
  top: "vec4727"
  top: "vec4728"
  top: "vec4729"
  top: "vec4730"
  top: "vec4731"
  top: "vec4732"
  top: "vec4733"
  top: "vec4734"
  top: "vec4735"
  top: "vec4736"
  top: "vec4737"
  top: "vec4738"
  top: "vec4739"
  top: "vec4740"
  top: "vec4741"
  top: "vec4742"
  top: "vec4743"
  top: "vec4744"
  top: "vec4745"
  top: "vec4746"
  top: "vec4747"
  top: "vec4748"
  top: "vec4749"
  top: "vec4750"
  top: "vec4751"
  top: "vec4752"
  top: "vec4753"
  top: "vec4754"
  top: "vec4755"
  top: "vec4756"
  top: "vec4757"
  top: "vec4758"
  top: "vec4759"
  top: "vec4760"
  top: "vec4761"
  top: "vec4762"
  top: "vec4763"
  top: "vec4764"
  top: "vec4765"
  top: "vec4766"
  top: "vec4767"
  top: "vec4768"
  top: "vec4769"
  top: "vec4770"
  top: "vec4771"
  top: "vec4772"
  top: "vec4773"
  top: "vec4774"
  top: "vec4775"
  top: "vec4776"
  top: "vec4777"
  top: "vec4778"
  top: "vec4779"
  top: "vec4780"
  top: "vec4781"
  top: "vec4782"
  top: "vec4783"
  top: "vec4784"
  top: "vec4785"
  top: "vec4786"
  top: "vec4787"
  top: "vec4788"
  top: "vec4789"
  top: "vec4790"
  top: "vec4791"
  top: "vec4792"
  top: "vec4793"
  top: "vec4794"
  top: "vec4795"
  top: "vec4796"
  top: "vec4797"
  top: "vec4798"
  top: "vec4799"
  top: "vec4800"
  top: "vec4801"
  top: "vec4802"
  top: "vec4803"
  top: "vec4804"
  top: "vec4805"
  top: "vec4806"
  top: "vec4807"
  top: "vec4808"
  top: "vec4809"
  top: "vec4810"
  top: "vec4811"
  top: "vec4812"
  top: "vec4813"
  top: "vec4814"
  top: "vec4815"
  top: "vec4816"
  top: "vec4817"
  top: "vec4818"
  top: "vec4819"
  top: "vec4820"
  top: "vec4821"
  top: "vec4822"
  top: "vec4823"
  top: "vec4824"
  top: "vec4825"
  top: "vec4826"
  top: "vec4827"
  top: "vec4828"
  top: "vec4829"
  top: "vec4830"
  top: "vec4831"
  top: "vec4832"
  top: "vec4833"
  top: "vec4834"
  top: "vec4835"
  top: "vec4836"
  top: "vec4837"
  top: "vec4838"
  top: "vec4839"
  top: "vec4840"
  top: "vec4841"
  top: "vec4842"
  top: "vec4843"
  top: "vec4844"
  top: "vec4845"
  top: "vec4846"
  top: "vec4847"
  top: "vec4848"
  top: "vec4849"
  top: "vec4850"
  top: "vec4851"
  top: "vec4852"
  top: "vec4853"
  top: "vec4854"
  top: "vec4855"
  top: "vec4856"
  top: "vec4857"
  top: "vec4858"
  top: "vec4859"
  top: "vec4860"
  top: "vec4861"
  top: "vec4862"
  top: "vec4863"
  top: "vec4864"
  top: "vec4865"
  top: "vec4866"
  top: "vec4867"
  top: "vec4868"
  top: "vec4869"
  top: "vec4870"
  top: "vec4871"
  top: "vec4872"
  top: "vec4873"
  top: "vec4874"
  top: "vec4875"
  top: "vec4876"
  top: "vec4877"
  top: "vec4878"
  top: "vec4879"
  top: "vec4880"
  top: "vec4881"
  top: "vec4882"
  top: "vec4883"
  top: "vec4884"
  top: "vec4885"
  top: "vec4886"
  top: "vec4887"
  top: "vec4888"
  top: "vec4889"
  top: "vec4890"
  top: "vec4891"
  top: "vec4892"
  top: "vec4893"
  top: "vec4894"
  top: "vec4895"
  top: "vec4896"
  top: "vec4897"
  top: "vec4898"
  top: "vec4899"
  top: "vec4900"
  top: "vec4901"
  top: "vec4902"
  top: "vec4903"
  top: "vec4904"
  top: "vec4905"
  top: "vec4906"
  top: "vec4907"
  top: "vec4908"
  top: "vec4909"
  top: "vec4910"
  top: "vec4911"
  top: "vec4912"
  top: "vec4913"
  top: "vec4914"
  top: "vec4915"
  top: "vec4916"
  top: "vec4917"
  top: "vec4918"
  top: "vec4919"
  top: "vec4920"
  top: "vec4921"
  top: "vec4922"
  top: "vec4923"
  top: "vec4924"
  top: "vec4925"
  top: "vec4926"
  top: "vec4927"
  top: "vec4928"
  top: "vec4929"
  top: "vec4930"
  top: "vec4931"
  top: "vec4932"
  top: "vec4933"
  top: "vec4934"
  top: "vec4935"
  top: "vec4936"
  top: "vec4937"
  top: "vec4938"
  top: "vec4939"
  top: "vec4940"
  top: "vec4941"
  top: "vec4942"
  top: "vec4943"
  top: "vec4944"
  top: "vec4945"
  top: "vec4946"
  top: "vec4947"
  top: "vec4948"
  top: "vec4949"
  top: "vec4950"
  top: "vec4951"
  top: "vec4952"
  top: "vec4953"
  top: "vec4954"
  top: "vec4955"
  top: "vec4956"
  top: "vec4957"
  top: "vec4958"
  top: "vec4959"
  top: "vec4960"
  top: "vec4961"
  top: "vec4962"
  top: "vec4963"
  top: "vec4964"
  top: "vec4965"
  top: "vec4966"
  top: "vec4967"
  top: "vec4968"
  top: "vec4969"
  top: "vec4970"
  top: "vec4971"
  top: "vec4972"
  top: "vec4973"
  top: "vec4974"
  top: "vec4975"
  top: "vec4976"
  top: "vec4977"
  top: "vec4978"
  top: "vec4979"
  top: "vec4980"
  top: "vec4981"
  top: "vec4982"
  top: "vec4983"
  top: "vec4984"
  top: "vec4985"
  top: "vec4986"
  top: "vec4987"
  top: "vec4988"
  top: "vec4989"
  top: "vec4990"
  top: "vec4991"
  top: "vec4992"
  top: "vec4993"
  top: "vec4994"
  top: "vec4995"
  top: "vec4996"
  top: "vec4997"
  top: "vec4998"
  top: "vec4999"
  top: "vec5000"
  top: "vec5001"
  top: "vec5002"
  top: "vec5003"
  top: "vec5004"
  top: "vec5005"
  top: "vec5006"
  top: "vec5007"
  top: "vec5008"
  top: "vec5009"
  top: "vec5010"
  top: "vec5011"
  top: "vec5012"
  top: "vec5013"
  top: "vec5014"
  top: "vec5015"
  top: "vec5016"
  top: "vec5017"
  top: "vec5018"
  top: "vec5019"
  top: "vec5020"
  top: "vec5021"
  top: "vec5022"
  top: "vec5023"
  top: "vec5024"
  top: "vec5025"
  top: "vec5026"
  top: "vec5027"
  top: "vec5028"
  top: "vec5029"
  top: "vec5030"
  top: "vec5031"
  top: "vec5032"
  top: "vec5033"
  top: "vec5034"
  top: "vec5035"
  top: "vec5036"
  top: "vec5037"
  top: "vec5038"
  top: "vec5039"
  top: "vec5040"
  top: "vec5041"
  top: "vec5042"
  top: "vec5043"
  top: "vec5044"
  top: "vec5045"
  top: "vec5046"
  top: "vec5047"
  top: "vec5048"
  top: "vec5049"
  top: "vec5050"
  top: "vec5051"
  top: "vec5052"
  top: "vec5053"
  top: "vec5054"
  top: "vec5055"
  top: "vec5056"
  top: "vec5057"
  top: "vec5058"
  top: "vec5059"
  top: "vec5060"
  top: "vec5061"
  top: "vec5062"
  top: "vec5063"
  top: "vec5064"
  top: "vec5065"
  top: "vec5066"
  top: "vec5067"
  top: "vec5068"
  top: "vec5069"
  top: "vec5070"
  top: "vec5071"
  top: "vec5072"
  top: "vec5073"
  top: "vec5074"
  top: "vec5075"
  top: "vec5076"
  top: "vec5077"
  top: "vec5078"
  top: "vec5079"
  top: "vec5080"
  top: "vec5081"
  top: "vec5082"
  top: "vec5083"
  top: "vec5084"
  top: "vec5085"
  top: "vec5086"
  top: "vec5087"
  top: "vec5088"
  top: "vec5089"
  top: "vec5090"
  top: "vec5091"
  top: "vec5092"
  top: "vec5093"
  top: "vec5094"
  top: "vec5095"
  top: "vec5096"
  top: "vec5097"
  top: "vec5098"
  top: "vec5099"
  top: "vec5100"
  top: "vec5101"
  top: "vec5102"
  top: "vec5103"
  top: "vec5104"
  top: "vec5105"
  top: "vec5106"
  top: "vec5107"
  top: "vec5108"
  top: "vec5109"
  top: "vec5110"
  top: "vec5111"
  top: "vec5112"
  top: "vec5113"
  top: "vec5114"
  top: "vec5115"
  top: "vec5116"
  top: "vec5117"
  top: "vec5118"
  top: "vec5119"
  top: "vec5120"
  top: "vec5121"
  top: "vec5122"
  top: "vec5123"
  top: "vec5124"
  top: "vec5125"
  top: "vec5126"
  top: "vec5127"
  top: "vec5128"
  top: "vec5129"
  top: "vec5130"
  top: "vec5131"
  top: "vec5132"
  top: "vec5133"
  top: "vec5134"
  top: "vec5135"
  top: "vec5136"
  top: "vec5137"
  top: "vec5138"
  top: "vec5139"
  top: "vec5140"
  top: "vec5141"
  top: "vec5142"
  top: "vec5143"
  top: "vec5144"
  top: "vec5145"
  top: "vec5146"
  top: "vec5147"
  top: "vec5148"
  top: "vec5149"
  top: "vec5150"
  top: "vec5151"
  top: "vec5152"
  top: "vec5153"
  top: "vec5154"
  top: "vec5155"
  top: "vec5156"
  top: "vec5157"
  top: "vec5158"
  top: "vec5159"
  top: "vec5160"
  top: "vec5161"
  top: "vec5162"
  top: "vec5163"
  top: "vec5164"
  top: "vec5165"
  top: "vec5166"
  top: "vec5167"
  top: "vec5168"
  top: "vec5169"
  top: "vec5170"
  top: "vec5171"
  top: "vec5172"
  top: "vec5173"
  top: "vec5174"
  top: "vec5175"
  top: "vec5176"
  top: "vec5177"
  top: "vec5178"
  top: "vec5179"
  top: "vec5180"
  top: "vec5181"
  top: "vec5182"
  top: "vec5183"
  top: "vec5184"
  top: "vec5185"
  top: "vec5186"
  top: "vec5187"
  top: "vec5188"
  top: "vec5189"
  top: "vec5190"
  top: "vec5191"
  top: "vec5192"
  top: "vec5193"
  top: "vec5194"
  top: "vec5195"
  top: "vec5196"
  top: "vec5197"
  top: "vec5198"
  top: "vec5199"
  top: "vec5200"
  top: "vec5201"
  top: "vec5202"
  top: "vec5203"
  top: "vec5204"
  top: "vec5205"
  top: "vec5206"
  top: "vec5207"
  top: "vec5208"
  top: "vec5209"
  top: "vec5210"
  top: "vec5211"
  top: "vec5212"
  top: "vec5213"
  top: "vec5214"
  top: "vec5215"
  top: "vec5216"
  top: "vec5217"
  top: "vec5218"
  top: "vec5219"
  top: "vec5220"
  top: "vec5221"
  top: "vec5222"
  top: "vec5223"
  top: "vec5224"
  top: "vec5225"
  top: "vec5226"
  top: "vec5227"
  top: "vec5228"
  top: "vec5229"
  top: "vec5230"
  top: "vec5231"
  top: "vec5232"
  top: "vec5233"
  top: "vec5234"
  top: "vec5235"
  top: "vec5236"
  top: "vec5237"
  top: "vec5238"
  top: "vec5239"
  top: "vec5240"
  top: "vec5241"
  top: "vec5242"
  top: "vec5243"
  top: "vec5244"
  top: "vec5245"
  top: "vec5246"
  top: "vec5247"
  top: "vec5248"
  top: "vec5249"
  top: "vec5250"
  top: "vec5251"
  top: "vec5252"
  top: "vec5253"
  top: "vec5254"
  top: "vec5255"
  top: "vec5256"
  top: "vec5257"
  top: "vec5258"
  top: "vec5259"
  top: "vec5260"
  top: "vec5261"
  top: "vec5262"
  top: "vec5263"
  top: "vec5264"
  top: "vec5265"
  top: "vec5266"
  top: "vec5267"
  top: "vec5268"
  top: "vec5269"
  top: "vec5270"
  top: "vec5271"
  top: "vec5272"
  top: "vec5273"
  top: "vec5274"
  top: "vec5275"
  top: "vec5276"
  top: "vec5277"
  top: "vec5278"
  top: "vec5279"
  top: "vec5280"
  top: "vec5281"
  top: "vec5282"
  top: "vec5283"
  top: "vec5284"
  top: "vec5285"
  top: "vec5286"
  top: "vec5287"
  top: "vec5288"
  top: "vec5289"
  top: "vec5290"
  top: "vec5291"
  top: "vec5292"
  top: "vec5293"
  top: "vec5294"
  top: "vec5295"
  top: "vec5296"
  top: "vec5297"
  top: "vec5298"
  top: "vec5299"
  top: "vec5300"
  top: "vec5301"
  top: "vec5302"
  top: "vec5303"
  top: "vec5304"
  top: "vec5305"
  top: "vec5306"
  top: "vec5307"
  top: "vec5308"
  top: "vec5309"
  top: "vec5310"
  top: "vec5311"
  top: "vec5312"
  top: "vec5313"
  top: "vec5314"
  top: "vec5315"
  top: "vec5316"
  top: "vec5317"
  top: "vec5318"
  top: "vec5319"
  top: "vec5320"
  top: "vec5321"
  top: "vec5322"
  top: "vec5323"
  top: "vec5324"
  top: "vec5325"
  top: "vec5326"
  top: "vec5327"
  top: "vec5328"
  top: "vec5329"
  top: "vec5330"
  top: "vec5331"
  top: "vec5332"
  top: "vec5333"
  top: "vec5334"
  top: "vec5335"
  top: "vec5336"
  top: "vec5337"
  top: "vec5338"
  top: "vec5339"
  top: "vec5340"
  top: "vec5341"
  top: "vec5342"
  top: "vec5343"
  top: "vec5344"
  top: "vec5345"
  top: "vec5346"
  top: "vec5347"
  top: "vec5348"
  top: "vec5349"
  top: "vec5350"
  top: "vec5351"
  top: "vec5352"
  top: "vec5353"
  top: "vec5354"
  top: "vec5355"
  top: "vec5356"
  top: "vec5357"
  top: "vec5358"
  top: "vec5359"
  top: "vec5360"
  top: "vec5361"
  top: "vec5362"
  top: "vec5363"
  top: "vec5364"
  top: "vec5365"
  top: "vec5366"
  top: "vec5367"
  top: "vec5368"
  top: "vec5369"
  top: "vec5370"
  top: "vec5371"
  top: "vec5372"
  top: "vec5373"
  top: "vec5374"
  top: "vec5375"
  top: "vec5376"
  top: "vec5377"
  top: "vec5378"
  top: "vec5379"
  top: "vec5380"
  top: "vec5381"
  top: "vec5382"
  top: "vec5383"
  top: "vec5384"
  top: "vec5385"
  top: "vec5386"
  top: "vec5387"
  top: "vec5388"
  top: "vec5389"
  top: "vec5390"
  top: "vec5391"
  top: "vec5392"
  top: "vec5393"
  top: "vec5394"
  top: "vec5395"
  top: "vec5396"
  top: "vec5397"
  top: "vec5398"
  top: "vec5399"
  top: "vec5400"
  top: "vec5401"
  top: "vec5402"
  top: "vec5403"
  top: "vec5404"
  top: "vec5405"
  top: "vec5406"
  top: "vec5407"
  top: "vec5408"
  top: "vec5409"
  top: "vec5410"
  top: "vec5411"
  top: "vec5412"
  top: "vec5413"
  top: "vec5414"
  top: "vec5415"
  top: "vec5416"
  top: "vec5417"
  top: "vec5418"
  top: "vec5419"
  top: "vec5420"
  top: "vec5421"
  top: "vec5422"
  top: "vec5423"
  top: "vec5424"
  top: "vec5425"
  top: "vec5426"
  top: "vec5427"
  top: "vec5428"
  top: "vec5429"
  top: "vec5430"
  top: "vec5431"
  top: "vec5432"
  top: "vec5433"
  top: "vec5434"
  top: "vec5435"
  top: "vec5436"
  top: "vec5437"
  top: "vec5438"
  top: "vec5439"
  top: "vec5440"
  top: "vec5441"
  top: "vec5442"
  top: "vec5443"
  top: "vec5444"
  top: "vec5445"
  top: "vec5446"
  top: "vec5447"
  top: "vec5448"
  top: "vec5449"
  top: "vec5450"
  top: "vec5451"
  top: "vec5452"
  top: "vec5453"
  top: "vec5454"
  top: "vec5455"
  top: "vec5456"
  top: "vec5457"
  top: "vec5458"
  top: "vec5459"
  top: "vec5460"
  top: "vec5461"
  top: "vec5462"
  top: "vec5463"
  top: "vec5464"
  top: "vec5465"
  top: "vec5466"
  top: "vec5467"
  top: "vec5468"
  top: "vec5469"
  top: "vec5470"
  top: "vec5471"
  top: "vec5472"
  top: "vec5473"
  top: "vec5474"
  top: "vec5475"
  top: "vec5476"
  top: "vec5477"
  top: "vec5478"
  top: "vec5479"
  top: "vec5480"
  top: "vec5481"
  top: "vec5482"
  top: "vec5483"
  top: "vec5484"
  top: "vec5485"
  top: "vec5486"
  top: "vec5487"
  top: "vec5488"
  top: "vec5489"
  top: "vec5490"
  top: "vec5491"
  top: "vec5492"
  top: "vec5493"
  top: "vec5494"
  top: "vec5495"
  top: "vec5496"
  top: "vec5497"
  top: "vec5498"
  top: "vec5499"
  top: "vec5500"
  top: "vec5501"
  top: "vec5502"
  top: "vec5503"
  top: "vec5504"
  top: "vec5505"
  top: "vec5506"
  top: "vec5507"
  top: "vec5508"
  top: "vec5509"
  top: "vec5510"
  top: "vec5511"
  top: "vec5512"
  top: "vec5513"
  top: "vec5514"
  top: "vec5515"
  top: "vec5516"
  top: "vec5517"
  top: "vec5518"
  top: "vec5519"
  top: "vec5520"
  top: "vec5521"
  top: "vec5522"
  top: "vec5523"
  top: "vec5524"
  top: "vec5525"
  top: "vec5526"
  top: "vec5527"
  top: "vec5528"
  top: "vec5529"
  top: "vec5530"
  top: "vec5531"
  top: "vec5532"
  top: "vec5533"
  top: "vec5534"
  top: "vec5535"
  top: "vec5536"
  top: "vec5537"
  top: "vec5538"
  top: "vec5539"
  top: "vec5540"
  top: "vec5541"
  top: "vec5542"
  top: "vec5543"
  top: "vec5544"
  top: "vec5545"
  top: "vec5546"
  top: "vec5547"
  top: "vec5548"
  top: "vec5549"
  top: "vec5550"
  top: "vec5551"
  top: "vec5552"
  top: "vec5553"
  top: "vec5554"
  top: "vec5555"
  top: "vec5556"
  top: "vec5557"
  top: "vec5558"
  top: "vec5559"
  top: "vec5560"
  top: "vec5561"
  top: "vec5562"
  top: "vec5563"
  top: "vec5564"
  top: "vec5565"
  top: "vec5566"
  top: "vec5567"
  top: "vec5568"
  top: "vec5569"
  top: "vec5570"
  top: "vec5571"
  top: "vec5572"
  top: "vec5573"
  top: "vec5574"
  top: "vec5575"
  top: "vec5576"
  top: "vec5577"
  top: "vec5578"
  top: "vec5579"
  top: "vec5580"
  top: "vec5581"
  top: "vec5582"
  top: "vec5583"
  top: "vec5584"
  top: "vec5585"
  top: "vec5586"
  top: "vec5587"
  top: "vec5588"
  top: "vec5589"
  top: "vec5590"
  top: "vec5591"
  top: "vec5592"
  top: "vec5593"
  top: "vec5594"
  top: "vec5595"
  top: "vec5596"
  top: "vec5597"
  top: "vec5598"
  top: "vec5599"
  top: "vec5600"
  top: "vec5601"
  top: "vec5602"
  top: "vec5603"
  top: "vec5604"
  top: "vec5605"
  top: "vec5606"
  top: "vec5607"
  top: "vec5608"
  top: "vec5609"
  top: "vec5610"
  top: "vec5611"
  top: "vec5612"
  top: "vec5613"
  top: "vec5614"
  top: "vec5615"
  top: "vec5616"
  top: "vec5617"
  top: "vec5618"
  top: "vec5619"
  top: "vec5620"
  top: "vec5621"
  top: "vec5622"
  top: "vec5623"
  top: "vec5624"
  top: "vec5625"
  top: "vec5626"
  top: "vec5627"
  top: "vec5628"
  top: "vec5629"
  top: "vec5630"
  top: "vec5631"
  top: "vec5632"
  top: "vec5633"
  top: "vec5634"
  top: "vec5635"
  top: "vec5636"
  top: "vec5637"
  top: "vec5638"
  top: "vec5639"
  top: "vec5640"
  top: "vec5641"
  top: "vec5642"
  top: "vec5643"
  top: "vec5644"
  top: "vec5645"
  top: "vec5646"
  top: "vec5647"
  top: "vec5648"
  top: "vec5649"
  top: "vec5650"
  top: "vec5651"
  top: "vec5652"
  top: "vec5653"
  top: "vec5654"
  top: "vec5655"
  top: "vec5656"
  top: "vec5657"
  top: "vec5658"
  top: "vec5659"
  top: "vec5660"
  top: "vec5661"
  top: "vec5662"
  top: "vec5663"
  top: "vec5664"
  top: "vec5665"
  top: "vec5666"
  top: "vec5667"
  top: "vec5668"
  top: "vec5669"
  top: "vec5670"
  top: "vec5671"
  top: "vec5672"
  top: "vec5673"
  top: "vec5674"
  top: "vec5675"
  top: "vec5676"
  top: "vec5677"
  top: "vec5678"
  top: "vec5679"
  top: "vec5680"
  top: "vec5681"
  top: "vec5682"
  top: "vec5683"
  top: "vec5684"
  top: "vec5685"
  top: "vec5686"
  top: "vec5687"
  top: "vec5688"
  top: "vec5689"
  top: "vec5690"
  top: "vec5691"
  top: "vec5692"
  top: "vec5693"
  top: "vec5694"
  top: "vec5695"
  top: "vec5696"
  top: "vec5697"
  top: "vec5698"
  top: "vec5699"
  top: "vec5700"
  top: "vec5701"
  top: "vec5702"
  top: "vec5703"
  top: "vec5704"
  top: "vec5705"
  top: "vec5706"
  top: "vec5707"
  top: "vec5708"
  top: "vec5709"
  top: "vec5710"
  top: "vec5711"
  top: "vec5712"
  top: "vec5713"
  top: "vec5714"
  top: "vec5715"
  top: "vec5716"
  top: "vec5717"
  top: "vec5718"
  top: "vec5719"
  top: "vec5720"
  top: "vec5721"
  top: "vec5722"
  top: "vec5723"
  top: "vec5724"
  top: "vec5725"
  top: "vec5726"
  top: "vec5727"
  top: "vec5728"
  top: "vec5729"
  top: "vec5730"
  top: "vec5731"
  top: "vec5732"
  top: "vec5733"
  top: "vec5734"
  top: "vec5735"
  top: "vec5736"
  top: "vec5737"
  top: "vec5738"
  top: "vec5739"
  top: "vec5740"
  top: "vec5741"
  top: "vec5742"
  top: "vec5743"
  top: "vec5744"
  top: "vec5745"
  top: "vec5746"
  top: "vec5747"
  top: "vec5748"
  top: "vec5749"
  top: "vec5750"
  top: "vec5751"
  top: "vec5752"
  top: "vec5753"
  top: "vec5754"
  top: "vec5755"
  top: "vec5756"
  top: "vec5757"
  top: "vec5758"
  top: "vec5759"
  top: "vec5760"
  top: "vec5761"
  top: "vec5762"
  top: "vec5763"
  top: "vec5764"
  top: "vec5765"
  top: "vec5766"
  top: "vec5767"
  top: "vec5768"
  top: "vec5769"
  top: "vec5770"
  top: "vec5771"
  top: "vec5772"
  top: "vec5773"
  top: "vec5774"
  top: "vec5775"
  top: "vec5776"
  top: "vec5777"
  top: "vec5778"
  top: "vec5779"
  top: "vec5780"
  top: "vec5781"
  top: "vec5782"
  top: "vec5783"
  top: "vec5784"
  top: "vec5785"
  top: "vec5786"
  top: "vec5787"
  top: "vec5788"
  top: "vec5789"
  top: "vec5790"
  top: "vec5791"
  top: "vec5792"
  top: "vec5793"
  top: "vec5794"
  top: "vec5795"
  top: "vec5796"
  top: "vec5797"
  top: "vec5798"
  top: "vec5799"
  top: "vec5800"
  top: "vec5801"
  top: "vec5802"
  top: "vec5803"
  top: "vec5804"
  top: "vec5805"
  top: "vec5806"
  top: "vec5807"
  top: "vec5808"
  top: "vec5809"
  top: "vec5810"
  top: "vec5811"
  top: "vec5812"
  top: "vec5813"
  top: "vec5814"
  top: "vec5815"
  top: "vec5816"
  top: "vec5817"
  top: "vec5818"
  top: "vec5819"
  top: "vec5820"
  top: "vec5821"
  top: "vec5822"
  top: "vec5823"
  top: "vec5824"
  top: "vec5825"
  top: "vec5826"
  top: "vec5827"
  top: "vec5828"
  top: "vec5829"
  top: "vec5830"
  top: "vec5831"
  top: "vec5832"
  top: "vec5833"
  top: "vec5834"
  top: "vec5835"
  top: "vec5836"
  top: "vec5837"
  top: "vec5838"
  top: "vec5839"
  top: "vec5840"
  top: "vec5841"
  top: "vec5842"
  top: "vec5843"
  top: "vec5844"
  top: "vec5845"
  top: "vec5846"
  top: "vec5847"
  top: "vec5848"
  top: "vec5849"
  top: "vec5850"
  top: "vec5851"
  top: "vec5852"
  top: "vec5853"
  top: "vec5854"
  top: "vec5855"
  top: "vec5856"
  top: "vec5857"
  top: "vec5858"
  top: "vec5859"
  top: "vec5860"
  top: "vec5861"
  top: "vec5862"
  top: "vec5863"
  top: "vec5864"
  top: "vec5865"
  top: "vec5866"
  top: "vec5867"
  top: "vec5868"
  top: "vec5869"
  top: "vec5870"
  top: "vec5871"
  top: "vec5872"
  top: "vec5873"
  top: "vec5874"
  top: "vec5875"
  top: "vec5876"
  top: "vec5877"
  top: "vec5878"
  top: "vec5879"
  top: "vec5880"
  top: "vec5881"
  top: "vec5882"
  top: "vec5883"
  top: "vec5884"
  top: "vec5885"
  top: "vec5886"
  top: "vec5887"
  top: "vec5888"
  top: "vec5889"
  top: "vec5890"
  top: "vec5891"
  top: "vec5892"
  top: "vec5893"
  top: "vec5894"
  top: "vec5895"
  top: "vec5896"
  top: "vec5897"
  top: "vec5898"
  top: "vec5899"
  top: "vec5900"
  top: "vec5901"
  top: "vec5902"
  top: "vec5903"
  top: "vec5904"
  top: "vec5905"
  top: "vec5906"
  top: "vec5907"
  top: "vec5908"
  top: "vec5909"
  top: "vec5910"
  top: "vec5911"
  top: "vec5912"
  top: "vec5913"
  top: "vec5914"
  top: "vec5915"
  top: "vec5916"
  top: "vec5917"
  top: "vec5918"
  top: "vec5919"
  top: "vec5920"
  top: "vec5921"
  top: "vec5922"
  top: "vec5923"
  top: "vec5924"
  top: "vec5925"
  top: "vec5926"
  top: "vec5927"
  top: "vec5928"
  top: "vec5929"
  top: "vec5930"
  top: "vec5931"
  top: "vec5932"
  top: "vec5933"
  top: "vec5934"
  top: "vec5935"
  top: "vec5936"
  top: "vec5937"
  top: "vec5938"
  top: "vec5939"
  top: "vec5940"
  top: "vec5941"
  top: "vec5942"
  top: "vec5943"
  top: "vec5944"
  top: "vec5945"
  top: "vec5946"
  top: "vec5947"
  top: "vec5948"
  top: "vec5949"
  top: "vec5950"
  top: "vec5951"
  top: "vec5952"
  top: "vec5953"
  top: "vec5954"
  top: "vec5955"
  top: "vec5956"
  top: "vec5957"
  top: "vec5958"
  top: "vec5959"
  top: "vec5960"
  top: "vec5961"
  top: "vec5962"
  top: "vec5963"
  top: "vec5964"
  top: "vec5965"
  top: "vec5966"
  top: "vec5967"
  top: "vec5968"
  top: "vec5969"
  top: "vec5970"
  top: "vec5971"
  top: "vec5972"
  top: "vec5973"
  top: "vec5974"
  top: "vec5975"
  top: "vec5976"
  top: "vec5977"
  top: "vec5978"
  top: "vec5979"
  top: "vec5980"
  top: "vec5981"
  top: "vec5982"
  top: "vec5983"
  top: "vec5984"
  top: "vec5985"
  top: "vec5986"
  top: "vec5987"
  top: "vec5988"
  top: "vec5989"
  top: "vec5990"
  top: "vec5991"
  top: "vec5992"
  top: "vec5993"
  top: "vec5994"
  top: "vec5995"
  top: "vec5996"
  top: "vec5997"
  top: "vec5998"
  top: "vec5999"
  top: "vec6000"
  top: "vec6001"
  top: "vec6002"
  top: "vec6003"
  top: "vec6004"
  top: "vec6005"
 

  slice_param {
    axis: 2
#SLC
    slice_point: 0
    slice_point: 1
    slice_point: 2
    slice_point: 3
    slice_point: 4
    slice_point: 5
    slice_point: 6
    slice_point: 7
    slice_point: 8
    slice_point: 9
    slice_point: 10
    slice_point: 11
    slice_point: 12
    slice_point: 13
    slice_point: 14
    slice_point: 15
    slice_point: 16
    slice_point: 17
    slice_point: 18
    slice_point: 19
    slice_point: 20
    slice_point: 21
    slice_point: 22
    slice_point: 23
    slice_point: 24
    slice_point: 25
    slice_point: 26
    slice_point: 27
    slice_point: 28
    slice_point: 29
    slice_point: 30
    slice_point: 31
    slice_point: 32
    slice_point: 33
    slice_point: 34
    slice_point: 35
    slice_point: 36
    slice_point: 37
    slice_point: 38
    slice_point: 39
    slice_point: 40
    slice_point: 41
    slice_point: 42
    slice_point: 43
    slice_point: 44
    slice_point: 45
    slice_point: 46
    slice_point: 47
    slice_point: 48
    slice_point: 49
    slice_point: 50
    slice_point: 51
    slice_point: 52
    slice_point: 53
    slice_point: 54
    slice_point: 55
    slice_point: 56
    slice_point: 57
    slice_point: 58
    slice_point: 59
    slice_point: 60
    slice_point: 61
    slice_point: 62
    slice_point: 63
    slice_point: 64
    slice_point: 65
    slice_point: 66
    slice_point: 67
    slice_point: 68
    slice_point: 69
    slice_point: 70
    slice_point: 71
    slice_point: 72
    slice_point: 73
    slice_point: 74
    slice_point: 75
    slice_point: 76
    slice_point: 77
    slice_point: 78
    slice_point: 79
    slice_point: 80
    slice_point: 81
    slice_point: 82
    slice_point: 83
    slice_point: 84
    slice_point: 85
    slice_point: 86
    slice_point: 87
    slice_point: 88
    slice_point: 89
    slice_point: 90
    slice_point: 91
    slice_point: 92
    slice_point: 93
    slice_point: 94
    slice_point: 95
    slice_point: 96
    slice_point: 97
    slice_point: 98
    slice_point: 99
    slice_point: 100
    slice_point: 101
    slice_point: 102
    slice_point: 103
    slice_point: 104
    slice_point: 105
    slice_point: 106
    slice_point: 107
    slice_point: 108
    slice_point: 109
    slice_point: 110
    slice_point: 111
    slice_point: 112
    slice_point: 113
    slice_point: 114
    slice_point: 115
    slice_point: 116
    slice_point: 117
    slice_point: 118
    slice_point: 119
    slice_point: 120
    slice_point: 121
    slice_point: 122
    slice_point: 123
    slice_point: 124
    slice_point: 125
    slice_point: 126
    slice_point: 127
    slice_point: 128
    slice_point: 129
    slice_point: 130
    slice_point: 131
    slice_point: 132
    slice_point: 133
    slice_point: 134
    slice_point: 135
    slice_point: 136
    slice_point: 137
    slice_point: 138
    slice_point: 139
    slice_point: 140
    slice_point: 141
    slice_point: 142
    slice_point: 143
    slice_point: 144
    slice_point: 145
    slice_point: 146
    slice_point: 147
    slice_point: 148
    slice_point: 149
    slice_point: 150
    slice_point: 151
    slice_point: 152
    slice_point: 153
    slice_point: 154
    slice_point: 155
    slice_point: 156
    slice_point: 157
    slice_point: 158
    slice_point: 159
    slice_point: 160
    slice_point: 161
    slice_point: 162
    slice_point: 163
    slice_point: 164
    slice_point: 165
    slice_point: 166
    slice_point: 167
    slice_point: 168
    slice_point: 169
    slice_point: 170
    slice_point: 171
    slice_point: 172
    slice_point: 173
    slice_point: 174
    slice_point: 175
    slice_point: 176
    slice_point: 177
    slice_point: 178
    slice_point: 179
    slice_point: 180
    slice_point: 181
    slice_point: 182
    slice_point: 183
    slice_point: 184
    slice_point: 185
    slice_point: 186
    slice_point: 187
    slice_point: 188
    slice_point: 189
    slice_point: 190
    slice_point: 191
    slice_point: 192
    slice_point: 193
    slice_point: 194
    slice_point: 195
    slice_point: 196
    slice_point: 197
    slice_point: 198
    slice_point: 199
    slice_point: 200
    slice_point: 201
    slice_point: 202
    slice_point: 203
    slice_point: 204
    slice_point: 205
    slice_point: 206
    slice_point: 207
    slice_point: 208
    slice_point: 209
    slice_point: 210
    slice_point: 211
    slice_point: 212
    slice_point: 213
    slice_point: 214
    slice_point: 215
    slice_point: 216
    slice_point: 217
    slice_point: 218
    slice_point: 219
    slice_point: 220
    slice_point: 221
    slice_point: 222
    slice_point: 223
    slice_point: 224
    slice_point: 225
    slice_point: 226
    slice_point: 227
    slice_point: 228
    slice_point: 229
    slice_point: 230
    slice_point: 231
    slice_point: 232
    slice_point: 233
    slice_point: 234
    slice_point: 235
    slice_point: 236
    slice_point: 237
    slice_point: 238
    slice_point: 239
    slice_point: 240
    slice_point: 241
    slice_point: 242
    slice_point: 243
    slice_point: 244
    slice_point: 245
    slice_point: 246
    slice_point: 247
    slice_point: 248
    slice_point: 249
    slice_point: 250
    slice_point: 251
    slice_point: 252
    slice_point: 253
    slice_point: 254
    slice_point: 255
    slice_point: 256
    slice_point: 257
    slice_point: 258
    slice_point: 259
    slice_point: 260
    slice_point: 261
    slice_point: 262
    slice_point: 263
    slice_point: 264
    slice_point: 265
    slice_point: 266
    slice_point: 267
    slice_point: 268
    slice_point: 269
    slice_point: 270
    slice_point: 271
    slice_point: 272
    slice_point: 273
    slice_point: 274
    slice_point: 275
    slice_point: 276
    slice_point: 277
    slice_point: 278
    slice_point: 279
    slice_point: 280
    slice_point: 281
    slice_point: 282
    slice_point: 283
    slice_point: 284
    slice_point: 285
    slice_point: 286
    slice_point: 287
    slice_point: 288
    slice_point: 289
    slice_point: 290
    slice_point: 291
    slice_point: 292
    slice_point: 293
    slice_point: 294
    slice_point: 295
    slice_point: 296
    slice_point: 297
    slice_point: 298
    slice_point: 299
    slice_point: 300
    slice_point: 301
    slice_point: 302
    slice_point: 303
    slice_point: 304
    slice_point: 305
    slice_point: 306
    slice_point: 307
    slice_point: 308
    slice_point: 309
    slice_point: 310
    slice_point: 311
    slice_point: 312
    slice_point: 313
    slice_point: 314
    slice_point: 315
    slice_point: 316
    slice_point: 317
    slice_point: 318
    slice_point: 319
    slice_point: 320
    slice_point: 321
    slice_point: 322
    slice_point: 323
    slice_point: 324
    slice_point: 325
    slice_point: 326
    slice_point: 327
    slice_point: 328
    slice_point: 329
    slice_point: 330
    slice_point: 331
    slice_point: 332
    slice_point: 333
    slice_point: 334
    slice_point: 335
    slice_point: 336
    slice_point: 337
    slice_point: 338
    slice_point: 339
    slice_point: 340
    slice_point: 341
    slice_point: 342
    slice_point: 343
    slice_point: 344
    slice_point: 345
    slice_point: 346
    slice_point: 347
    slice_point: 348
    slice_point: 349
    slice_point: 350
    slice_point: 351
    slice_point: 352
    slice_point: 353
    slice_point: 354
    slice_point: 355
    slice_point: 356
    slice_point: 357
    slice_point: 358
    slice_point: 359
    slice_point: 360
    slice_point: 361
    slice_point: 362
    slice_point: 363
    slice_point: 364
    slice_point: 365
    slice_point: 366
    slice_point: 367
    slice_point: 368
    slice_point: 369
    slice_point: 370
    slice_point: 371
    slice_point: 372
    slice_point: 373
    slice_point: 374
    slice_point: 375
    slice_point: 376
    slice_point: 377
    slice_point: 378
    slice_point: 379
    slice_point: 380
    slice_point: 381
    slice_point: 382
    slice_point: 383
    slice_point: 384
    slice_point: 385
    slice_point: 386
    slice_point: 387
    slice_point: 388
    slice_point: 389
    slice_point: 390
    slice_point: 391
    slice_point: 392
    slice_point: 393
    slice_point: 394
    slice_point: 395
    slice_point: 396
    slice_point: 397
    slice_point: 398
    slice_point: 399
    slice_point: 400
    slice_point: 401
    slice_point: 402
    slice_point: 403
    slice_point: 404
    slice_point: 405
    slice_point: 406
    slice_point: 407
    slice_point: 408
    slice_point: 409
    slice_point: 410
    slice_point: 411
    slice_point: 412
    slice_point: 413
    slice_point: 414
    slice_point: 415
    slice_point: 416
    slice_point: 417
    slice_point: 418
    slice_point: 419
    slice_point: 420
    slice_point: 421
    slice_point: 422
    slice_point: 423
    slice_point: 424
    slice_point: 425
    slice_point: 426
    slice_point: 427
    slice_point: 428
    slice_point: 429
    slice_point: 430
    slice_point: 431
    slice_point: 432
    slice_point: 433
    slice_point: 434
    slice_point: 435
    slice_point: 436
    slice_point: 437
    slice_point: 438
    slice_point: 439
    slice_point: 440
    slice_point: 441
    slice_point: 442
    slice_point: 443
    slice_point: 444
    slice_point: 445
    slice_point: 446
    slice_point: 447
    slice_point: 448
    slice_point: 449
    slice_point: 450
    slice_point: 451
    slice_point: 452
    slice_point: 453
    slice_point: 454
    slice_point: 455
    slice_point: 456
    slice_point: 457
    slice_point: 458
    slice_point: 459
    slice_point: 460
    slice_point: 461
    slice_point: 462
    slice_point: 463
    slice_point: 464
    slice_point: 465
    slice_point: 466
    slice_point: 467
    slice_point: 468
    slice_point: 469
    slice_point: 470
    slice_point: 471
    slice_point: 472
    slice_point: 473
    slice_point: 474
    slice_point: 475
    slice_point: 476
    slice_point: 477
    slice_point: 478
    slice_point: 479
    slice_point: 480
    slice_point: 481
    slice_point: 482
    slice_point: 483
    slice_point: 484
    slice_point: 485
    slice_point: 486
    slice_point: 487
    slice_point: 488
    slice_point: 489
    slice_point: 490
    slice_point: 491
    slice_point: 492
    slice_point: 493
    slice_point: 494
    slice_point: 495
    slice_point: 496
    slice_point: 497
    slice_point: 498
    slice_point: 499
    slice_point: 500
    slice_point: 501
    slice_point: 502
    slice_point: 503
    slice_point: 504
    slice_point: 505
    slice_point: 506
    slice_point: 507
    slice_point: 508
    slice_point: 509
    slice_point: 510
    slice_point: 511
    slice_point: 512
    slice_point: 513
    slice_point: 514
    slice_point: 515
    slice_point: 516
    slice_point: 517
    slice_point: 518
    slice_point: 519
    slice_point: 520
    slice_point: 521
    slice_point: 522
    slice_point: 523
    slice_point: 524
    slice_point: 525
    slice_point: 526
    slice_point: 527
    slice_point: 528
    slice_point: 529
    slice_point: 530
    slice_point: 531
    slice_point: 532
    slice_point: 533
    slice_point: 534
    slice_point: 535
    slice_point: 536
    slice_point: 537
    slice_point: 538
    slice_point: 539
    slice_point: 540
    slice_point: 541
    slice_point: 542
    slice_point: 543
    slice_point: 544
    slice_point: 545
    slice_point: 546
    slice_point: 547
    slice_point: 548
    slice_point: 549
    slice_point: 550
    slice_point: 551
    slice_point: 552
    slice_point: 553
    slice_point: 554
    slice_point: 555
    slice_point: 556
    slice_point: 557
    slice_point: 558
    slice_point: 559
    slice_point: 560
    slice_point: 561
    slice_point: 562
    slice_point: 563
    slice_point: 564
    slice_point: 565
    slice_point: 566
    slice_point: 567
    slice_point: 568
    slice_point: 569
    slice_point: 570
    slice_point: 571
    slice_point: 572
    slice_point: 573
    slice_point: 574
    slice_point: 575
    slice_point: 576
    slice_point: 577
    slice_point: 578
    slice_point: 579
    slice_point: 580
    slice_point: 581
    slice_point: 582
    slice_point: 583
    slice_point: 584
    slice_point: 585
    slice_point: 586
    slice_point: 587
    slice_point: 588
    slice_point: 589
    slice_point: 590
    slice_point: 591
    slice_point: 592
    slice_point: 593
    slice_point: 594
    slice_point: 595
    slice_point: 596
    slice_point: 597
    slice_point: 598
    slice_point: 599
    slice_point: 600
    slice_point: 601
    slice_point: 602
    slice_point: 603
    slice_point: 604
    slice_point: 605
    slice_point: 606
    slice_point: 607
    slice_point: 608
    slice_point: 609
    slice_point: 610
    slice_point: 611
    slice_point: 612
    slice_point: 613
    slice_point: 614
    slice_point: 615
    slice_point: 616
    slice_point: 617
    slice_point: 618
    slice_point: 619
    slice_point: 620
    slice_point: 621
    slice_point: 622
    slice_point: 623
    slice_point: 624
    slice_point: 625
    slice_point: 626
    slice_point: 627
    slice_point: 628
    slice_point: 629
    slice_point: 630
    slice_point: 631
    slice_point: 632
    slice_point: 633
    slice_point: 634
    slice_point: 635
    slice_point: 636
    slice_point: 637
    slice_point: 638
    slice_point: 639
    slice_point: 640
    slice_point: 641
    slice_point: 642
    slice_point: 643
    slice_point: 644
    slice_point: 645
    slice_point: 646
    slice_point: 647
    slice_point: 648
    slice_point: 649
    slice_point: 650
    slice_point: 651
    slice_point: 652
    slice_point: 653
    slice_point: 654
    slice_point: 655
    slice_point: 656
    slice_point: 657
    slice_point: 658
    slice_point: 659
    slice_point: 660
    slice_point: 661
    slice_point: 662
    slice_point: 663
    slice_point: 664
    slice_point: 665
    slice_point: 666
    slice_point: 667
    slice_point: 668
    slice_point: 669
    slice_point: 670
    slice_point: 671
    slice_point: 672
    slice_point: 673
    slice_point: 674
    slice_point: 675
    slice_point: 676
    slice_point: 677
    slice_point: 678
    slice_point: 679
    slice_point: 680
    slice_point: 681
    slice_point: 682
    slice_point: 683
    slice_point: 684
    slice_point: 685
    slice_point: 686
    slice_point: 687
    slice_point: 688
    slice_point: 689
    slice_point: 690
    slice_point: 691
    slice_point: 692
    slice_point: 693
    slice_point: 694
    slice_point: 695
    slice_point: 696
    slice_point: 697
    slice_point: 698
    slice_point: 699
    slice_point: 700
    slice_point: 701
    slice_point: 702
    slice_point: 703
    slice_point: 704
    slice_point: 705
    slice_point: 706
    slice_point: 707
    slice_point: 708
    slice_point: 709
    slice_point: 710
    slice_point: 711
    slice_point: 712
    slice_point: 713
    slice_point: 714
    slice_point: 715
    slice_point: 716
    slice_point: 717
    slice_point: 718
    slice_point: 719
    slice_point: 720
    slice_point: 721
    slice_point: 722
    slice_point: 723
    slice_point: 724
    slice_point: 725
    slice_point: 726
    slice_point: 727
    slice_point: 728
    slice_point: 729
    slice_point: 730
    slice_point: 731
    slice_point: 732
    slice_point: 733
    slice_point: 734
    slice_point: 735
    slice_point: 736
    slice_point: 737
    slice_point: 738
    slice_point: 739
    slice_point: 740
    slice_point: 741
    slice_point: 742
    slice_point: 743
    slice_point: 744
    slice_point: 745
    slice_point: 746
    slice_point: 747
    slice_point: 748
    slice_point: 749
    slice_point: 750
    slice_point: 751
    slice_point: 752
    slice_point: 753
    slice_point: 754
    slice_point: 755
    slice_point: 756
    slice_point: 757
    slice_point: 758
    slice_point: 759
    slice_point: 760
    slice_point: 761
    slice_point: 762
    slice_point: 763
    slice_point: 764
    slice_point: 765
    slice_point: 766
    slice_point: 767
    slice_point: 768
    slice_point: 769
    slice_point: 770
    slice_point: 771
    slice_point: 772
    slice_point: 773
    slice_point: 774
    slice_point: 775
    slice_point: 776
    slice_point: 777
    slice_point: 778
    slice_point: 779
    slice_point: 780
    slice_point: 781
    slice_point: 782
    slice_point: 783
    slice_point: 784
    slice_point: 785
    slice_point: 786
    slice_point: 787
    slice_point: 788
    slice_point: 789
    slice_point: 790
    slice_point: 791
    slice_point: 792
    slice_point: 793
    slice_point: 794
    slice_point: 795
    slice_point: 796
    slice_point: 797
    slice_point: 798
    slice_point: 799
    slice_point: 800
    slice_point: 801
    slice_point: 802
    slice_point: 803
    slice_point: 804
    slice_point: 805
    slice_point: 806
    slice_point: 807
    slice_point: 808
    slice_point: 809
    slice_point: 810
    slice_point: 811
    slice_point: 812
    slice_point: 813
    slice_point: 814
    slice_point: 815
    slice_point: 816
    slice_point: 817
    slice_point: 818
    slice_point: 819
    slice_point: 820
    slice_point: 821
    slice_point: 822
    slice_point: 823
    slice_point: 824
    slice_point: 825
    slice_point: 826
    slice_point: 827
    slice_point: 828
    slice_point: 829
    slice_point: 830
    slice_point: 831
    slice_point: 832
    slice_point: 833
    slice_point: 834
    slice_point: 835
    slice_point: 836
    slice_point: 837
    slice_point: 838
    slice_point: 839
    slice_point: 840
    slice_point: 841
    slice_point: 842
    slice_point: 843
    slice_point: 844
    slice_point: 845
    slice_point: 846
    slice_point: 847
    slice_point: 848
    slice_point: 849
    slice_point: 850
    slice_point: 851
    slice_point: 852
    slice_point: 853
    slice_point: 854
    slice_point: 855
    slice_point: 856
    slice_point: 857
    slice_point: 858
    slice_point: 859
    slice_point: 860
    slice_point: 861
    slice_point: 862
    slice_point: 863
    slice_point: 864
    slice_point: 865
    slice_point: 866
    slice_point: 867
    slice_point: 868
    slice_point: 869
    slice_point: 870
    slice_point: 871
    slice_point: 872
    slice_point: 873
    slice_point: 874
    slice_point: 875
    slice_point: 876
    slice_point: 877
    slice_point: 878
    slice_point: 879
    slice_point: 880
    slice_point: 881
    slice_point: 882
    slice_point: 883
    slice_point: 884
    slice_point: 885
    slice_point: 886
    slice_point: 887
    slice_point: 888
    slice_point: 889
    slice_point: 890
    slice_point: 891
    slice_point: 892
    slice_point: 893
    slice_point: 894
    slice_point: 895
    slice_point: 896
    slice_point: 897
    slice_point: 898
    slice_point: 899
    slice_point: 900
    slice_point: 901
    slice_point: 902
    slice_point: 903
    slice_point: 904
    slice_point: 905
    slice_point: 906
    slice_point: 907
    slice_point: 908
    slice_point: 909
    slice_point: 910
    slice_point: 911
    slice_point: 912
    slice_point: 913
    slice_point: 914
    slice_point: 915
    slice_point: 916
    slice_point: 917
    slice_point: 918
    slice_point: 919
    slice_point: 920
    slice_point: 921
    slice_point: 922
    slice_point: 923
    slice_point: 924
    slice_point: 925
    slice_point: 926
    slice_point: 927
    slice_point: 928
    slice_point: 929
    slice_point: 930
    slice_point: 931
    slice_point: 932
    slice_point: 933
    slice_point: 934
    slice_point: 935
    slice_point: 936
    slice_point: 937
    slice_point: 938
    slice_point: 939
    slice_point: 940
    slice_point: 941
    slice_point: 942
    slice_point: 943
    slice_point: 944
    slice_point: 945
    slice_point: 946
    slice_point: 947
    slice_point: 948
    slice_point: 949
    slice_point: 950
    slice_point: 951
    slice_point: 952
    slice_point: 953
    slice_point: 954
    slice_point: 955
    slice_point: 956
    slice_point: 957
    slice_point: 958
    slice_point: 959
    slice_point: 960
    slice_point: 961
    slice_point: 962
    slice_point: 963
    slice_point: 964
    slice_point: 965
    slice_point: 966
    slice_point: 967
    slice_point: 968
    slice_point: 969
    slice_point: 970
    slice_point: 971
    slice_point: 972
    slice_point: 973
    slice_point: 974
    slice_point: 975
    slice_point: 976
    slice_point: 977
    slice_point: 978
    slice_point: 979
    slice_point: 980
    slice_point: 981
    slice_point: 982
    slice_point: 983
    slice_point: 984
    slice_point: 985
    slice_point: 986
    slice_point: 987
    slice_point: 988
    slice_point: 989
    slice_point: 990
    slice_point: 991
    slice_point: 992
    slice_point: 993
    slice_point: 994
    slice_point: 995
    slice_point: 996
    slice_point: 997
    slice_point: 998
    slice_point: 999
    slice_point: 1000
    slice_point: 1001
    slice_point: 1002
    slice_point: 1003
    slice_point: 1004
    slice_point: 1005
    slice_point: 1006
    slice_point: 1007
    slice_point: 1008
    slice_point: 1009
    slice_point: 1010
    slice_point: 1011
    slice_point: 1012
    slice_point: 1013
    slice_point: 1014
    slice_point: 1015
    slice_point: 1016
    slice_point: 1017
    slice_point: 1018
    slice_point: 1019
    slice_point: 1020
    slice_point: 1021
    slice_point: 1022
    slice_point: 1023
    slice_point: 1024
    slice_point: 1025
    slice_point: 1026
    slice_point: 1027
    slice_point: 1028
    slice_point: 1029
    slice_point: 1030
    slice_point: 1031
    slice_point: 1032
    slice_point: 1033
    slice_point: 1034
    slice_point: 1035
    slice_point: 1036
    slice_point: 1037
    slice_point: 1038
    slice_point: 1039
    slice_point: 1040
    slice_point: 1041
    slice_point: 1042
    slice_point: 1043
    slice_point: 1044
    slice_point: 1045
    slice_point: 1046
    slice_point: 1047
    slice_point: 1048
    slice_point: 1049
    slice_point: 1050
    slice_point: 1051
    slice_point: 1052
    slice_point: 1053
    slice_point: 1054
    slice_point: 1055
    slice_point: 1056
    slice_point: 1057
    slice_point: 1058
    slice_point: 1059
    slice_point: 1060
    slice_point: 1061
    slice_point: 1062
    slice_point: 1063
    slice_point: 1064
    slice_point: 1065
    slice_point: 1066
    slice_point: 1067
    slice_point: 1068
    slice_point: 1069
    slice_point: 1070
    slice_point: 1071
    slice_point: 1072
    slice_point: 1073
    slice_point: 1074
    slice_point: 1075
    slice_point: 1076
    slice_point: 1077
    slice_point: 1078
    slice_point: 1079
    slice_point: 1080
    slice_point: 1081
    slice_point: 1082
    slice_point: 1083
    slice_point: 1084
    slice_point: 1085
    slice_point: 1086
    slice_point: 1087
    slice_point: 1088
    slice_point: 1089
    slice_point: 1090
    slice_point: 1091
    slice_point: 1092
    slice_point: 1093
    slice_point: 1094
    slice_point: 1095
    slice_point: 1096
    slice_point: 1097
    slice_point: 1098
    slice_point: 1099
    slice_point: 1100
    slice_point: 1101
    slice_point: 1102
    slice_point: 1103
    slice_point: 1104
    slice_point: 1105
    slice_point: 1106
    slice_point: 1107
    slice_point: 1108
    slice_point: 1109
    slice_point: 1110
    slice_point: 1111
    slice_point: 1112
    slice_point: 1113
    slice_point: 1114
    slice_point: 1115
    slice_point: 1116
    slice_point: 1117
    slice_point: 1118
    slice_point: 1119
    slice_point: 1120
    slice_point: 1121
    slice_point: 1122
    slice_point: 1123
    slice_point: 1124
    slice_point: 1125
    slice_point: 1126
    slice_point: 1127
    slice_point: 1128
    slice_point: 1129
    slice_point: 1130
    slice_point: 1131
    slice_point: 1132
    slice_point: 1133
    slice_point: 1134
    slice_point: 1135
    slice_point: 1136
    slice_point: 1137
    slice_point: 1138
    slice_point: 1139
    slice_point: 1140
    slice_point: 1141
    slice_point: 1142
    slice_point: 1143
    slice_point: 1144
    slice_point: 1145
    slice_point: 1146
    slice_point: 1147
    slice_point: 1148
    slice_point: 1149
    slice_point: 1150
    slice_point: 1151
    slice_point: 1152
    slice_point: 1153
    slice_point: 1154
    slice_point: 1155
    slice_point: 1156
    slice_point: 1157
    slice_point: 1158
    slice_point: 1159
    slice_point: 1160
    slice_point: 1161
    slice_point: 1162
    slice_point: 1163
    slice_point: 1164
    slice_point: 1165
    slice_point: 1166
    slice_point: 1167
    slice_point: 1168
    slice_point: 1169
    slice_point: 1170
    slice_point: 1171
    slice_point: 1172
    slice_point: 1173
    slice_point: 1174
    slice_point: 1175
    slice_point: 1176
    slice_point: 1177
    slice_point: 1178
    slice_point: 1179
    slice_point: 1180
    slice_point: 1181
    slice_point: 1182
    slice_point: 1183
    slice_point: 1184
    slice_point: 1185
    slice_point: 1186
    slice_point: 1187
    slice_point: 1188
    slice_point: 1189
    slice_point: 1190
    slice_point: 1191
    slice_point: 1192
    slice_point: 1193
    slice_point: 1194
    slice_point: 1195
    slice_point: 1196
    slice_point: 1197
    slice_point: 1198
    slice_point: 1199
    slice_point: 1200
    slice_point: 1201
    slice_point: 1202
    slice_point: 1203
    slice_point: 1204
    slice_point: 1205
    slice_point: 1206
    slice_point: 1207
    slice_point: 1208
    slice_point: 1209
    slice_point: 1210
    slice_point: 1211
    slice_point: 1212
    slice_point: 1213
    slice_point: 1214
    slice_point: 1215
    slice_point: 1216
    slice_point: 1217
    slice_point: 1218
    slice_point: 1219
    slice_point: 1220
    slice_point: 1221
    slice_point: 1222
    slice_point: 1223
    slice_point: 1224
    slice_point: 1225
    slice_point: 1226
    slice_point: 1227
    slice_point: 1228
    slice_point: 1229
    slice_point: 1230
    slice_point: 1231
    slice_point: 1232
    slice_point: 1233
    slice_point: 1234
    slice_point: 1235
    slice_point: 1236
    slice_point: 1237
    slice_point: 1238
    slice_point: 1239
    slice_point: 1240
    slice_point: 1241
    slice_point: 1242
    slice_point: 1243
    slice_point: 1244
    slice_point: 1245
    slice_point: 1246
    slice_point: 1247
    slice_point: 1248
    slice_point: 1249
    slice_point: 1250
    slice_point: 1251
    slice_point: 1252
    slice_point: 1253
    slice_point: 1254
    slice_point: 1255
    slice_point: 1256
    slice_point: 1257
    slice_point: 1258
    slice_point: 1259
    slice_point: 1260
    slice_point: 1261
    slice_point: 1262
    slice_point: 1263
    slice_point: 1264
    slice_point: 1265
    slice_point: 1266
    slice_point: 1267
    slice_point: 1268
    slice_point: 1269
    slice_point: 1270
    slice_point: 1271
    slice_point: 1272
    slice_point: 1273
    slice_point: 1274
    slice_point: 1275
    slice_point: 1276
    slice_point: 1277
    slice_point: 1278
    slice_point: 1279
    slice_point: 1280
    slice_point: 1281
    slice_point: 1282
    slice_point: 1283
    slice_point: 1284
    slice_point: 1285
    slice_point: 1286
    slice_point: 1287
    slice_point: 1288
    slice_point: 1289
    slice_point: 1290
    slice_point: 1291
    slice_point: 1292
    slice_point: 1293
    slice_point: 1294
    slice_point: 1295
    slice_point: 1296
    slice_point: 1297
    slice_point: 1298
    slice_point: 1299
    slice_point: 1300
    slice_point: 1301
    slice_point: 1302
    slice_point: 1303
    slice_point: 1304
    slice_point: 1305
    slice_point: 1306
    slice_point: 1307
    slice_point: 1308
    slice_point: 1309
    slice_point: 1310
    slice_point: 1311
    slice_point: 1312
    slice_point: 1313
    slice_point: 1314
    slice_point: 1315
    slice_point: 1316
    slice_point: 1317
    slice_point: 1318
    slice_point: 1319
    slice_point: 1320
    slice_point: 1321
    slice_point: 1322
    slice_point: 1323
    slice_point: 1324
    slice_point: 1325
    slice_point: 1326
    slice_point: 1327
    slice_point: 1328
    slice_point: 1329
    slice_point: 1330
    slice_point: 1331
    slice_point: 1332
    slice_point: 1333
    slice_point: 1334
    slice_point: 1335
    slice_point: 1336
    slice_point: 1337
    slice_point: 1338
    slice_point: 1339
    slice_point: 1340
    slice_point: 1341
    slice_point: 1342
    slice_point: 1343
    slice_point: 1344
    slice_point: 1345
    slice_point: 1346
    slice_point: 1347
    slice_point: 1348
    slice_point: 1349
    slice_point: 1350
    slice_point: 1351
    slice_point: 1352
    slice_point: 1353
    slice_point: 1354
    slice_point: 1355
    slice_point: 1356
    slice_point: 1357
    slice_point: 1358
    slice_point: 1359
    slice_point: 1360
    slice_point: 1361
    slice_point: 1362
    slice_point: 1363
    slice_point: 1364
    slice_point: 1365
    slice_point: 1366
    slice_point: 1367
    slice_point: 1368
    slice_point: 1369
    slice_point: 1370
    slice_point: 1371
    slice_point: 1372
    slice_point: 1373
    slice_point: 1374
    slice_point: 1375
    slice_point: 1376
    slice_point: 1377
    slice_point: 1378
    slice_point: 1379
    slice_point: 1380
    slice_point: 1381
    slice_point: 1382
    slice_point: 1383
    slice_point: 1384
    slice_point: 1385
    slice_point: 1386
    slice_point: 1387
    slice_point: 1388
    slice_point: 1389
    slice_point: 1390
    slice_point: 1391
    slice_point: 1392
    slice_point: 1393
    slice_point: 1394
    slice_point: 1395
    slice_point: 1396
    slice_point: 1397
    slice_point: 1398
    slice_point: 1399
    slice_point: 1400
    slice_point: 1401
    slice_point: 1402
    slice_point: 1403
    slice_point: 1404
    slice_point: 1405
    slice_point: 1406
    slice_point: 1407
    slice_point: 1408
    slice_point: 1409
    slice_point: 1410
    slice_point: 1411
    slice_point: 1412
    slice_point: 1413
    slice_point: 1414
    slice_point: 1415
    slice_point: 1416
    slice_point: 1417
    slice_point: 1418
    slice_point: 1419
    slice_point: 1420
    slice_point: 1421
    slice_point: 1422
    slice_point: 1423
    slice_point: 1424
    slice_point: 1425
    slice_point: 1426
    slice_point: 1427
    slice_point: 1428
    slice_point: 1429
    slice_point: 1430
    slice_point: 1431
    slice_point: 1432
    slice_point: 1433
    slice_point: 1434
    slice_point: 1435
    slice_point: 1436
    slice_point: 1437
    slice_point: 1438
    slice_point: 1439
    slice_point: 1440
    slice_point: 1441
    slice_point: 1442
    slice_point: 1443
    slice_point: 1444
    slice_point: 1445
    slice_point: 1446
    slice_point: 1447
    slice_point: 1448
    slice_point: 1449
    slice_point: 1450
    slice_point: 1451
    slice_point: 1452
    slice_point: 1453
    slice_point: 1454
    slice_point: 1455
    slice_point: 1456
    slice_point: 1457
    slice_point: 1458
    slice_point: 1459
    slice_point: 1460
    slice_point: 1461
    slice_point: 1462
    slice_point: 1463
    slice_point: 1464
    slice_point: 1465
    slice_point: 1466
    slice_point: 1467
    slice_point: 1468
    slice_point: 1469
    slice_point: 1470
    slice_point: 1471
    slice_point: 1472
    slice_point: 1473
    slice_point: 1474
    slice_point: 1475
    slice_point: 1476
    slice_point: 1477
    slice_point: 1478
    slice_point: 1479
    slice_point: 1480
    slice_point: 1481
    slice_point: 1482
    slice_point: 1483
    slice_point: 1484
    slice_point: 1485
    slice_point: 1486
    slice_point: 1487
    slice_point: 1488
    slice_point: 1489
    slice_point: 1490
    slice_point: 1491
    slice_point: 1492
    slice_point: 1493
    slice_point: 1494
    slice_point: 1495
    slice_point: 1496
    slice_point: 1497
    slice_point: 1498
    slice_point: 1499
    slice_point: 1500
    slice_point: 1501
    slice_point: 1502
    slice_point: 1503
    slice_point: 1504
    slice_point: 1505
    slice_point: 1506
    slice_point: 1507
    slice_point: 1508
    slice_point: 1509
    slice_point: 1510
    slice_point: 1511
    slice_point: 1512
    slice_point: 1513
    slice_point: 1514
    slice_point: 1515
    slice_point: 1516
    slice_point: 1517
    slice_point: 1518
    slice_point: 1519
    slice_point: 1520
    slice_point: 1521
    slice_point: 1522
    slice_point: 1523
    slice_point: 1524
    slice_point: 1525
    slice_point: 1526
    slice_point: 1527
    slice_point: 1528
    slice_point: 1529
    slice_point: 1530
    slice_point: 1531
    slice_point: 1532
    slice_point: 1533
    slice_point: 1534
    slice_point: 1535
    slice_point: 1536
    slice_point: 1537
    slice_point: 1538
    slice_point: 1539
    slice_point: 1540
    slice_point: 1541
    slice_point: 1542
    slice_point: 1543
    slice_point: 1544
    slice_point: 1545
    slice_point: 1546
    slice_point: 1547
    slice_point: 1548
    slice_point: 1549
    slice_point: 1550
    slice_point: 1551
    slice_point: 1552
    slice_point: 1553
    slice_point: 1554
    slice_point: 1555
    slice_point: 1556
    slice_point: 1557
    slice_point: 1558
    slice_point: 1559
    slice_point: 1560
    slice_point: 1561
    slice_point: 1562
    slice_point: 1563
    slice_point: 1564
    slice_point: 1565
    slice_point: 1566
    slice_point: 1567
    slice_point: 1568
    slice_point: 1569
    slice_point: 1570
    slice_point: 1571
    slice_point: 1572
    slice_point: 1573
    slice_point: 1574
    slice_point: 1575
    slice_point: 1576
    slice_point: 1577
    slice_point: 1578
    slice_point: 1579
    slice_point: 1580
    slice_point: 1581
    slice_point: 1582
    slice_point: 1583
    slice_point: 1584
    slice_point: 1585
    slice_point: 1586
    slice_point: 1587
    slice_point: 1588
    slice_point: 1589
    slice_point: 1590
    slice_point: 1591
    slice_point: 1592
    slice_point: 1593
    slice_point: 1594
    slice_point: 1595
    slice_point: 1596
    slice_point: 1597
    slice_point: 1598
    slice_point: 1599
    slice_point: 1600
    slice_point: 1601
    slice_point: 1602
    slice_point: 1603
    slice_point: 1604
    slice_point: 1605
    slice_point: 1606
    slice_point: 1607
    slice_point: 1608
    slice_point: 1609
    slice_point: 1610
    slice_point: 1611
    slice_point: 1612
    slice_point: 1613
    slice_point: 1614
    slice_point: 1615
    slice_point: 1616
    slice_point: 1617
    slice_point: 1618
    slice_point: 1619
    slice_point: 1620
    slice_point: 1621
    slice_point: 1622
    slice_point: 1623
    slice_point: 1624
    slice_point: 1625
    slice_point: 1626
    slice_point: 1627
    slice_point: 1628
    slice_point: 1629
    slice_point: 1630
    slice_point: 1631
    slice_point: 1632
    slice_point: 1633
    slice_point: 1634
    slice_point: 1635
    slice_point: 1636
    slice_point: 1637
    slice_point: 1638
    slice_point: 1639
    slice_point: 1640
    slice_point: 1641
    slice_point: 1642
    slice_point: 1643
    slice_point: 1644
    slice_point: 1645
    slice_point: 1646
    slice_point: 1647
    slice_point: 1648
    slice_point: 1649
    slice_point: 1650
    slice_point: 1651
    slice_point: 1652
    slice_point: 1653
    slice_point: 1654
    slice_point: 1655
    slice_point: 1656
    slice_point: 1657
    slice_point: 1658
    slice_point: 1659
    slice_point: 1660
    slice_point: 1661
    slice_point: 1662
    slice_point: 1663
    slice_point: 1664
    slice_point: 1665
    slice_point: 1666
    slice_point: 1667
    slice_point: 1668
    slice_point: 1669
    slice_point: 1670
    slice_point: 1671
    slice_point: 1672
    slice_point: 1673
    slice_point: 1674
    slice_point: 1675
    slice_point: 1676
    slice_point: 1677
    slice_point: 1678
    slice_point: 1679
    slice_point: 1680
    slice_point: 1681
    slice_point: 1682
    slice_point: 1683
    slice_point: 1684
    slice_point: 1685
    slice_point: 1686
    slice_point: 1687
    slice_point: 1688
    slice_point: 1689
    slice_point: 1690
    slice_point: 1691
    slice_point: 1692
    slice_point: 1693
    slice_point: 1694
    slice_point: 1695
    slice_point: 1696
    slice_point: 1697
    slice_point: 1698
    slice_point: 1699
    slice_point: 1700
    slice_point: 1701
    slice_point: 1702
    slice_point: 1703
    slice_point: 1704
    slice_point: 1705
    slice_point: 1706
    slice_point: 1707
    slice_point: 1708
    slice_point: 1709
    slice_point: 1710
    slice_point: 1711
    slice_point: 1712
    slice_point: 1713
    slice_point: 1714
    slice_point: 1715
    slice_point: 1716
    slice_point: 1717
    slice_point: 1718
    slice_point: 1719
    slice_point: 1720
    slice_point: 1721
    slice_point: 1722
    slice_point: 1723
    slice_point: 1724
    slice_point: 1725
    slice_point: 1726
    slice_point: 1727
    slice_point: 1728
    slice_point: 1729
    slice_point: 1730
    slice_point: 1731
    slice_point: 1732
    slice_point: 1733
    slice_point: 1734
    slice_point: 1735
    slice_point: 1736
    slice_point: 1737
    slice_point: 1738
    slice_point: 1739
    slice_point: 1740
    slice_point: 1741
    slice_point: 1742
    slice_point: 1743
    slice_point: 1744
    slice_point: 1745
    slice_point: 1746
    slice_point: 1747
    slice_point: 1748
    slice_point: 1749
    slice_point: 1750
    slice_point: 1751
    slice_point: 1752
    slice_point: 1753
    slice_point: 1754
    slice_point: 1755
    slice_point: 1756
    slice_point: 1757
    slice_point: 1758
    slice_point: 1759
    slice_point: 1760
    slice_point: 1761
    slice_point: 1762
    slice_point: 1763
    slice_point: 1764
    slice_point: 1765
    slice_point: 1766
    slice_point: 1767
    slice_point: 1768
    slice_point: 1769
    slice_point: 1770
    slice_point: 1771
    slice_point: 1772
    slice_point: 1773
    slice_point: 1774
    slice_point: 1775
    slice_point: 1776
    slice_point: 1777
    slice_point: 1778
    slice_point: 1779
    slice_point: 1780
    slice_point: 1781
    slice_point: 1782
    slice_point: 1783
    slice_point: 1784
    slice_point: 1785
    slice_point: 1786
    slice_point: 1787
    slice_point: 1788
    slice_point: 1789
    slice_point: 1790
    slice_point: 1791
    slice_point: 1792
    slice_point: 1793
    slice_point: 1794
    slice_point: 1795
    slice_point: 1796
    slice_point: 1797
    slice_point: 1798
    slice_point: 1799
    slice_point: 1800
    slice_point: 1801
    slice_point: 1802
    slice_point: 1803
    slice_point: 1804
    slice_point: 1805
    slice_point: 1806
    slice_point: 1807
    slice_point: 1808
    slice_point: 1809
    slice_point: 1810
    slice_point: 1811
    slice_point: 1812
    slice_point: 1813
    slice_point: 1814
    slice_point: 1815
    slice_point: 1816
    slice_point: 1817
    slice_point: 1818
    slice_point: 1819
    slice_point: 1820
    slice_point: 1821
    slice_point: 1822
    slice_point: 1823
    slice_point: 1824
    slice_point: 1825
    slice_point: 1826
    slice_point: 1827
    slice_point: 1828
    slice_point: 1829
    slice_point: 1830
    slice_point: 1831
    slice_point: 1832
    slice_point: 1833
    slice_point: 1834
    slice_point: 1835
    slice_point: 1836
    slice_point: 1837
    slice_point: 1838
    slice_point: 1839
    slice_point: 1840
    slice_point: 1841
    slice_point: 1842
    slice_point: 1843
    slice_point: 1844
    slice_point: 1845
    slice_point: 1846
    slice_point: 1847
    slice_point: 1848
    slice_point: 1849
    slice_point: 1850
    slice_point: 1851
    slice_point: 1852
    slice_point: 1853
    slice_point: 1854
    slice_point: 1855
    slice_point: 1856
    slice_point: 1857
    slice_point: 1858
    slice_point: 1859
    slice_point: 1860
    slice_point: 1861
    slice_point: 1862
    slice_point: 1863
    slice_point: 1864
    slice_point: 1865
    slice_point: 1866
    slice_point: 1867
    slice_point: 1868
    slice_point: 1869
    slice_point: 1870
    slice_point: 1871
    slice_point: 1872
    slice_point: 1873
    slice_point: 1874
    slice_point: 1875
    slice_point: 1876
    slice_point: 1877
    slice_point: 1878
    slice_point: 1879
    slice_point: 1880
    slice_point: 1881
    slice_point: 1882
    slice_point: 1883
    slice_point: 1884
    slice_point: 1885
    slice_point: 1886
    slice_point: 1887
    slice_point: 1888
    slice_point: 1889
    slice_point: 1890
    slice_point: 1891
    slice_point: 1892
    slice_point: 1893
    slice_point: 1894
    slice_point: 1895
    slice_point: 1896
    slice_point: 1897
    slice_point: 1898
    slice_point: 1899
    slice_point: 1900
    slice_point: 1901
    slice_point: 1902
    slice_point: 1903
    slice_point: 1904
    slice_point: 1905
    slice_point: 1906
    slice_point: 1907
    slice_point: 1908
    slice_point: 1909
    slice_point: 1910
    slice_point: 1911
    slice_point: 1912
    slice_point: 1913
    slice_point: 1914
    slice_point: 1915
    slice_point: 1916
    slice_point: 1917
    slice_point: 1918
    slice_point: 1919
    slice_point: 1920
    slice_point: 1921
    slice_point: 1922
    slice_point: 1923
    slice_point: 1924
    slice_point: 1925
    slice_point: 1926
    slice_point: 1927
    slice_point: 1928
    slice_point: 1929
    slice_point: 1930
    slice_point: 1931
    slice_point: 1932
    slice_point: 1933
    slice_point: 1934
    slice_point: 1935
    slice_point: 1936
    slice_point: 1937
    slice_point: 1938
    slice_point: 1939
    slice_point: 1940
    slice_point: 1941
    slice_point: 1942
    slice_point: 1943
    slice_point: 1944
    slice_point: 1945
    slice_point: 1946
    slice_point: 1947
    slice_point: 1948
    slice_point: 1949
    slice_point: 1950
    slice_point: 1951
    slice_point: 1952
    slice_point: 1953
    slice_point: 1954
    slice_point: 1955
    slice_point: 1956
    slice_point: 1957
    slice_point: 1958
    slice_point: 1959
    slice_point: 1960
    slice_point: 1961
    slice_point: 1962
    slice_point: 1963
    slice_point: 1964
    slice_point: 1965
    slice_point: 1966
    slice_point: 1967
    slice_point: 1968
    slice_point: 1969
    slice_point: 1970
    slice_point: 1971
    slice_point: 1972
    slice_point: 1973
    slice_point: 1974
    slice_point: 1975
    slice_point: 1976
    slice_point: 1977
    slice_point: 1978
    slice_point: 1979
    slice_point: 1980
    slice_point: 1981
    slice_point: 1982
    slice_point: 1983
    slice_point: 1984
    slice_point: 1985
    slice_point: 1986
    slice_point: 1987
    slice_point: 1988
    slice_point: 1989
    slice_point: 1990
    slice_point: 1991
    slice_point: 1992
    slice_point: 1993
    slice_point: 1994
    slice_point: 1995
    slice_point: 1996
    slice_point: 1997
    slice_point: 1998
    slice_point: 1999
    slice_point: 2000
    slice_point: 2001
    slice_point: 2002
    slice_point: 2003
    slice_point: 2004
    slice_point: 2005
    slice_point: 2006
    slice_point: 2007
    slice_point: 2008
    slice_point: 2009
    slice_point: 2010
    slice_point: 2011
    slice_point: 2012
    slice_point: 2013
    slice_point: 2014
    slice_point: 2015
    slice_point: 2016
    slice_point: 2017
    slice_point: 2018
    slice_point: 2019
    slice_point: 2020
    slice_point: 2021
    slice_point: 2022
    slice_point: 2023
    slice_point: 2024
    slice_point: 2025
    slice_point: 2026
    slice_point: 2027
    slice_point: 2028
    slice_point: 2029
    slice_point: 2030
    slice_point: 2031
    slice_point: 2032
    slice_point: 2033
    slice_point: 2034
    slice_point: 2035
    slice_point: 2036
    slice_point: 2037
    slice_point: 2038
    slice_point: 2039
    slice_point: 2040
    slice_point: 2041
    slice_point: 2042
    slice_point: 2043
    slice_point: 2044
    slice_point: 2045
    slice_point: 2046
    slice_point: 2047
    slice_point: 2048
    slice_point: 2049
    slice_point: 2050
    slice_point: 2051
    slice_point: 2052
    slice_point: 2053
    slice_point: 2054
    slice_point: 2055
    slice_point: 2056
    slice_point: 2057
    slice_point: 2058
    slice_point: 2059
    slice_point: 2060
    slice_point: 2061
    slice_point: 2062
    slice_point: 2063
    slice_point: 2064
    slice_point: 2065
    slice_point: 2066
    slice_point: 2067
    slice_point: 2068
    slice_point: 2069
    slice_point: 2070
    slice_point: 2071
    slice_point: 2072
    slice_point: 2073
    slice_point: 2074
    slice_point: 2075
    slice_point: 2076
    slice_point: 2077
    slice_point: 2078
    slice_point: 2079
    slice_point: 2080
    slice_point: 2081
    slice_point: 2082
    slice_point: 2083
    slice_point: 2084
    slice_point: 2085
    slice_point: 2086
    slice_point: 2087
    slice_point: 2088
    slice_point: 2089
    slice_point: 2090
    slice_point: 2091
    slice_point: 2092
    slice_point: 2093
    slice_point: 2094
    slice_point: 2095
    slice_point: 2096
    slice_point: 2097
    slice_point: 2098
    slice_point: 2099
    slice_point: 2100
    slice_point: 2101
    slice_point: 2102
    slice_point: 2103
    slice_point: 2104
    slice_point: 2105
    slice_point: 2106
    slice_point: 2107
    slice_point: 2108
    slice_point: 2109
    slice_point: 2110
    slice_point: 2111
    slice_point: 2112
    slice_point: 2113
    slice_point: 2114
    slice_point: 2115
    slice_point: 2116
    slice_point: 2117
    slice_point: 2118
    slice_point: 2119
    slice_point: 2120
    slice_point: 2121
    slice_point: 2122
    slice_point: 2123
    slice_point: 2124
    slice_point: 2125
    slice_point: 2126
    slice_point: 2127
    slice_point: 2128
    slice_point: 2129
    slice_point: 2130
    slice_point: 2131
    slice_point: 2132
    slice_point: 2133
    slice_point: 2134
    slice_point: 2135
    slice_point: 2136
    slice_point: 2137
    slice_point: 2138
    slice_point: 2139
    slice_point: 2140
    slice_point: 2141
    slice_point: 2142
    slice_point: 2143
    slice_point: 2144
    slice_point: 2145
    slice_point: 2146
    slice_point: 2147
    slice_point: 2148
    slice_point: 2149
    slice_point: 2150
    slice_point: 2151
    slice_point: 2152
    slice_point: 2153
    slice_point: 2154
    slice_point: 2155
    slice_point: 2156
    slice_point: 2157
    slice_point: 2158
    slice_point: 2159
    slice_point: 2160
    slice_point: 2161
    slice_point: 2162
    slice_point: 2163
    slice_point: 2164
    slice_point: 2165
    slice_point: 2166
    slice_point: 2167
    slice_point: 2168
    slice_point: 2169
    slice_point: 2170
    slice_point: 2171
    slice_point: 2172
    slice_point: 2173
    slice_point: 2174
    slice_point: 2175
    slice_point: 2176
    slice_point: 2177
    slice_point: 2178
    slice_point: 2179
    slice_point: 2180
    slice_point: 2181
    slice_point: 2182
    slice_point: 2183
    slice_point: 2184
    slice_point: 2185
    slice_point: 2186
    slice_point: 2187
    slice_point: 2188
    slice_point: 2189
    slice_point: 2190
    slice_point: 2191
    slice_point: 2192
    slice_point: 2193
    slice_point: 2194
    slice_point: 2195
    slice_point: 2196
    slice_point: 2197
    slice_point: 2198
    slice_point: 2199
    slice_point: 2200
    slice_point: 2201
    slice_point: 2202
    slice_point: 2203
    slice_point: 2204
    slice_point: 2205
    slice_point: 2206
    slice_point: 2207
    slice_point: 2208
    slice_point: 2209
    slice_point: 2210
    slice_point: 2211
    slice_point: 2212
    slice_point: 2213
    slice_point: 2214
    slice_point: 2215
    slice_point: 2216
    slice_point: 2217
    slice_point: 2218
    slice_point: 2219
    slice_point: 2220
    slice_point: 2221
    slice_point: 2222
    slice_point: 2223
    slice_point: 2224
    slice_point: 2225
    slice_point: 2226
    slice_point: 2227
    slice_point: 2228
    slice_point: 2229
    slice_point: 2230
    slice_point: 2231
    slice_point: 2232
    slice_point: 2233
    slice_point: 2234
    slice_point: 2235
    slice_point: 2236
    slice_point: 2237
    slice_point: 2238
    slice_point: 2239
    slice_point: 2240
    slice_point: 2241
    slice_point: 2242
    slice_point: 2243
    slice_point: 2244
    slice_point: 2245
    slice_point: 2246
…
 bottom: "lstmR3884"
 bottom: "lstmR3885"
 bottom: "lstmR3886"
 bottom: "lstmR3887"
 bottom: "lstmR3888"
 bottom: "lstmR3889"
 bottom: "lstmR3890"
 bottom: "lstmR3891"
 bottom: "lstmR3892"
 bottom: "lstmR3893"
top: "outW58"
  concat_param {    axis: 2  }
}
layer {
  #Concat over width
  name: "concat59"  type: "Concat"
 bottom: "lstmR3894"
 bottom: "lstmR3895"
 bottom: "lstmR3896"
 bottom: "lstmR3897"
 bottom: "lstmR3898"
 bottom: "lstmR3899"
 bottom: "lstmR3900"
 bottom: "lstmR3901"
 bottom: "lstmR3902"
 bottom: "lstmR3903"
 bottom: "lstmR3904"
 bottom: "lstmR3905"
 bottom: "lstmR3906"
 bottom: "lstmR3907"
 bottom: "lstmR3908"
 bottom: "lstmR3909"
 bottom: "lstmR3910"
 bottom: "lstmR3911"
 bottom: "lstmR3912"
 bottom: "lstmR3913"
 bottom: "lstmR3914"
 bottom: "lstmR3915"
 bottom: "lstmR3916"
 bottom: "lstmR3917"
 bottom: "lstmR3918"
 bottom: "lstmR3919"
 bottom: "lstmR3920"
 bottom: "lstmR3921"
 bottom: "lstmR3922"
 bottom: "lstmR3923"
 bottom: "lstmR3924"
 bottom: "lstmR3925"
 bottom: "lstmR3926"
 bottom: "lstmR3927"
 bottom: "lstmR3928"
 bottom: "lstmR3929"
 bottom: "lstmR3930"
 bottom: "lstmR3931"
 bottom: "lstmR3932"
 bottom: "lstmR3933"
 bottom: "lstmR3934"
 bottom: "lstmR3935"
 bottom: "lstmR3936"
 bottom: "lstmR3937"
 bottom: "lstmR3938"
 bottom: "lstmR3939"
 bottom: "lstmR3940"
 bottom: "lstmR3941"
 bottom: "lstmR3942"
 bottom: "lstmR3943"
 bottom: "lstmR3944"
 bottom: "lstmR3945"
 bottom: "lstmR3946"
 bottom: "lstmR3947"
 bottom: "lstmR3948"
 bottom: "lstmR3949"
 bottom: "lstmR3950"
 bottom: "lstmR3951"
 bottom: "lstmR3952"
 bottom: "lstmR3953"
 bottom: "lstmR3954"
 bottom: "lstmR3955"
 bottom: "lstmR3956"
 bottom: "lstmR3957"
 bottom: "lstmR3958"
 bottom: "lstmR3959"
top: "outW59"
  concat_param {    axis: 2  }
}
layer {
  #Concat over width
  name: "concat60"  type: "Concat"
 bottom: "lstmR3960"
 bottom: "lstmR3961"
 bottom: "lstmR3962"
 bottom: "lstmR3963"
 bottom: "lstmR3964"
 bottom: "lstmR3965"
 bottom: "lstmR3966"
 bottom: "lstmR3967"
 bottom: "lstmR3968"
 bottom: "lstmR3969"
 bottom: "lstmR3970"
 bottom: "lstmR3971"
 bottom: "lstmR3972"
 bottom: "lstmR3973"
 bottom: "lstmR3974"
 bottom: "lstmR3975"
 bottom: "lstmR3976"
 bottom: "lstmR3977"
 bottom: "lstmR3978"
 bottom: "lstmR3979"
 bottom: "lstmR3980"
 bottom: "lstmR3981"
 bottom: "lstmR3982"
 bottom: "lstmR3983"
 bottom: "lstmR3984"
 bottom: "lstmR3985"
 bottom: "lstmR3986"
 bottom: "lstmR3987"
 bottom: "lstmR3988"
 bottom: "lstmR3989"
 bottom: "lstmR3990"
 bottom: "lstmR3991"
 bottom: "lstmR3992"
 bottom: "lstmR3993"
 bottom: "lstmR3994"
 bottom: "lstmR3995"
 bottom: "lstmR3996"
 bottom: "lstmR3997"
 bottom: "lstmR3998"
 bottom: "lstmR3999"
 bottom: "lstmR4000"
 bottom: "lstmR4001"
 bottom: "lstmR4002"
 bottom: "lstmR4003"
 bottom: "lstmR4004"
 bottom: "lstmR4005"
 bottom: "lstmR4006"
 bottom: "lstmR4007"
 bottom: "lstmR4008"
 bottom: "lstmR4009"
 bottom: "lstmR4010"
 bottom: "lstmR4011"
 bottom: "lstmR4012"
 bottom: "lstmR4013"
 bottom: "lstmR4014"
 bottom: "lstmR4015"
 bottom: "lstmR4016"
 bottom: "lstmR4017"
 bottom: "lstmR4018"
 bottom: "lstmR4019"
 bottom: "lstmR4020"
 bottom: "lstmR4021"
 bottom: "lstmR4022"
 bottom: "lstmR4023"
 bottom: "lstmR4024"
 bottom: "lstmR4025"
top: "outW60"
  concat_param {    axis: 2  }
}
layer {
  #Concat over width
  name: "concat61"  type: "Concat"
 bottom: "lstmR4026"
 bottom: "lstmR4027"
 bottom: "lstmR4028"
 bottom: "lstmR4029"
 bottom: "lstmR4030"
 bottom: "lstmR4031"
 bottom: "lstmR4032"
 bottom: "lstmR4033"
 bottom: "lstmR4034"
 bottom: "lstmR4035"
 bottom: "lstmR4036"
 bottom: "lstmR4037"
 bottom: "lstmR4038"
 bottom: "lstmR4039"
 bottom: "lstmR4040"
 bottom: "lstmR4041"
 bottom: "lstmR4042"
 bottom: "lstmR4043"
 bottom: "lstmR4044"
 bottom: "lstmR4045"
 bottom: "lstmR4046"
 bottom: "lstmR4047"
 bottom: "lstmR4048"
 bottom: "lstmR4049"
 bottom: "lstmR4050"
 bottom: "lstmR4051"
 bottom: "lstmR4052"
 bottom: "lstmR4053"
 bottom: "lstmR4054"
 bottom: "lstmR4055"
 bottom: "lstmR4056"
 bottom: "lstmR4057"
 bottom: "lstmR4058"
 bottom: "lstmR4059"
 bottom: "lstmR4060"
 bottom: "lstmR4061"
 bottom: "lstmR4062"
 bottom: "lstmR4063"
 bottom: "lstmR4064"
 bottom: "lstmR4065"
 bottom: "lstmR4066"
 bottom: "lstmR4067"
 bottom: "lstmR4068"
 bottom: "lstmR4069"
 bottom: "lstmR4070"
 bottom: "lstmR4071"
 bottom: "lstmR4072"
 bottom: "lstmR4073"
 bottom: "lstmR4074"
 bottom: "lstmR4075"
 bottom: "lstmR4076"
 bottom: "lstmR4077"
 bottom: "lstmR4078"
 bottom: "lstmR4079"
 bottom: "lstmR4080"
 bottom: "lstmR4081"
 bottom: "lstmR4082"
 bottom: "lstmR4083"
 bottom: "lstmR4084"
 bottom: "lstmR4085"
 bottom: "lstmR4086"
 bottom: "lstmR4087"
 bottom: "lstmR4088"
 bottom: "lstmR4089"
 bottom: "lstmR4090"
 bottom: "lstmR4091"
top: "outW61"
  concat_param {    axis: 2  }
}
layer {
  #Concat over width
  name: "concat62"  type: "Concat"
 bottom: "lstmR4092"
 bottom: "lstmR4093"
 bottom: "lstmR4094"
 bottom: "lstmR4095"
 bottom: "lstmR4096"
 bottom: "lstmR4097"
 bottom: "lstmR4098"
 bottom: "lstmR4099"
 bottom: "lstmR4100"
 bottom: "lstmR4101"
 bottom: "lstmR4102"
 bottom: "lstmR4103"
 bottom: "lstmR4104"
 bottom: "lstmR4105"
 bottom: "lstmR4106"
 bottom: "lstmR4107"
 bottom: "lstmR4108"
 bottom: "lstmR4109"
 bottom: "lstmR4110"
 bottom: "lstmR4111"
 bottom: "lstmR4112"
 bottom: "lstmR4113"
 bottom: "lstmR4114"
 bottom: "lstmR4115"
 bottom: "lstmR4116"
 bottom: "lstmR4117"
 bottom: "lstmR4118"
 bottom: "lstmR4119"
 bottom: "lstmR4120"
 bottom: "lstmR4121"
 bottom: "lstmR4122"
 bottom: "lstmR4123"
 bottom: "lstmR4124"
 bottom: "lstmR4125"
 bottom: "lstmR4126"
 bottom: "lstmR4127"
 bottom: "lstmR4128"
 bottom: "lstmR4129"
 bottom: "lstmR4130"
 bottom: "lstmR4131"
 bottom: "lstmR4132"
 bottom: "lstmR4133"
 bottom: "lstmR4134"
 bottom: "lstmR4135"
 bottom: "lstmR4136"
 bottom: "lstmR4137"
 bottom: "lstmR4138"
 bottom: "lstmR4139"
 bottom: "lstmR4140"
 bottom: "lstmR4141"
 bottom: "lstmR4142"
 bottom: "lstmR4143"
 bottom: "lstmR4144"
 bottom: "lstmR4145"
 bottom: "lstmR4146"
 bottom: "lstmR4147"
 bottom: "lstmR4148"
 bottom: "lstmR4149"
 bottom: "lstmR4150"
 bottom: "lstmR4151"
 bottom: "lstmR4152"
 bottom: "lstmR4153"
 bottom: "lstmR4154"
 bottom: "lstmR4155"
 bottom: "lstmR4156"
 bottom: "lstmR4157"
top: "outW62"
  concat_param {    axis: 2  }
}
layer {
  #Concat over width
  name: "concat63"  type: "Concat"
 bottom: "lstmR4158"
 bottom: "lstmR4159"
 bottom: "lstmR4160"
 bottom: "lstmR4161"
 bottom: "lstmR4162"
 bottom: "lstmR4163"
 bottom: "lstmR4164"
 bottom: "lstmR4165"
 bottom: "lstmR4166"
 bottom: "lstmR4167"
 bottom: "lstmR4168"
 bottom: "lstmR4169"
 bottom: "lstmR4170"
 bottom: "lstmR4171"
 bottom: "lstmR4172"
 bottom: "lstmR4173"
 bottom: "lstmR4174"
 bottom: "lstmR4175"
 bottom: "lstmR4176"
 bottom: "lstmR4177"
 bottom: "lstmR4178"
 bottom: "lstmR4179"
 bottom: "lstmR4180"
 bottom: "lstmR4181"
 bottom: "lstmR4182"
 bottom: "lstmR4183"
 bottom: "lstmR4184"
 bottom: "lstmR4185"
 bottom: "lstmR4186"
 bottom: "lstmR4187"
 bottom: "lstmR4188"
 bottom: "lstmR4189"
 bottom: "lstmR4190"
 bottom: "lstmR4191"
 bottom: "lstmR4192"
 bottom: "lstmR4193"
 bottom: "lstmR4194"
 bottom: "lstmR4195"
 bottom: "lstmR4196"
 bottom: "lstmR4197"
 bottom: "lstmR4198"
 bottom: "lstmR4199"
 bottom: "lstmR4200"
 bottom: "lstmR4201"
 bottom: "lstmR4202"
 bottom: "lstmR4203"
 bottom: "lstmR4204"
 bottom: "lstmR4205"
 bottom: "lstmR4206"
 bottom: "lstmR4207"
 bottom: "lstmR4208"
 bottom: "lstmR4209"
 bottom: "lstmR4210"
 bottom: "lstmR4211"
 bottom: "lstmR4212"
 bottom: "lstmR4213"
 bottom: "lstmR4214"
 bottom: "lstmR4215"
 bottom: "lstmR4216"
 bottom: "lstmR4217"
 bottom: "lstmR4218"
 bottom: "lstmR4219"
 bottom: "lstmR4220"
 bottom: "lstmR4221"
 bottom: "lstmR4222"
 bottom: "lstmR4223"
top: "outW63"
  concat_param {    axis: 2  }
}
layer {
  #Concat over width
  name: "concat64"  type: "Concat"
 bottom: "lstmR4224"
 bottom: "lstmR4225"
 bottom: "lstmR4226"
 bottom: "lstmR4227"
 bottom: "lstmR4228"
 bottom: "lstmR4229"
 bottom: "lstmR4230"
 bottom: "lstmR4231"
 bottom: "lstmR4232"
 bottom: "lstmR4233"
 bottom: "lstmR4234"
 bottom: "lstmR4235"
 bottom: "lstmR4236"
 bottom: "lstmR4237"
 bottom: "lstmR4238"
 bottom: "lstmR4239"
 bottom: "lstmR4240"
 bottom: "lstmR4241"
 bottom: "lstmR4242"
 bottom: "lstmR4243"
 bottom: "lstmR4244"
 bottom: "lstmR4245"
 bottom: "lstmR4246"
 bottom: "lstmR4247"
 bottom: "lstmR4248"
 bottom: "lstmR4249"
 bottom: "lstmR4250"
 bottom: "lstmR4251"
 bottom: "lstmR4252"
 bottom: "lstmR4253"
 bottom: "lstmR4254"
 bottom: "lstmR4255"
 bottom: "lstmR4256"
 bottom: "lstmR4257"
 bottom: "lstmR4258"
 bottom: "lstmR4259"
 bottom: "lstmR4260"
 bottom: "lstmR4261"
 bottom: "lstmR4262"
 bottom: "lstmR4263"
 bottom: "lstmR4264"
 bottom: "lstmR4265"
 bottom: "lstmR4266"
 bottom: "lstmR4267"
 bottom: "lstmR4268"
 bottom: "lstmR4269"
 bottom: "lstmR4270"
 bottom: "lstmR4271"
 bottom: "lstmR4272"
 bottom: "lstmR4273"
 bottom: "lstmR4274"
 bottom: "lstmR4275"
 bottom: "lstmR4276"
 bottom: "lstmR4277"
 bottom: "lstmR4278"
 bottom: "lstmR4279"
 bottom: "lstmR4280"
 bottom: "lstmR4281"
 bottom: "lstmR4282"
 bottom: "lstmR4283"
 bottom: "lstmR4284"
 bottom: "lstmR4285"
 bottom: "lstmR4286"
 bottom: "lstmR4287"
 bottom: "lstmR4288"
 bottom: "lstmR4289"
top: "outW64"
  concat_param {    axis: 2  }
}
layer {
  #Concat over width
  name: "concat65"  type: "Concat"
 bottom: "lstmR4290"
 bottom: "lstmR4291"
 bottom: "lstmR4292"
 bottom: "lstmR4293"
 bottom: "lstmR4294"
 bottom: "lstmR4295"
 bottom: "lstmR4296"
 bottom: "lstmR4297"
 bottom: "lstmR4298"
 bottom: "lstmR4299"
 bottom: "lstmR4300"
 bottom: "lstmR4301"
 bottom: "lstmR4302"
 bottom: "lstmR4303"
 bottom: "lstmR4304"
 bottom: "lstmR4305"
 bottom: "lstmR4306"
 bottom: "lstmR4307"
 bottom: "lstmR4308"
 bottom: "lstmR4309"
 bottom: "lstmR4310"
 bottom: "lstmR4311"
 bottom: "lstmR4312"
 bottom: "lstmR4313"
 bottom: "lstmR4314"
 bottom: "lstmR4315"
 bottom: "lstmR4316"
 bottom: "lstmR4317"
 bottom: "lstmR4318"
 bottom: "lstmR4319"
 bottom: "lstmR4320"
 bottom: "lstmR4321"
 bottom: "lstmR4322"
 bottom: "lstmR4323"
 bottom: "lstmR4324"
 bottom: "lstmR4325"
 bottom: "lstmR4326"
 bottom: "lstmR4327"
 bottom: "lstmR4328"
 bottom: "lstmR4329"
 bottom: "lstmR4330"
 bottom: "lstmR4331"
 bottom: "lstmR4332"
 bottom: "lstmR4333"
 bottom: "lstmR4334"
 bottom: "lstmR4335"
 bottom: "lstmR4336"
 bottom: "lstmR4337"
 bottom: "lstmR4338"
 bottom: "lstmR4339"
 bottom: "lstmR4340"
 bottom: "lstmR4341"
 bottom: "lstmR4342"
 bottom: "lstmR4343"
 bottom: "lstmR4344"
 bottom: "lstmR4345"
 bottom: "lstmR4346"
 bottom: "lstmR4347"
 bottom: "lstmR4348"
 bottom: "lstmR4349"
 bottom: "lstmR4350"
 bottom: "lstmR4351"
 bottom: "lstmR4352"
 bottom: "lstmR4353"
 bottom: "lstmR4354"
 bottom: "lstmR4355"
top: "outW65"
  concat_param {    axis: 2  }
}
layer {
  #Concat over width
  name: "concat66"  type: "Concat"
 bottom: "lstmR4356"
 bottom: "lstmR4357"
 bottom: "lstmR4358"
 bottom: "lstmR4359"
 bottom: "lstmR4360"
 bottom: "lstmR4361"
 bottom: "lstmR4362"
 bottom: "lstmR4363"
 bottom: "lstmR4364"
 bottom: "lstmR4365"
 bottom: "lstmR4366"
 bottom: "lstmR4367"
 bottom: "lstmR4368"
 bottom: "lstmR4369"
 bottom: "lstmR4370"
 bottom: "lstmR4371"
 bottom: "lstmR4372"
 bottom: "lstmR4373"
 bottom: "lstmR4374"
 bottom: "lstmR4375"
 bottom: "lstmR4376"
 bottom: "lstmR4377"
 bottom: "lstmR4378"
 bottom: "lstmR4379"
 bottom: "lstmR4380"
 bottom: "lstmR4381"
 bottom: "lstmR4382"
 bottom: "lstmR4383"
 bottom: "lstmR4384"
 bottom: "lstmR4385"
 bottom: "lstmR4386"
 bottom: "lstmR4387"
 bottom: "lstmR4388"
 bottom: "lstmR4389"
 bottom: "lstmR4390"
 bottom: "lstmR4391"
 bottom: "lstmR4392"
 bottom: "lstmR4393"
 bottom: "lstmR4394"
 bottom: "lstmR4395"
 bottom: "lstmR4396"
 bottom: "lstmR4397"
 bottom: "lstmR4398"
 bottom: "lstmR4399"
 bottom: "lstmR4400"
 bottom: "lstmR4401"
 bottom: "lstmR4402"
 bottom: "lstmR4403"
 bottom: "lstmR4404"
 bottom: "lstmR4405"
 bottom: "lstmR4406"
 bottom: "lstmR4407"
 bottom: "lstmR4408"
 bottom: "lstmR4409"
 bottom: "lstmR4410"
 bottom: "lstmR4411"
 bottom: "lstmR4412"
 bottom: "lstmR4413"
 bottom: "lstmR4414"
 bottom: "lstmR4415"
 bottom: "lstmR4416"
 bottom: "lstmR4417"
 bottom: "lstmR4418"
 bottom: "lstmR4419"
 bottom: "lstmR4420"
 bottom: "lstmR4421"
top: "outW66"
  concat_param {    axis: 2  }
}
layer {
  #Concat over width
  name: "concat67"  type: "Concat"
 bottom: "lstmR4422"
 bottom: "lstmR4423"
 bottom: "lstmR4424"
 bottom: "lstmR4425"
 bottom: "lstmR4426"
 bottom: "lstmR4427"
 bottom: "lstmR4428"
 bottom: "lstmR4429"
 bottom: "lstmR4430"
 bottom: "lstmR4431"
 bottom: "lstmR4432"
 bottom: "lstmR4433"
 bottom: "lstmR4434"
 bottom: "lstmR4435"
 bottom: "lstmR4436"
 bottom: "lstmR4437"
 bottom: "lstmR4438"
 bottom: "lstmR4439"
 bottom: "lstmR4440"
 bottom: "lstmR4441"
 bottom: "lstmR4442"
 bottom: "lstmR4443"
 bottom: "lstmR4444"
 bottom: "lstmR4445"
 bottom: "lstmR4446"
 bottom: "lstmR4447"
 bottom: "lstmR4448"
 bottom: "lstmR4449"
 bottom: "lstmR4450"
 bottom: "lstmR4451"
 bottom: "lstmR4452"
 bottom: "lstmR4453"
 bottom: "lstmR4454"
 bottom: "lstmR4455"
 bottom: "lstmR4456"
 bottom: "lstmR4457"
 bottom: "lstmR4458"
 bottom: "lstmR4459"
 bottom: "lstmR4460"
 bottom: "lstmR4461"
 bottom: "lstmR4462"
 bottom: "lstmR4463"
 bottom: "lstmR4464"
 bottom: "lstmR4465"
 bottom: "lstmR4466"
 bottom: "lstmR4467"
 bottom: "lstmR4468"
 bottom: "lstmR4469"
 bottom: "lstmR4470"
 bottom: "lstmR4471"
 bottom: "lstmR4472"
 bottom: "lstmR4473"
 bottom: "lstmR4474"
 bottom: "lstmR4475"
 bottom: "lstmR4476"
 bottom: "lstmR4477"
 bottom: "lstmR4478"
 bottom: "lstmR4479"
 bottom: "lstmR4480"
 bottom: "lstmR4481"
 bottom: "lstmR4482"
 bottom: "lstmR4483"
 bottom: "lstmR4484"
 bottom: "lstmR4485"
 bottom: "lstmR4486"
 bottom: "lstmR4487"
top: "outW67"
  concat_param {    axis: 2  }
}
layer {
  #Concat over width
  name: "concat68"  type: "Concat"
 bottom: "lstmR4488"
 bottom: "lstmR4489"
 bottom: "lstmR4490"
 bottom: "lstmR4491"
 bottom: "lstmR4492"
 bottom: "lstmR4493"
 bottom: "lstmR4494"
 bottom: "lstmR4495"
 bottom: "lstmR4496"
 bottom: "lstmR4497"
 bottom: "lstmR4498"
 bottom: "lstmR4499"
 bottom: "lstmR4500"
 bottom: "lstmR4501"
 bottom: "lstmR4502"
 bottom: "lstmR4503"
 bottom: "lstmR4504"
 bottom: "lstmR4505"
 bottom: "lstmR4506"
 bottom: "lstmR4507"
 bottom: "lstmR4508"
 bottom: "lstmR4509"
 bottom: "lstmR4510"
 bottom: "lstmR4511"
 bottom: "lstmR4512"
 bottom: "lstmR4513"
 bottom: "lstmR4514"
 bottom: "lstmR4515"
 bottom: "lstmR4516"
 bottom: "lstmR4517"
 bottom: "lstmR4518"
 bottom: "lstmR4519"
 bottom: "lstmR4520"
 bottom: "lstmR4521"
 bottom: "lstmR4522"
 bottom: "lstmR4523"
 bottom: "lstmR4524"
 bottom: "lstmR4525"
 bottom: "lstmR4526"
 bottom: "lstmR4527"
 bottom: "lstmR4528"
 bottom: "lstmR4529"
 bottom: "lstmR4530"
 bottom: "lstmR4531"
 bottom: "lstmR4532"
 bottom: "lstmR4533"
 bottom: "lstmR4534"
 bottom: "lstmR4535"
 bottom: "lstmR4536"
 bottom: "lstmR4537"
 bottom: "lstmR4538"
 bottom: "lstmR4539"
 bottom: "lstmR4540"
 bottom: "lstmR4541"
 bottom: "lstmR4542"
 bottom: "lstmR4543"
 bottom: "lstmR4544"
 bottom: "lstmR4545"
 bottom: "lstmR4546"
 bottom: "lstmR4547"
 bottom: "lstmR4548"
 bottom: "lstmR4549"
 bottom: "lstmR4550"
 bottom: "lstmR4551"
 bottom: "lstmR4552"
 bottom: "lstmR4553"
top: "outW68"
  concat_param {    axis: 2  }
}
layer {
  #Concat over width
  name: "concat69"  type: "Concat"
 bottom: "lstmR4554"
 bottom: "lstmR4555"
 bottom: "lstmR4556"
 bottom: "lstmR4557"
 bottom: "lstmR4558"
 bottom: "lstmR4559"
 bottom: "lstmR4560"
 bottom: "lstmR4561"
 bottom: "lstmR4562"
 bottom: "lstmR4563"
 bottom: "lstmR4564"
 bottom: "lstmR4565"
 bottom: "lstmR4566"
 bottom: "lstmR4567"
 bottom: "lstmR4568"
 bottom: "lstmR4569"
 bottom: "lstmR4570"
 bottom: "lstmR4571"
 bottom: "lstmR4572"
 bottom: "lstmR4573"
 bottom: "lstmR4574"
 bottom: "lstmR4575"
 bottom: "lstmR4576"
 bottom: "lstmR4577"
 bottom: "lstmR4578"
 bottom: "lstmR4579"
 bottom: "lstmR4580"
 bottom: "lstmR4581"
 bottom: "lstmR4582"
 bottom: "lstmR4583"
 bottom: "lstmR4584"
 bottom: "lstmR4585"
 bottom: "lstmR4586"
 bottom: "lstmR4587"
 bottom: "lstmR4588"
 bottom: "lstmR4589"
 bottom: "lstmR4590"
 bottom: "lstmR4591"
 bottom: "lstmR4592"
 bottom: "lstmR4593"
 bottom: "lstmR4594"
 bottom: "lstmR4595"
 bottom: "lstmR4596"
 bottom: "lstmR4597"
 bottom: "lstmR4598"
 bottom: "lstmR4599"
 bottom: "lstmR4600"
 bottom: "lstmR4601"
 bottom: "lstmR4602"
 bottom: "lstmR4603"
 bottom: "lstmR4604"
 bottom: "lstmR4605"
 bottom: "lstmR4606"
 bottom: "lstmR4607"
 bottom: "lstmR4608"
 bottom: "lstmR4609"
 bottom: "lstmR4610"
 bottom: "lstmR4611"
 bottom: "lstmR4612"
 bottom: "lstmR4613"
 bottom: "lstmR4614"
 bottom: "lstmR4615"
 bottom: "lstmR4616"
 bottom: "lstmR4617"
 bottom: "lstmR4618"
 bottom: "lstmR4619"
top: "outW69"
  concat_param {    axis: 2  }
}
layer {
  #Concat over width
  name: "concat70"  type: "Concat"
 bottom: "lstmR4620"
 bottom: "lstmR4621"
 bottom: "lstmR4622"
 bottom: "lstmR4623"
 bottom: "lstmR4624"
 bottom: "lstmR4625"
 bottom: "lstmR4626"
 bottom: "lstmR4627"
 bottom: "lstmR4628"
 bottom: "lstmR4629"
 bottom: "lstmR4630"
 bottom: "lstmR4631"
 bottom: "lstmR4632"
 bottom: "lstmR4633"
 bottom: "lstmR4634"
 bottom: "lstmR4635"
 bottom: "lstmR4636"
 bottom: "lstmR4637"
 bottom: "lstmR4638"
 bottom: "lstmR4639"
 bottom: "lstmR4640"
 bottom: "lstmR4641"
 bottom: "lstmR4642"
 bottom: "lstmR4643"
 bottom: "lstmR4644"
 bottom: "lstmR4645"
 bottom: "lstmR4646"
 bottom: "lstmR4647"
 bottom: "lstmR4648"
 bottom: "lstmR4649"
 bottom: "lstmR4650"
 bottom: "lstmR4651"
 bottom: "lstmR4652"
 bottom: "lstmR4653"
 bottom: "lstmR4654"
 bottom: "lstmR4655"
 bottom: "lstmR4656"
 bottom: "lstmR4657"
 bottom: "lstmR4658"
 bottom: "lstmR4659"
 bottom: "lstmR4660"
 bottom: "lstmR4661"
 bottom: "lstmR4662"
 bottom: "lstmR4663"
 bottom: "lstmR4664"
 bottom: "lstmR4665"
 bottom: "lstmR4666"
 bottom: "lstmR4667"
 bottom: "lstmR4668"
 bottom: "lstmR4669"
 bottom: "lstmR4670"
 bottom: "lstmR4671"
 bottom: "lstmR4672"
 bottom: "lstmR4673"
 bottom: "lstmR4674"
 bottom: "lstmR4675"
 bottom: "lstmR4676"
 bottom: "lstmR4677"
 bottom: "lstmR4678"
 bottom: "lstmR4679"
 bottom: "lstmR4680"
 bottom: "lstmR4681"
 bottom: "lstmR4682"
 bottom: "lstmR4683"
 bottom: "lstmR4684"
 bottom: "lstmR4685"
top: "outW70"
  concat_param {    axis: 2  }
}
layer {
  #Concat over width
  name: "concat71"  type: "Concat"
 bottom: "lstmR4686"
 bottom: "lstmR4687"
 bottom: "lstmR4688"
 bottom: "lstmR4689"
 bottom: "lstmR4690"
 bottom: "lstmR4691"
 bottom: "lstmR4692"
 bottom: "lstmR4693"
 bottom: "lstmR4694"
 bottom: "lstmR4695"
 bottom: "lstmR4696"
 bottom: "lstmR4697"
 bottom: "lstmR4698"
 bottom: "lstmR4699"
 bottom: "lstmR4700"
 bottom: "lstmR4701"
 bottom: "lstmR4702"
 bottom: "lstmR4703"
 bottom: "lstmR4704"
 bottom: "lstmR4705"
 bottom: "lstmR4706"
 bottom: "lstmR4707"
 bottom: "lstmR4708"
 bottom: "lstmR4709"
 bottom: "lstmR4710"
 bottom: "lstmR4711"
 bottom: "lstmR4712"
 bottom: "lstmR4713"
 bottom: "lstmR4714"
 bottom: "lstmR4715"
 bottom: "lstmR4716"
 bottom: "lstmR4717"
 bottom: "lstmR4718"
 bottom: "lstmR4719"
 bottom: "lstmR4720"
 bottom: "lstmR4721"
 bottom: "lstmR4722"
 bottom: "lstmR4723"
 bottom: "lstmR4724"
 bottom: "lstmR4725"
 bottom: "lstmR4726"
 bottom: "lstmR4727"
 bottom: "lstmR4728"
 bottom: "lstmR4729"
 bottom: "lstmR4730"
 bottom: "lstmR4731"
 bottom: "lstmR4732"
 bottom: "lstmR4733"
 bottom: "lstmR4734"
 bottom: "lstmR4735"
 bottom: "lstmR4736"
 bottom: "lstmR4737"
 bottom: "lstmR4738"
 bottom: "lstmR4739"
 bottom: "lstmR4740"
 bottom: "lstmR4741"
 bottom: "lstmR4742"
 bottom: "lstmR4743"
 bottom: "lstmR4744"
 bottom: "lstmR4745"
 bottom: "lstmR4746"
 bottom: "lstmR4747"
 bottom: "lstmR4748"
 bottom: "lstmR4749"
 bottom: "lstmR4750"
 bottom: "lstmR4751"
top: "outW71"
  concat_param {    axis: 2  }
}
layer {
  #Concat over width
  name: "concat72"  type: "Concat"
 bottom: "lstmR4752"
 bottom: "lstmR4753"
 bottom: "lstmR4754"
 bottom: "lstmR4755"
 bottom: "lstmR4756"
 bottom: "lstmR4757"
 bottom: "lstmR4758"
 bottom: "lstmR4759"
 bottom: "lstmR4760"
 bottom: "lstmR4761"
 bottom: "lstmR4762"
 bottom: "lstmR4763"
 bottom: "lstmR4764"
 bottom: "lstmR4765"
 bottom: "lstmR4766"
 bottom: "lstmR4767"
 bottom: "lstmR4768"
 bottom: "lstmR4769"
 bottom: "lstmR4770"
 bottom: "lstmR4771"
 bottom: "lstmR4772"
 bottom: "lstmR4773"
 bottom: "lstmR4774"
 bottom: "lstmR4775"
 bottom: "lstmR4776"
 bottom: "lstmR4777"
 bottom: "lstmR4778"
 bottom: "lstmR4779"
 bottom: "lstmR4780"
 bottom: "lstmR4781"
 bottom: "lstmR4782"
 bottom: "lstmR4783"
 bottom: "lstmR4784"
 bottom: "lstmR4785"
 bottom: "lstmR4786"
 bottom: "lstmR4787"
 bottom: "lstmR4788"
 bottom: "lstmR4789"
 bottom: "lstmR4790"
 bottom: "lstmR4791"
 bottom: "lstmR4792"
 bottom: "lstmR4793"
 bottom: "lstmR4794"
 bottom: "lstmR4795"
 bottom: "lstmR4796"
 bottom: "lstmR4797"
 bottom: "lstmR4798"
 bottom: "lstmR4799"
 bottom: "lstmR4800"
 bottom: "lstmR4801"
 bottom: "lstmR4802"
 bottom: "lstmR4803"
 bottom: "lstmR4804"
 bottom: "lstmR4805"
 bottom: "lstmR4806"
 bottom: "lstmR4807"
 bottom: "lstmR4808"
 bottom: "lstmR4809"
 bottom: "lstmR4810"
 bottom: "lstmR4811"
 bottom: "lstmR4812"
 bottom: "lstmR4813"
 bottom: "lstmR4814"
 bottom: "lstmR4815"
 bottom: "lstmR4816"
 bottom: "lstmR4817"
top: "outW72"
  concat_param {    axis: 2  }
}
layer {
  #Concat over width
  name: "concat73"  type: "Concat"
 bottom: "lstmR4818"
 bottom: "lstmR4819"
 bottom: "lstmR4820"
 bottom: "lstmR4821"
 bottom: "lstmR4822"
 bottom: "lstmR4823"
 bottom: "lstmR4824"
 bottom: "lstmR4825"
 bottom: "lstmR4826"
 bottom: "lstmR4827"
 bottom: "lstmR4828"
 bottom: "lstmR4829"
 bottom: "lstmR4830"
 bottom: "lstmR4831"
 bottom: "lstmR4832"
 bottom: "lstmR4833"
 bottom: "lstmR4834"
 bottom: "lstmR4835"
 bottom: "lstmR4836"
 bottom: "lstmR4837"
 bottom: "lstmR4838"
 bottom: "lstmR4839"
 bottom: "lstmR4840"
 bottom: "lstmR4841"
 bottom: "lstmR4842"
 bottom: "lstmR4843"
 bottom: "lstmR4844"
 bottom: "lstmR4845"
 bottom: "lstmR4846"
 bottom: "lstmR4847"
 bottom: "lstmR4848"
 bottom: "lstmR4849"
 bottom: "lstmR4850"
 bottom: "lstmR4851"
 bottom: "lstmR4852"
 bottom: "lstmR4853"
 bottom: "lstmR4854"
 bottom: "lstmR4855"
 bottom: "lstmR4856"
 bottom: "lstmR4857"
 bottom: "lstmR4858"
 bottom: "lstmR4859"
 bottom: "lstmR4860"
 bottom: "lstmR4861"
 bottom: "lstmR4862"
 bottom: "lstmR4863"
 bottom: "lstmR4864"
 bottom: "lstmR4865"
 bottom: "lstmR4866"
 bottom: "lstmR4867"
 bottom: "lstmR4868"
 bottom: "lstmR4869"
 bottom: "lstmR4870"
 bottom: "lstmR4871"
 bottom: "lstmR4872"
 bottom: "lstmR4873"
 bottom: "lstmR4874"
 bottom: "lstmR4875"
 bottom: "lstmR4876"
 bottom: "lstmR4877"
 bottom: "lstmR4878"
 bottom: "lstmR4879"
 bottom: "lstmR4880"
 bottom: "lstmR4881"
 bottom: "lstmR4882"
 bottom: "lstmR4883"
top: "outW73"
  concat_param {    axis: 2  }
}
layer {
  #Concat over width
  name: "concat74"  type: "Concat"
 bottom: "lstmR4884"
 bottom: "lstmR4885"
 bottom: "lstmR4886"
 bottom: "lstmR4887"
 bottom: "lstmR4888"
 bottom: "lstmR4889"
 bottom: "lstmR4890"
 bottom: "lstmR4891"
 bottom: "lstmR4892"
 bottom: "lstmR4893"
 bottom: "lstmR4894"
 bottom: "lstmR4895"
 bottom: "lstmR4896"
 bottom: "lstmR4897"
 bottom: "lstmR4898"
 bottom: "lstmR4899"
 bottom: "lstmR4900"
 bottom: "lstmR4901"
 bottom: "lstmR4902"
 bottom: "lstmR4903"
 bottom: "lstmR4904"
 bottom: "lstmR4905"
 bottom: "lstmR4906"
 bottom: "lstmR4907"
 bottom: "lstmR4908"
 bottom: "lstmR4909"
 bottom: "lstmR4910"
 bottom: "lstmR4911"
 bottom: "lstmR4912"
 bottom: "lstmR4913"
 bottom: "lstmR4914"
 bottom: "lstmR4915"
 bottom: "lstmR4916"
 bottom: "lstmR4917"
 bottom: "lstmR4918"
 bottom: "lstmR4919"
 bottom: "lstmR4920"
 bottom: "lstmR4921"
 bottom: "lstmR4922"
 bottom: "lstmR4923"
 bottom: "lstmR4924"
 bottom: "lstmR4925"
 bottom: "lstmR4926"
 bottom: "lstmR4927"
 bottom: "lstmR4928"
 bottom: "lstmR4929"
 bottom: "lstmR4930"
 bottom: "lstmR4931"
 bottom: "lstmR4932"
 bottom: "lstmR4933"
 bottom: "lstmR4934"
 bottom: "lstmR4935"
 bottom: "lstmR4936"
 bottom: "lstmR4937"
 bottom: "lstmR4938"
 bottom: "lstmR4939"
 bottom: "lstmR4940"
 bottom: "lstmR4941"
 bottom: "lstmR4942"
 bottom: "lstmR4943"
 bottom: "lstmR4944"
 bottom: "lstmR4945"
 bottom: "lstmR4946"
 bottom: "lstmR4947"
 bottom: "lstmR4948"
 bottom: "lstmR4949"
top: "outW74"
  concat_param {    axis: 2  }
}
layer {
  #Concat over width
  name: "concat75"  type: "Concat"
 bottom: "lstmR4950"
 bottom: "lstmR4951"
 bottom: "lstmR4952"
 bottom: "lstmR4953"
 bottom: "lstmR4954"
 bottom: "lstmR4955"
 bottom: "lstmR4956"
 bottom: "lstmR4957"
 bottom: "lstmR4958"
 bottom: "lstmR4959"
 bottom: "lstmR4960"
 bottom: "lstmR4961"
 bottom: "lstmR4962"
 bottom: "lstmR4963"
 bottom: "lstmR4964"
 bottom: "lstmR4965"
 bottom: "lstmR4966"
 bottom: "lstmR4967"
 bottom: "lstmR4968"
 bottom: "lstmR4969"
 bottom: "lstmR4970"
 bottom: "lstmR4971"
 bottom: "lstmR4972"
 bottom: "lstmR4973"
 bottom: "lstmR4974"
 bottom: "lstmR4975"
 bottom: "lstmR4976"
 bottom: "lstmR4977"
 bottom: "lstmR4978"
 bottom: "lstmR4979"
 bottom: "lstmR4980"
 bottom: "lstmR4981"
 bottom: "lstmR4982"
 bottom: "lstmR4983"
 bottom: "lstmR4984"
 bottom: "lstmR4985"
 bottom: "lstmR4986"
 bottom: "lstmR4987"
 bottom: "lstmR4988"
 bottom: "lstmR4989"
 bottom: "lstmR4990"
 bottom: "lstmR4991"
 bottom: "lstmR4992"
 bottom: "lstmR4993"
 bottom: "lstmR4994"
 bottom: "lstmR4995"
 bottom: "lstmR4996"
 bottom: "lstmR4997"
 bottom: "lstmR4998"
 bottom: "lstmR4999"
 bottom: "lstmR5000"
 bottom: "lstmR5001"
 bottom: "lstmR5002"
 bottom: "lstmR5003"
 bottom: "lstmR5004"
 bottom: "lstmR5005"
 bottom: "lstmR5006"
 bottom: "lstmR5007"
 bottom: "lstmR5008"
 bottom: "lstmR5009"
 bottom: "lstmR5010"
 bottom: "lstmR5011"
 bottom: "lstmR5012"
 bottom: "lstmR5013"
 bottom: "lstmR5014"
 bottom: "lstmR5015"
top: "outW75"
  concat_param {    axis: 2  }
}
layer {
  #Concat over width
  name: "concat76"  type: "Concat"
 bottom: "lstmR5016"
 bottom: "lstmR5017"
 bottom: "lstmR5018"
 bottom: "lstmR5019"
 bottom: "lstmR5020"
 bottom: "lstmR5021"
 bottom: "lstmR5022"
 bottom: "lstmR5023"
 bottom: "lstmR5024"
 bottom: "lstmR5025"
 bottom: "lstmR5026"
 bottom: "lstmR5027"
 bottom: "lstmR5028"
 bottom: "lstmR5029"
 bottom: "lstmR5030"
 bottom: "lstmR5031"
 bottom: "lstmR5032"
 bottom: "lstmR5033"
 bottom: "lstmR5034"
 bottom: "lstmR5035"
 bottom: "lstmR5036"
 bottom: "lstmR5037"
 bottom: "lstmR5038"
 bottom: "lstmR5039"
 bottom: "lstmR5040"
 bottom: "lstmR5041"
 bottom: "lstmR5042"
 bottom: "lstmR5043"
 bottom: "lstmR5044"
 bottom: "lstmR5045"
 bottom: "lstmR5046"
 bottom: "lstmR5047"
 bottom: "lstmR5048"
 bottom: "lstmR5049"
 bottom: "lstmR5050"
 bottom: "lstmR5051"
 bottom: "lstmR5052"
 bottom: "lstmR5053"
 bottom: "lstmR5054"
 bottom: "lstmR5055"
 bottom: "lstmR5056"
 bottom: "lstmR5057"
 bottom: "lstmR5058"
 bottom: "lstmR5059"
 bottom: "lstmR5060"
 bottom: "lstmR5061"
 bottom: "lstmR5062"
 bottom: "lstmR5063"
 bottom: "lstmR5064"
 bottom: "lstmR5065"
 bottom: "lstmR5066"
 bottom: "lstmR5067"
 bottom: "lstmR5068"
 bottom: "lstmR5069"
 bottom: "lstmR5070"
 bottom: "lstmR5071"
 bottom: "lstmR5072"
 bottom: "lstmR5073"
 bottom: "lstmR5074"
 bottom: "lstmR5075"
 bottom: "lstmR5076"
 bottom: "lstmR5077"
 bottom: "lstmR5078"
 bottom: "lstmR5079"
 bottom: "lstmR5080"
 bottom: "lstmR5081"
top: "outW76"
  concat_param {    axis: 2  }
}
layer {
  #Concat over width
  name: "concat77"  type: "Concat"
 bottom: "lstmR5082"
 bottom: "lstmR5083"
 bottom: "lstmR5084"
 bottom: "lstmR5085"
 bottom: "lstmR5086"
 bottom: "lstmR5087"
 bottom: "lstmR5088"
 bottom: "lstmR5089"
 bottom: "lstmR5090"
 bottom: "lstmR5091"
 bottom: "lstmR5092"
 bottom: "lstmR5093"
 bottom: "lstmR5094"
 bottom: "lstmR5095"
 bottom: "lstmR5096"
 bottom: "lstmR5097"
 bottom: "lstmR5098"
 bottom: "lstmR5099"
 bottom: "lstmR5100"
 bottom: "lstmR5101"
 bottom: "lstmR5102"
 bottom: "lstmR5103"
 bottom: "lstmR5104"
 bottom: "lstmR5105"
 bottom: "lstmR5106"
 bottom: "lstmR5107"
 bottom: "lstmR5108"
 bottom: "lstmR5109"
 bottom: "lstmR5110"
 bottom: "lstmR5111"
 bottom: "lstmR5112"
 bottom: "lstmR5113"
 bottom: "lstmR5114"
 bottom: "lstmR5115"
 bottom: "lstmR5116"
 bottom: "lstmR5117"
 bottom: "lstmR5118"
 bottom: "lstmR5119"
 bottom: "lstmR5120"
 bottom: "lstmR5121"
 bottom: "lstmR5122"
 bottom: "lstmR5123"
 bottom: "lstmR5124"
 bottom: "lstmR5125"
 bottom: "lstmR5126"
 bottom: "lstmR5127"
 bottom: "lstmR5128"
 bottom: "lstmR5129"
 bottom: "lstmR5130"
 bottom: "lstmR5131"
 bottom: "lstmR5132"
 bottom: "lstmR5133"
 bottom: "lstmR5134"
 bottom: "lstmR5135"
 bottom: "lstmR5136"
 bottom: "lstmR5137"
 bottom: "lstmR5138"
 bottom: "lstmR5139"
 bottom: "lstmR5140"
 bottom: "lstmR5141"
 bottom: "lstmR5142"
 bottom: "lstmR5143"
 bottom: "lstmR5144"
 bottom: "lstmR5145"
 bottom: "lstmR5146"
 bottom: "lstmR5147"
top: "outW77"
  concat_param {    axis: 2  }
}
layer {
  #Concat over width
  name: "concat78"  type: "Concat"
 bottom: "lstmR5148"
 bottom: "lstmR5149"
 bottom: "lstmR5150"
 bottom: "lstmR5151"
 bottom: "lstmR5152"
 bottom: "lstmR5153"
 bottom: "lstmR5154"
 bottom: "lstmR5155"
 bottom: "lstmR5156"
 bottom: "lstmR5157"
 bottom: "lstmR5158"
 bottom: "lstmR5159"
 bottom: "lstmR5160"
 bottom: "lstmR5161"
 bottom: "lstmR5162"
 bottom: "lstmR5163"
 bottom: "lstmR5164"
 bottom: "lstmR5165"
 bottom: "lstmR5166"
 bottom: "lstmR5167"
 bottom: "lstmR5168"
 bottom: "lstmR5169"
 bottom: "lstmR5170"
 bottom: "lstmR5171"
 bottom: "lstmR5172"
 bottom: "lstmR5173"
 bottom: "lstmR5174"
 bottom: "lstmR5175"
 bottom: "lstmR5176"
 bottom: "lstmR5177"
 bottom: "lstmR5178"
 bottom: "lstmR5179"
 bottom: "lstmR5180"
 bottom: "lstmR5181"
 bottom: "lstmR5182"
 bottom: "lstmR5183"
 bottom: "lstmR5184"
 bottom: "lstmR5185"
 bottom: "lstmR5186"
 bottom: "lstmR5187"
 bottom: "lstmR5188"
 bottom: "lstmR5189"
 bottom: "lstmR5190"
 bottom: "lstmR5191"
 bottom: "lstmR5192"
 bottom: "lstmR5193"
 bottom: "lstmR5194"
 bottom: "lstmR5195"
 bottom: "lstmR5196"
 bottom: "lstmR5197"
 bottom: "lstmR5198"
 bottom: "lstmR5199"
 bottom: "lstmR5200"
 bottom: "lstmR5201"
 bottom: "lstmR5202"
 bottom: "lstmR5203"
 bottom: "lstmR5204"
 bottom: "lstmR5205"
 bottom: "lstmR5206"
 bottom: "lstmR5207"
 bottom: "lstmR5208"
 bottom: "lstmR5209"
 bottom: "lstmR5210"
 bottom: "lstmR5211"
 bottom: "lstmR5212"
 bottom: "lstmR5213"
top: "outW78"
  concat_param {    axis: 2  }
}
layer {
  #Concat over width
  name: "concat79"  type: "Concat"
 bottom: "lstmR5214"
 bottom: "lstmR5215"
 bottom: "lstmR5216"
 bottom: "lstmR5217"
 bottom: "lstmR5218"
 bottom: "lstmR5219"
 bottom: "lstmR5220"
 bottom: "lstmR5221"
 bottom: "lstmR5222"
 bottom: "lstmR5223"
 bottom: "lstmR5224"
 bottom: "lstmR5225"
 bottom: "lstmR5226"
 bottom: "lstmR5227"
 bottom: "lstmR5228"
 bottom: "lstmR5229"
 bottom: "lstmR5230"
 bottom: "lstmR5231"
 bottom: "lstmR5232"
 bottom: "lstmR5233"
 bottom: "lstmR5234"
 bottom: "lstmR5235"
 bottom: "lstmR5236"
 bottom: "lstmR5237"
 bottom: "lstmR5238"
 bottom: "lstmR5239"
 bottom: "lstmR5240"
 bottom: "lstmR5241"
 bottom: "lstmR5242"
 bottom: "lstmR5243"
 bottom: "lstmR5244"
 bottom: "lstmR5245"
 bottom: "lstmR5246"
 bottom: "lstmR5247"
 bottom: "lstmR5248"
 bottom: "lstmR5249"
 bottom: "lstmR5250"
 bottom: "lstmR5251"
 bottom: "lstmR5252"
 bottom: "lstmR5253"
 bottom: "lstmR5254"
 bottom: "lstmR5255"
 bottom: "lstmR5256"
 bottom: "lstmR5257"
 bottom: "lstmR5258"
 bottom: "lstmR5259"
 bottom: "lstmR5260"
 bottom: "lstmR5261"
 bottom: "lstmR5262"
 bottom: "lstmR5263"
 bottom: "lstmR5264"
 bottom: "lstmR5265"
 bottom: "lstmR5266"
 bottom: "lstmR5267"
 bottom: "lstmR5268"
 bottom: "lstmR5269"
 bottom: "lstmR5270"
 bottom: "lstmR5271"
 bottom: "lstmR5272"
 bottom: "lstmR5273"
 bottom: "lstmR5274"
 bottom: "lstmR5275"
 bottom: "lstmR5276"
 bottom: "lstmR5277"
 bottom: "lstmR5278"
 bottom: "lstmR5279"
top: "outW79"
  concat_param {    axis: 2  }
}
layer {
  #Concat over width
  name: "concat80"  type: "Concat"
 bottom: "lstmR5280"
 bottom: "lstmR5281"
 bottom: "lstmR5282"
 bottom: "lstmR5283"
 bottom: "lstmR5284"
 bottom: "lstmR5285"
 bottom: "lstmR5286"
 bottom: "lstmR5287"
 bottom: "lstmR5288"
 bottom: "lstmR5289"
 bottom: "lstmR5290"
 bottom: "lstmR5291"
 bottom: "lstmR5292"
 bottom: "lstmR5293"
 bottom: "lstmR5294"
 bottom: "lstmR5295"
 bottom: "lstmR5296"
 bottom: "lstmR5297"
 bottom: "lstmR5298"
 bottom: "lstmR5299"
 bottom: "lstmR5300"
 bottom: "lstmR5301"
 bottom: "lstmR5302"
 bottom: "lstmR5303"
 bottom: "lstmR5304"
 bottom: "lstmR5305"
 bottom: "lstmR5306"
 bottom: "lstmR5307"
 bottom: "lstmR5308"
 bottom: "lstmR5309"
 bottom: "lstmR5310"
 bottom: "lstmR5311"
 bottom: "lstmR5312"
 bottom: "lstmR5313"
 bottom: "lstmR5314"
 bottom: "lstmR5315"
 bottom: "lstmR5316"
 bottom: "lstmR5317"
 bottom: "lstmR5318"
 bottom: "lstmR5319"
 bottom: "lstmR5320"
 bottom: "lstmR5321"
 bottom: "lstmR5322"
 bottom: "lstmR5323"
 bottom: "lstmR5324"
 bottom: "lstmR5325"
 bottom: "lstmR5326"
 bottom: "lstmR5327"
 bottom: "lstmR5328"
 bottom: "lstmR5329"
 bottom: "lstmR5330"
 bottom: "lstmR5331"
 bottom: "lstmR5332"
 bottom: "lstmR5333"
 bottom: "lstmR5334"
 bottom: "lstmR5335"
 bottom: "lstmR5336"
 bottom: "lstmR5337"
 bottom: "lstmR5338"
 bottom: "lstmR5339"
 bottom: "lstmR5340"
 bottom: "lstmR5341"
 bottom: "lstmR5342"
 bottom: "lstmR5343"
 bottom: "lstmR5344"
 bottom: "lstmR5345"
top: "outW80"
  concat_param {    axis: 2  }
}
layer {
  #Concat over width
  name: "concat81"  type: "Concat"
 bottom: "lstmR5346"
 bottom: "lstmR5347"
 bottom: "lstmR5348"
 bottom: "lstmR5349"
 bottom: "lstmR5350"
 bottom: "lstmR5351"
 bottom: "lstmR5352"
 bottom: "lstmR5353"
 bottom: "lstmR5354"
 bottom: "lstmR5355"
 bottom: "lstmR5356"
 bottom: "lstmR5357"
 bottom: "lstmR5358"
 bottom: "lstmR5359"
 bottom: "lstmR5360"
 bottom: "lstmR5361"
 bottom: "lstmR5362"
 bottom: "lstmR5363"
 bottom: "lstmR5364"
 bottom: "lstmR5365"
 bottom: "lstmR5366"
 bottom: "lstmR5367"
 bottom: "lstmR5368"
 bottom: "lstmR5369"
 bottom: "lstmR5370"
 bottom: "lstmR5371"
 bottom: "lstmR5372"
 bottom: "lstmR5373"
 bottom: "lstmR5374"
 bottom: "lstmR5375"
 bottom: "lstmR5376"
 bottom: "lstmR5377"
 bottom: "lstmR5378"
 bottom: "lstmR5379"
 bottom: "lstmR5380"
 bottom: "lstmR5381"
 bottom: "lstmR5382"
 bottom: "lstmR5383"
 bottom: "lstmR5384"
 bottom: "lstmR5385"
 bottom: "lstmR5386"
 bottom: "lstmR5387"
 bottom: "lstmR5388"
 bottom: "lstmR5389"
 bottom: "lstmR5390"
 bottom: "lstmR5391"
 bottom: "lstmR5392"
 bottom: "lstmR5393"
 bottom: "lstmR5394"
 bottom: "lstmR5395"
 bottom: "lstmR5396"
 bottom: "lstmR5397"
 bottom: "lstmR5398"
 bottom: "lstmR5399"
 bottom: "lstmR5400"
 bottom: "lstmR5401"
 bottom: "lstmR5402"
 bottom: "lstmR5403"
 bottom: "lstmR5404"
 bottom: "lstmR5405"
 bottom: "lstmR5406"
 bottom: "lstmR5407"
 bottom: "lstmR5408"
 bottom: "lstmR5409"
 bottom: "lstmR5410"
 bottom: "lstmR5411"
top: "outW81"
  concat_param {    axis: 2  }
}
layer {
  #Concat over width
  name: "concat82"  type: "Concat"
 bottom: "lstmR5412"
 bottom: "lstmR5413"
 bottom: "lstmR5414"
 bottom: "lstmR5415"
 bottom: "lstmR5416"
 bottom: "lstmR5417"
 bottom: "lstmR5418"
 bottom: "lstmR5419"
 bottom: "lstmR5420"
 bottom: "lstmR5421"
 bottom: "lstmR5422"
 bottom: "lstmR5423"
 bottom: "lstmR5424"
 bottom: "lstmR5425"
 bottom: "lstmR5426"
 bottom: "lstmR5427"
 bottom: "lstmR5428"
 bottom: "lstmR5429"
 bottom: "lstmR5430"
 bottom: "lstmR5431"
 bottom: "lstmR5432"
 bottom: "lstmR5433"
 bottom: "lstmR5434"
 bottom: "lstmR5435"
 bottom: "lstmR5436"
 bottom: "lstmR5437"
 bottom: "lstmR5438"
 bottom: "lstmR5439"
 bottom: "lstmR5440"
 bottom: "lstmR5441"
 bottom: "lstmR5442"
 bottom: "lstmR5443"
 bottom: "lstmR5444"
 bottom: "lstmR5445"
 bottom: "lstmR5446"
 bottom: "lstmR5447"
 bottom: "lstmR5448"
 bottom: "lstmR5449"
 bottom: "lstmR5450"
 bottom: "lstmR5451"
 bottom: "lstmR5452"
 bottom: "lstmR5453"
 bottom: "lstmR5454"
 bottom: "lstmR5455"
 bottom: "lstmR5456"
 bottom: "lstmR5457"
 bottom: "lstmR5458"
 bottom: "lstmR5459"
 bottom: "lstmR5460"
 bottom: "lstmR5461"
 bottom: "lstmR5462"
 bottom: "lstmR5463"
 bottom: "lstmR5464"
 bottom: "lstmR5465"
 bottom: "lstmR5466"
 bottom: "lstmR5467"
 bottom: "lstmR5468"
 bottom: "lstmR5469"
 bottom: "lstmR5470"
 bottom: "lstmR5471"
 bottom: "lstmR5472"
 bottom: "lstmR5473"
 bottom: "lstmR5474"
 bottom: "lstmR5475"
 bottom: "lstmR5476"
 bottom: "lstmR5477"
top: "outW82"
  concat_param {    axis: 2  }
}
layer {
  #Concat over width
  name: "concat83"  type: "Concat"
 bottom: "lstmR5478"
 bottom: "lstmR5479"
 bottom: "lstmR5480"
 bottom: "lstmR5481"
 bottom: "lstmR5482"
 bottom: "lstmR5483"
 bottom: "lstmR5484"
 bottom: "lstmR5485"
 bottom: "lstmR5486"
 bottom: "lstmR5487"
 bottom: "lstmR5488"
 bottom: "lstmR5489"
 bottom: "lstmR5490"
 bottom: "lstmR5491"
 bottom: "lstmR5492"
 bottom: "lstmR5493"
 bottom: "lstmR5494"
 bottom: "lstmR5495"
 bottom: "lstmR5496"
 bottom: "lstmR5497"
 bottom: "lstmR5498"
 bottom: "lstmR5499"
 bottom: "lstmR5500"
 bottom: "lstmR5501"
 bottom: "lstmR5502"
 bottom: "lstmR5503"
 bottom: "lstmR5504"
 bottom: "lstmR5505"
 bottom: "lstmR5506"
 bottom: "lstmR5507"
 bottom: "lstmR5508"
 bottom: "lstmR5509"
 bottom: "lstmR5510"
 bottom: "lstmR5511"
 bottom: "lstmR5512"
 bottom: "lstmR5513"
 bottom: "lstmR5514"
 bottom: "lstmR5515"
 bottom: "lstmR5516"
 bottom: "lstmR5517"
 bottom: "lstmR5518"
 bottom: "lstmR5519"
 bottom: "lstmR5520"
 bottom: "lstmR5521"
 bottom: "lstmR5522"
 bottom: "lstmR5523"
 bottom: "lstmR5524"
 bottom: "lstmR5525"
 bottom: "lstmR5526"
 bottom: "lstmR5527"
 bottom: "lstmR5528"
 bottom: "lstmR5529"
 bottom: "lstmR5530"
 bottom: "lstmR5531"
 bottom: "lstmR5532"
 bottom: "lstmR5533"
 bottom: "lstmR5534"
 bottom: "lstmR5535"
 bottom: "lstmR5536"
 bottom: "lstmR5537"
 bottom: "lstmR5538"
 bottom: "lstmR5539"
 bottom: "lstmR5540"
 bottom: "lstmR5541"
 bottom: "lstmR5542"
 bottom: "lstmR5543"
top: "outW83"
  concat_param {    axis: 2  }
}
layer {
  #Concat over width
  name: "concat84"  type: "Concat"
 bottom: "lstmR5544"
 bottom: "lstmR5545"
 bottom: "lstmR5546"
 bottom: "lstmR5547"
 bottom: "lstmR5548"
 bottom: "lstmR5549"
 bottom: "lstmR5550"
 bottom: "lstmR5551"
 bottom: "lstmR5552"
 bottom: "lstmR5553"
 bottom: "lstmR5554"
 bottom: "lstmR5555"
 bottom: "lstmR5556"
 bottom: "lstmR5557"
 bottom: "lstmR5558"
 bottom: "lstmR5559"
 bottom: "lstmR5560"
 bottom: "lstmR5561"
 bottom: "lstmR5562"
 bottom: "lstmR5563"
 bottom: "lstmR5564"
 bottom: "lstmR5565"
 bottom: "lstmR5566"
 bottom: "lstmR5567"
 bottom: "lstmR5568"
 bottom: "lstmR5569"
 bottom: "lstmR5570"
 bottom: "lstmR5571"
 bottom: "lstmR5572"
 bottom: "lstmR5573"
 bottom: "lstmR5574"
 bottom: "lstmR5575"
 bottom: "lstmR5576"
 bottom: "lstmR5577"
 bottom: "lstmR5578"
 bottom: "lstmR5579"
 bottom: "lstmR5580"
 bottom: "lstmR5581"
 bottom: "lstmR5582"
 bottom: "lstmR5583"
 bottom: "lstmR5584"
 bottom: "lstmR5585"
 bottom: "lstmR5586"
 bottom: "lstmR5587"
 bottom: "lstmR5588"
 bottom: "lstmR5589"
 bottom: "lstmR5590"
 bottom: "lstmR5591"
 bottom: "lstmR5592"
 bottom: "lstmR5593"
 bottom: "lstmR5594"
 bottom: "lstmR5595"
 bottom: "lstmR5596"
 bottom: "lstmR5597"
 bottom: "lstmR5598"
 bottom: "lstmR5599"
 bottom: "lstmR5600"
 bottom: "lstmR5601"
 bottom: "lstmR5602"
 bottom: "lstmR5603"
 bottom: "lstmR5604"
 bottom: "lstmR5605"
 bottom: "lstmR5606"
 bottom: "lstmR5607"
 bottom: "lstmR5608"
 bottom: "lstmR5609"
top: "outW84"
  concat_param {    axis: 2  }
}
layer {
  #Concat over width
  name: "concat85"  type: "Concat"
 bottom: "lstmR5610"
 bottom: "lstmR5611"
 bottom: "lstmR5612"
 bottom: "lstmR5613"
 bottom: "lstmR5614"
 bottom: "lstmR5615"
 bottom: "lstmR5616"
 bottom: "lstmR5617"
 bottom: "lstmR5618"
 bottom: "lstmR5619"
 bottom: "lstmR5620"
 bottom: "lstmR5621"
 bottom: "lstmR5622"
 bottom: "lstmR5623"
 bottom: "lstmR5624"
 bottom: "lstmR5625"
 bottom: "lstmR5626"
 bottom: "lstmR5627"
 bottom: "lstmR5628"
 bottom: "lstmR5629"
 bottom: "lstmR5630"
 bottom: "lstmR5631"
 bottom: "lstmR5632"
 bottom: "lstmR5633"
 bottom: "lstmR5634"
 bottom: "lstmR5635"
 bottom: "lstmR5636"
 bottom: "lstmR5637"
 bottom: "lstmR5638"
 bottom: "lstmR5639"
 bottom: "lstmR5640"
 bottom: "lstmR5641"
 bottom: "lstmR5642"
 bottom: "lstmR5643"
 bottom: "lstmR5644"
 bottom: "lstmR5645"
 bottom: "lstmR5646"
 bottom: "lstmR5647"
 bottom: "lstmR5648"
 bottom: "lstmR5649"
 bottom: "lstmR5650"
 bottom: "lstmR5651"
 bottom: "lstmR5652"
 bottom: "lstmR5653"
 bottom: "lstmR5654"
 bottom: "lstmR5655"
 bottom: "lstmR5656"
 bottom: "lstmR5657"
 bottom: "lstmR5658"
 bottom: "lstmR5659"
 bottom: "lstmR5660"
 bottom: "lstmR5661"
 bottom: "lstmR5662"
 bottom: "lstmR5663"
 bottom: "lstmR5664"
 bottom: "lstmR5665"
 bottom: "lstmR5666"
 bottom: "lstmR5667"
 bottom: "lstmR5668"
 bottom: "lstmR5669"
 bottom: "lstmR5670"
 bottom: "lstmR5671"
 bottom: "lstmR5672"
 bottom: "lstmR5673"
 bottom: "lstmR5674"
 bottom: "lstmR5675"
top: "outW85"
  concat_param {    axis: 2  }
}
layer {
  #Concat over width
  name: "concat86"  type: "Concat"
 bottom: "lstmR5676"
 bottom: "lstmR5677"
 bottom: "lstmR5678"
 bottom: "lstmR5679"
 bottom: "lstmR5680"
 bottom: "lstmR5681"
 bottom: "lstmR5682"
 bottom: "lstmR5683"
 bottom: "lstmR5684"
 bottom: "lstmR5685"
 bottom: "lstmR5686"
 bottom: "lstmR5687"
 bottom: "lstmR5688"
 bottom: "lstmR5689"
 bottom: "lstmR5690"
 bottom: "lstmR5691"
 bottom: "lstmR5692"
 bottom: "lstmR5693"
 bottom: "lstmR5694"
 bottom: "lstmR5695"
 bottom: "lstmR5696"
 bottom: "lstmR5697"
 bottom: "lstmR5698"
 bottom: "lstmR5699"
 bottom: "lstmR5700"
 bottom: "lstmR5701"
 bottom: "lstmR5702"
 bottom: "lstmR5703"
 bottom: "lstmR5704"
 bottom: "lstmR5705"
 bottom: "lstmR5706"
 bottom: "lstmR5707"
 bottom: "lstmR5708"
 bottom: "lstmR5709"
 bottom: "lstmR5710"
 bottom: "lstmR5711"
 bottom: "lstmR5712"
 bottom: "lstmR5713"
 bottom: "lstmR5714"
 bottom: "lstmR5715"
 bottom: "lstmR5716"
 bottom: "lstmR5717"
 bottom: "lstmR5718"
 bottom: "lstmR5719"
 bottom: "lstmR5720"
 bottom: "lstmR5721"
 bottom: "lstmR5722"
 bottom: "lstmR5723"
 bottom: "lstmR5724"
 bottom: "lstmR5725"
 bottom: "lstmR5726"
 bottom: "lstmR5727"
 bottom: "lstmR5728"
 bottom: "lstmR5729"
 bottom: "lstmR5730"
 bottom: "lstmR5731"
 bottom: "lstmR5732"
 bottom: "lstmR5733"
 bottom: "lstmR5734"
 bottom: "lstmR5735"
 bottom: "lstmR5736"
 bottom: "lstmR5737"
 bottom: "lstmR5738"
 bottom: "lstmR5739"
 bottom: "lstmR5740"
 bottom: "lstmR5741"
top: "outW86"
  concat_param {    axis: 2  }
}
layer {
  #Concat over width
  name: "concat87"  type: "Concat"
 bottom: "lstmR5742"
 bottom: "lstmR5743"
 bottom: "lstmR5744"
 bottom: "lstmR5745"
 bottom: "lstmR5746"
 bottom: "lstmR5747"
 bottom: "lstmR5748"
 bottom: "lstmR5749"
 bottom: "lstmR5750"
 bottom: "lstmR5751"
 bottom: "lstmR5752"
 bottom: "lstmR5753"
 bottom: "lstmR5754"
 bottom: "lstmR5755"
 bottom: "lstmR5756"
 bottom: "lstmR5757"
 bottom: "lstmR5758"
 bottom: "lstmR5759"
 bottom: "lstmR5760"
 bottom: "lstmR5761"
 bottom: "lstmR5762"
 bottom: "lstmR5763"
 bottom: "lstmR5764"
 bottom: "lstmR5765"
 bottom: "lstmR5766"
 bottom: "lstmR5767"
 bottom: "lstmR5768"
 bottom: "lstmR5769"
 bottom: "lstmR5770"
 bottom: "lstmR5771"
 bottom: "lstmR5772"
 bottom: "lstmR5773"
 bottom: "lstmR5774"
 bottom: "lstmR5775"
 bottom: "lstmR5776"
 bottom: "lstmR5777"
 bottom: "lstmR5778"
 bottom: "lstmR5779"
 bottom: "lstmR5780"
 bottom: "lstmR5781"
 bottom: "lstmR5782"
 bottom: "lstmR5783"
 bottom: "lstmR5784"
 bottom: "lstmR5785"
 bottom: "lstmR5786"
 bottom: "lstmR5787"
 bottom: "lstmR5788"
 bottom: "lstmR5789"
 bottom: "lstmR5790"
 bottom: "lstmR5791"
 bottom: "lstmR5792"
 bottom: "lstmR5793"
 bottom: "lstmR5794"
 bottom: "lstmR5795"
 bottom: "lstmR5796"
 bottom: "lstmR5797"
 bottom: "lstmR5798"
 bottom: "lstmR5799"
 bottom: "lstmR5800"
 bottom: "lstmR5801"
 bottom: "lstmR5802"
 bottom: "lstmR5803"
 bottom: "lstmR5804"
 bottom: "lstmR5805"
 bottom: "lstmR5806"
 bottom: "lstmR5807"
top: "outW87"
  concat_param {    axis: 2  }
}
layer {
  #Concat over width
  name: "concat88"  type: "Concat"
 bottom: "lstmR5808"
 bottom: "lstmR5809"
 bottom: "lstmR5810"
 bottom: "lstmR5811"
 bottom: "lstmR5812"
 bottom: "lstmR5813"
 bottom: "lstmR5814"
 bottom: "lstmR5815"
 bottom: "lstmR5816"
 bottom: "lstmR5817"
 bottom: "lstmR5818"
 bottom: "lstmR5819"
 bottom: "lstmR5820"
 bottom: "lstmR5821"
 bottom: "lstmR5822"
 bottom: "lstmR5823"
 bottom: "lstmR5824"
 bottom: "lstmR5825"
 bottom: "lstmR5826"
 bottom: "lstmR5827"
 bottom: "lstmR5828"
 bottom: "lstmR5829"
 bottom: "lstmR5830"
 bottom: "lstmR5831"
 bottom: "lstmR5832"
 bottom: "lstmR5833"
 bottom: "lstmR5834"
 bottom: "lstmR5835"
 bottom: "lstmR5836"
 bottom: "lstmR5837"
 bottom: "lstmR5838"
 bottom: "lstmR5839"
 bottom: "lstmR5840"
 bottom: "lstmR5841"
 bottom: "lstmR5842"
 bottom: "lstmR5843"
 bottom: "lstmR5844"
 bottom: "lstmR5845"
 bottom: "lstmR5846"
 bottom: "lstmR5847"
 bottom: "lstmR5848"
 bottom: "lstmR5849"
 bottom: "lstmR5850"
 bottom: "lstmR5851"
 bottom: "lstmR5852"
 bottom: "lstmR5853"
 bottom: "lstmR5854"
 bottom: "lstmR5855"
 bottom: "lstmR5856"
 bottom: "lstmR5857"
 bottom: "lstmR5858"
 bottom: "lstmR5859"
 bottom: "lstmR5860"
 bottom: "lstmR5861"
 bottom: "lstmR5862"
 bottom: "lstmR5863"
 bottom: "lstmR5864"
 bottom: "lstmR5865"
 bottom: "lstmR5866"
 bottom: "lstmR5867"
 bottom: "lstmR5868"
 bottom: "lstmR5869"
 bottom: "lstmR5870"
 bottom: "lstmR5871"
 bottom: "lstmR5872"
 bottom: "lstmR5873"
top: "outW88"
  concat_param {    axis: 2  }
}
layer {
  #Concat over width
  name: "concat89"  type: "Concat"
 bottom: "lstmR5874"
 bottom: "lstmR5875"
 bottom: "lstmR5876"
 bottom: "lstmR5877"
 bottom: "lstmR5878"
 bottom: "lstmR5879"
 bottom: "lstmR5880"
 bottom: "lstmR5881"
 bottom: "lstmR5882"
 bottom: "lstmR5883"
 bottom: "lstmR5884"
 bottom: "lstmR5885"
 bottom: "lstmR5886"
 bottom: "lstmR5887"
 bottom: "lstmR5888"
 bottom: "lstmR5889"
 bottom: "lstmR5890"
 bottom: "lstmR5891"
 bottom: "lstmR5892"
 bottom: "lstmR5893"
 bottom: "lstmR5894"
 bottom: "lstmR5895"
 bottom: "lstmR5896"
 bottom: "lstmR5897"
 bottom: "lstmR5898"
 bottom: "lstmR5899"
 bottom: "lstmR5900"
 bottom: "lstmR5901"
 bottom: "lstmR5902"
 bottom: "lstmR5903"
 bottom: "lstmR5904"
 bottom: "lstmR5905"
 bottom: "lstmR5906"
 bottom: "lstmR5907"
 bottom: "lstmR5908"
 bottom: "lstmR5909"
 bottom: "lstmR5910"
 bottom: "lstmR5911"
 bottom: "lstmR5912"
 bottom: "lstmR5913"
 bottom: "lstmR5914"
 bottom: "lstmR5915"
 bottom: "lstmR5916"
 bottom: "lstmR5917"
 bottom: "lstmR5918"
 bottom: "lstmR5919"
 bottom: "lstmR5920"
 bottom: "lstmR5921"
 bottom: "lstmR5922"
 bottom: "lstmR5923"
 bottom: "lstmR5924"
 bottom: "lstmR5925"
 bottom: "lstmR5926"
 bottom: "lstmR5927"
 bottom: "lstmR5928"
 bottom: "lstmR5929"
 bottom: "lstmR5930"
 bottom: "lstmR5931"
 bottom: "lstmR5932"
 bottom: "lstmR5933"
 bottom: "lstmR5934"
 bottom: "lstmR5935"
 bottom: "lstmR5936"
 bottom: "lstmR5937"
 bottom: "lstmR5938"
 bottom: "lstmR5939"
top: "outW89"
  concat_param {    axis: 2  }
}
layer {
  #Concat over width
  name: "concat90"  type: "Concat"
 bottom: "lstmR5940"
 bottom: "lstmR5941"
 bottom: "lstmR5942"
 bottom: "lstmR5943"
 bottom: "lstmR5944"
 bottom: "lstmR5945"
 bottom: "lstmR5946"
 bottom: "lstmR5947"
 bottom: "lstmR5948"
 bottom: "lstmR5949"
 bottom: "lstmR5950"
 bottom: "lstmR5951"
 bottom: "lstmR5952"
 bottom: "lstmR5953"
 bottom: "lstmR5954"
 bottom: "lstmR5955"
 bottom: "lstmR5956"
 bottom: "lstmR5957"
 bottom: "lstmR5958"
 bottom: "lstmR5959"
 bottom: "lstmR5960"
 bottom: "lstmR5961"
 bottom: "lstmR5962"
 bottom: "lstmR5963"
 bottom: "lstmR5964"
 bottom: "lstmR5965"
 bottom: "lstmR5966"
 bottom: "lstmR5967"
 bottom: "lstmR5968"
 bottom: "lstmR5969"
 bottom: "lstmR5970"
 bottom: "lstmR5971"
 bottom: "lstmR5972"
 bottom: "lstmR5973"
 bottom: "lstmR5974"
 bottom: "lstmR5975"
 bottom: "lstmR5976"
 bottom: "lstmR5977"
 bottom: "lstmR5978"
 bottom: "lstmR5979"
 bottom: "lstmR5980"
 bottom: "lstmR5981"
 bottom: "lstmR5982"
 bottom: "lstmR5983"
 bottom: "lstmR5984"
 bottom: "lstmR5985"
 bottom: "lstmR5986"
 bottom: "lstmR5987"
 bottom: "lstmR5988"
 bottom: "lstmR5989"
 bottom: "lstmR5990"
 bottom: "lstmR5991"
 bottom: "lstmR5992"
 bottom: "lstmR5993"
 bottom: "lstmR5994"
 bottom: "lstmR5995"
 bottom: "lstmR5996"
 bottom: "lstmR5997"
 bottom: "lstmR5998"
 bottom: "lstmR5999"
 bottom: "lstmR6000"
 bottom: "lstmR6001"
 bottom: "lstmR6002"
 bottom: "lstmR6003"
 bottom: "lstmR6004"
 bottom: "lstmR6005"
top: "outW90"
  concat_param {    axis: 2  }
}



layer {
  #Concat over height
  name: "concatH"
  type: "Concat"

#CONCH
bottom: "outW0"
bottom: "outW1"
bottom: "outW2"
bottom: "outW3"
bottom: "outW4"
bottom: "outW5"
bottom: "outW6"
bottom: "outW7"
bottom: "outW8"
bottom: "outW9"
bottom: "outW10"
bottom: "outW11"
bottom: "outW12"
bottom: "outW13"
bottom: "outW14"
bottom: "outW15"
bottom: "outW16"
bottom: "outW17"
bottom: "outW18"
bottom: "outW19"
bottom: "outW20"
bottom: "outW21"
bottom: "outW22"
bottom: "outW23"
bottom: "outW24"
bottom: "outW25"
bottom: "outW26"
bottom: "outW27"
bottom: "outW28"
bottom: "outW29"
bottom: "outW30"
bottom: "outW31"
bottom: "outW32"
bottom: "outW33"
bottom: "outW34"
bottom: "outW35"
bottom: "outW36"
bottom: "outW37"
bottom: "outW38"
bottom: "outW39"
bottom: "outW40"
bottom: "outW41"
bottom: "outW42"
bottom: "outW43"
bottom: "outW44"
bottom: "outW45"
bottom: "outW46"
bottom: "outW47"
bottom: "outW48"
bottom: "outW49"
bottom: "outW50"
bottom: "outW51"
bottom: "outW52"
bottom: "outW53"
bottom: "outW54"
bottom: "outW55"
bottom: "outW56"
bottom: "outW57"
bottom: "outW58"
bottom: "outW59"
bottom: "outW60"
bottom: "outW61"
bottom: "outW62"
bottom: "outW63"
bottom: "outW64"
bottom: "outW65"
bottom: "outW66"
bottom: "outW67"
bottom: "outW68"
bottom: "outW69"
bottom: "outW70"
bottom: "outW71"
bottom: "outW72"
bottom: "outW73"
bottom: "outW74"
bottom: "outW75"
bottom: "outW76"
bottom: "outW77"
bottom: "outW78"
bottom: "outW79"
bottom: "outW80"
bottom: "outW81"
bottom: "outW82"
bottom: "outW83"
bottom: "outW84"
bottom: "outW85"
bottom: "outW86"
bottom: "outW87"
bottom: "outW88"
bottom: "outW89"
bottom: "outW90"


top: "outHW"
 
  concat_param {
    axis: 2
  }
}

layer 
{
  name: "ReshapeCube"
  type: "Reshape"
  bottom: "outHW"
  top: "Cubed"
  reshape_param
  {
    shape
    {
      dim: 0
      dim: -1
      dim: 13
      dim: 13
    }
  }
}


